VOC2012/Model_V0_1.tflite (tflite, 3384 bytes, 8 tensors)

model/batch_normalization_1/FusedBatchNormV3_add_param f4 [5]
00000000: 7753 e7be 9d91 42bf f4eb 1fbf afa2 5bbf
00000010: b8c2 e5bd
-0.45180866 -0.7600344 -0.6246941 -0.8579511 -0.1121878

model/batch_normalization_1/FusedBatchNormV3_mul_0_param f4 [5]
00000000: c557 0042 115b 0a40 bdb1 c13f d5f4 0c40
00000010: 496d 7a41
32.085712 2.1618083 1.5132366 2.2024434 15.651681

model/conv2d/Conv2D/ReadVariableOp f4 [5, 1, 1, 3]
00000000: 12af 40bf 4fcc f73d 62ed 133e 5036 483f
00000010: 9040 473f 41b2 22bf 396c 383f 3066 b83e
00000020: e9e1 0e3e c32f 02bd aa32 5f3f 4860 2bbf
00000030: 14bc d0be cb4e 153f 7b05 5abe
-0.75267136 0.12099516 0.14446023 0.78207874 0.7783289 -0.63553244 0.72040135 0.36015463
0.13953365 -0.03178383 0.8718668 -0.6694379 -0.40768492 0.58323354 -0.21291153

model/conv2d/Conv2D_bias f4 [5]
00000000: e8dc 89bb ba8d 0b3a 156a 993b 6908 c63c
00000010: 8fb3 babc
-0.0042072423 0.0005323548 0.0046818354 0.024173932 -0.022790698

model/conv2d_1/Conv2D/ReadVariableOp f4 [21, 1, 1, 5]
00000000: a2ec 22bf de5f 06bf a5d7 e03e 4b22 94be
00000010: a88d 813e 209e 90bd fc56 a13e 6888 13bf
00000020: 87dc b9be f570 4b3f 9fc9 d03e 676c 3dbf
00000030: c8c9 85bc 9545 633e 0ca8 403f 722b 84bf
00000040: f7d3 393f 7677 bdbe f5b3 16be 00f7 e6be
00000050: b65c 45bf f4f4 443e da54 1b3f c818 8cbe
00000060: 17d6 39bf f005 e6be c357 2b3f 4724 4b3f
00000070: 44a7 db3e e9b3 383d fb33 28bf 2432 0b3f
00000080: 796c 37bf f2bd 4dbf f76d fb3e 09f9 08bf
00000090: 58ed 103f d666 95be d07d a53e f92d bc3d
000000a0: 7fee cf3e 2f5e 20bf 613d 403f 820a 643f
000000b0: 3e53 023f 5a45 6d3e a93b 01bf 160c f8be
000000c0: a756 4f3f 5f2a 813e d75d 673f 4d8b 3b3e
000000d0: 6ec7 df3c 8df1 20bf f478 483f ebe2 66be
000000e0: e192 31bf c4e7 0cbf 8f53 843e f916 253f
000000f0: 56f1 56be 565b a43d c722 023f b7d5 14bf
00000100: 7206 b43e 8769 07be f34a 5ebf 06d0 7dbe
00000110: d473 e13e 0db3 213f eb0d 7c3f 35e1 0b3e
00000120: 9a56 fabe e46c 4abe 4651 633f 1963 a9bf
00000130: 2235 48be 61a5 e73e 400c 453f 2ee4 37bf
00000140: 7ec3 e3bd b628 32bf 2795 143f 889a 393f
00000150: 348e 00bf f846 13be 8b6f 063f e4e6 e0be
00000160: 1cc4 a2be f048 4cbf 2b2b 18be 1f4b 0bbf
00000170: c32b 3e3e ef5a a63e 7205 5dbf 889a 5e3d
00000180: 4b6e d9bd e496 b73e 7a52 2cbf fc82 8cbe
00000190: 79da d93e 5dd1 19bf fb96 b53e ac50 47be
000001a0: 6c69 8abe
-0.63642323 -0.5249003 0.43914524 -0.28932413 0.25303388 -0.0706141 0.31511676 -0.57630014
-0.36301062 0.79469234 0.40778825 -0.73993534 -0.016331568 0.22194512 0.7525642 -1.0325758
0.7258906 -0.37005204 -0.14717086 -0.4511032 -0.7709459 0.19234067 0.6067635 -0.27362657
-0.725923 -0.44926405 0.6693079 0.7935223 0.4290105 0.04509345 -0.65704316 0.54373384
-0.7164989 -0.8036796 0.49107334 -0.53505 0.5661216 -0.2918002 0.3232255 0.09188456
0.40611646 -0.6264371 0.75093657 0.89078534 0.5090827 0.23170987 -0.5048166 -0.4844672
0.80991596 0.2522764 0.90377563 0.18314858 0.027316775 -0.6286858 0.7830956 -0.225475
-0.69364744 -0.55041146 0.25845 0.6448818 -0.209905 0.080252334 0.50834316 -0.581386
0.35161167 -0.13223849 -0.86833113 -0.24786386 0.44033682 0.63163835 0.9845874 0.13660128
-0.48894197 -0.19768101 0.8879589 -1.3233367 -0.19551519 0.45243362 0.76971817 -0.7183255
-0.111212716 -0.6959337 0.5804009 0.7250142 -0.50216985 -0.14382541 0.5251395 -0.43926156
-0.31790245 -0.79798794 -0.14860217 -0.544115 0.18571381 0.32491252 -0.86336434 0.05434659
-0.1061674 0.35857308 -0.6731335 -0.27443683 0.42549494 -0.6008509 0.3546675 -0.19464368
-0.27033556

model/conv2d_1/Conv2D_bias f4 [21]
00000000: 0852 2d3d 6827 4dbd 69eb 27bd ae2f 2abd
00000010: 5784 c2bc 2013 33bd 729d 32bd 000a 55bd
00000020: fa14 36bd 3344 56bd 06bc 13bd 316c 4ebd
00000030: 603e fabc f049 48bd 88de 3bbd 98fd a1bc
00000040: de6e 04bd f0fd efbc 58c7 cebc 1afe aabc
00000050: 8dc1 c1bc
0.04231456 -0.05008641 -0.04099599 -0.041549377 -0.023744745 -0.04371941 -0.043607183 -0.05201149
-0.0444536 -0.052311134 -0.036067985 -0.050396148 -0.03054732 -0.048898637 -0.04586652 -0.019774243
-0.032332294 -0.029295892 -0.025241539 -0.020873118 -0.023651863

model/depthwise_conv2d/depthwise/ReadVariableOp f4 [1, 3, 3, 5]
00000000: 31a1 0ac1 3e28 43bf af81 6ebf f6a8 12c0
00000010: 0bd0 ca40 069e 7040 da7e 8ec0 711f a93e
00000020: 321e dcbf 025c b740 ab2c 2ebf e78a ae3f
00000030: 34d2 063f a223 07c0 29b6 b73f 1506 6440
00000040: 2c01 2d40 7f6a bf3e 6b52 19bf 35b6 d040
00000050: 7aba 19c0 fcd6 8fc0 2861 7b3d 15f9 f3bf
00000060: 97a5 9bc0 07db 09c1 d1c8 2b40 0f5e 0a3f
00000070: 4bcb 77be e764 29c1 3617 24c1 c7f5 3d40
00000080: eef6 243f fbe3 113f e1c7 46c0 26f1 43c0
00000090: 3cbf 4a3f ba6c 0c3f b844 c7bf 462d bfc0
000000a0: 44d6 9fc0 b906 41c0 bb64 3a3f 93a1 dcbf
000000b0: c7b0 2e3f
-8.664353 -0.7623328 -0.9316663 -2.2915626 6.337896 3.759645 -4.452985 0.330318
-1.7196715 5.7299814 -0.6803691 1.363614 0.52664495 -2.1115499 1.4352466 3.5628712
2.7031965 0.37385938 -0.59891385 6.522242 -2.4020066 -4.494993 0.061371952 -1.9060389
-4.8639636 -8.615973 2.6841319 0.5404977 -0.24198644 -10.587134 -10.255667 2.968126
0.64439285 0.56988496 -3.1059496 -3.0615935 0.7919805 0.54853404 -1.5567846 -5.9742765
-4.9949055 -3.0160353 0.7280995 -1.7236809 0.6823849

model/depthwise_conv2d/depthwise_bias f4 [5]
00000000: 28ed 0d3c dfdb 373f 9782 8dbf 1e28 9a3f
00000010: a023 34bc
0.0086624995 0.7181987 -1.1055478 1.2043493 -0.010994822
