VOC2012/Model_V0_1.tflite (tflite, 224992 bytes, 142 tensors)

model/conv2d/Conv2D/ReadVariableOp f4 [4, 1, 1, 3]
0	0x3f6029ef	0.87563986
1	0x3f133d83	0.57515734
2	0x3ef21af4	0.4728619
3	0xbe939ffa	-0.2883299
4	0xbebc18d4	-0.36737692
5	0xbf4a8075	-0.7910226
6	0x3f1eca47	0.620274
7	0x3ea669f2	0.32502705
8	0xbde3ea0e	-0.11128627
9	0xbf23f0dc	-0.640394
10	0x3f2d57e8	0.6771226
11	0xbf0eae42	-0.55734646

model/conv2d/Conv2D_bias f4 [4]
0	0x3af63fc1	0.0018787311
1	0x00000000	0.0
2	0xbc5e5c82	-0.01357186
3	0x3c547f25	0.012969767

model/conv2d_1/Conv2D/ReadVariableOp f4 [16, 1, 1, 16]
0	0x3e9493b2	0.29018933
1	0x3eeeaeab	0.46617636
2	0x3ee24c2b	0.44198737
3	0xbedcf2d5	-0.43154016
4	0x3e9b72ef	0.30361125
5	0x3e5ee33c	0.2176637
6	0x3c9de6d1	0.0192751
7	0xbefaa80e	-0.4895634
8	0xbee75c0b	-0.4518741
9	0xbe32215d	-0.1739554
10	0xbec00b30	-0.37508535
11	0x3e58a38a	0.21156135
12	0xbec5df6d	-0.38647023
13	0x3dd1c5e6	0.10242824
14	0x3ee746fe	0.4517135
15	0x3ea72fd5	0.3265368
16	0xbf2a514d	-0.66530305
17	0x3d3759aa	0.044763245
18	0xbe0443d3	-0.12916498
19	0x3f196007	0.5991215
20	0xbe188c04	-0.14897162
21	0xbd3e6356	-0.046481453
22	0xbed2ea88	-0.41194558
23	0x3ec7e071	0.39038423
24	0x3f18d6fe	0.5970305
25	0xbe53a847	-0.20669661
26	0x3eb6a869	0.35675362
27	0xbc952612	-0.01820663
28	0xbf437d5e	-0.7636317
29	0x3f41e38e	0.75737846
30	0xbefa416e	-0.48878044
31	0xbec26708	-0.37969232
32	0xbf01963a	-0.5061985
33	0x3efc039b	0.492215
34	0xbd243e0e	-0.040098242
35	0x3f08f89b	0.5350434
36	0x3b87e09f	0.00414665
37	0x3e22c7ca	0.15896526
38	0xbe94ed90	-0.29087496
39	0xbede17aa	-0.4337743
40	0xbed534e3	-0.41641912
41	0x3ed17389	0.4090846
42	0x3ecce147	0.40015623
43	0x3eb9fa86	0.36323947
44	0xbe9b5819	-0.3034065
45	0xbe514e29	-0.20439972
46	0xbeaa361f	-0.33244416
47	0x3cee8e4a	0.029120583
48	0x3e23c06a	0.15991369
49	0xbf2fb79f	-0.6863956
50	0xbeb3b20a	-0.3509677
51	0x3d41b5ce	0.047292523
52	0xbf4ace9e	-0.7922152
53	0xbd4dce1b	-0.050245386
54	0xbf29abf5	-0.6627801
55	0x3f39c006	0.7255863
56	0xbeaec5ee	-0.34135383
57	0x3f3c818d	0.7363518
58	0xbe6cee81	-0.23137857
59	0xbd91fb37	-0.071279936
60	0x3ee36d8b	0.44419512
61	0xbf4396e7	-0.76402134
62	0x3e180959	0.14847316
63	0xbbf9f8ae	-0.007628522
64	0x3f522884	0.8209307
65	0x3f130087	0.5742268
66	0xbef1a27d	-0.4719428
67	0xbf10e5a9	-0.56600434
68	0x3e9b1079	0.30286005
69	0xbf500d93	-0.8127071
70	0x3f5bd243	0.8586771
71	0x3e5deaf9	0.21671666
72	0xbf24fafe	-0.64445484
73	0xbf3fc7c1	-0.74914175
74	0x3eda8f69	0.42687538
75	0xbc6afa37	-0.014341882
76	0x3f2b8944	0.67006326
77	0xbf5b3a32	-0.85635674
78	0x3e24430d	0.16041203
79	0xbee63dca	-0.44969016
80	0x3e9bd6c6	0.30437297
81	0x3e083321	0.13300754
82	0x3f0c3639	0.5477024
83	0xbd622804	-0.055213943
84	0xbf2eb4ae	-0.68244445
85	0x3ea6dff2	0.32592732
86	0x3f0e9e30	0.55710125
87	0xbf174f98	-0.59105825
88	0x3f33cc78	0.7023387
89	0x3ec81a4a	0.39082557
90	0xbecfbffd	-0.40576163
91	0x3deba89d	0.1150677
92	0xbf3f77ee	-0.74792373
93	0x3e38e92e	0.18057701
94	0x3f07caa8	0.53043604
95	0xbef5f00b	-0.480347
96	0xbd892fd5	-0.06698576
97	0xbf36a9ee	-0.7135304
98	0xbf31aa24	-0.6940024
99	0x3f125fc0	0.5717735
100	0x3e72373e	0.23653886
101	0x3f038c71	0.5138617
102	0xbeef755c	-0.46769226
103	0x3f302eed	0.68821603
104	0x3ef06599	0.46952513
105	0xbefaba0c	-0.48970068
106	0x3ef2c8c9	0.47418812
107	0xbf14d2d9	-0.5813423
108	0xbe846ff5	-0.25866666
109	0x3e47abb4	0.19499093
110	0x3da6d7aa	0.081466034
111	0xbf24bfa7	-0.6435494
112	0x3e92a380	0.28640366
113	0x3eb03245	0.34413353
114	0xbf2d684a	-0.6773726
115	0xbe027c47	-0.1274272
116	0xbeff6fe9	-0.49890068
117	0xbdf79519	-0.12088985
118	0xbf18bc2c	-0.5966213
119	0x3e7dd560	0.24788427
120	0x3d1fb61d	0.038992036
121	0x3efcb91d	0.4935998
122	0x3f0284cd	0.5098389
123	0x3e53dc7e	0.2068958
124	0xbf1a22b8	-0.60209227
125	0x3efdbadb	0.49556622
126	0x3ca22a5d	0.019795591
127	0xbec03200	-0.37538147
128	0x3e810081	0.25195697
129	0xbe472a57	-0.19449745
130	0x3ed4c4a6	0.4155628
131	0x3ec1a633	0.37822112
132	0xbe92ebec	-0.2869562
133	0xbebcc4e4	-0.36868966
134	0xbed6976d	-0.41912404
135	0x3ec032c6	0.37538737
136	0xbe8fcbfa	-0.2808531
137	0xbcf14e2c	-0.02945622
138	0xbe6ddbcc	-0.23228377
139	0xbe04c519	-0.12965812
140	0xbe5357ae	-0.20638916
141	0x3e098bf4	0.13432294
142	0xbebff53c	-0.37491786
143	0xbecaf7b6	-0.39642113
144	0xbe97e304	-0.29665387
145	0xbee82fc1	-0.45348933
146	0xbef7ee18	-0.4842384
147	0x3e3902a2	0.1806741
148	0xbd3e087e	-0.046394818
149	0xbf0b0db4	-0.54317784
150	0x3e21e905	0.15811546
151	0xbbc91168	-0.006136108
152	0xbe3bc588	-0.18337071
153	0xbe125e6c	-0.14293832
154	0x3f1a569f	0.60288423
155	0x3d7f894e	0.062386803
156	0xbeec8cf2	-0.46201283
157	0x3e28dc1b	0.16490214
158	0x3ebe4aa1	0.37166312
159	0xbdffc03b	-0.12487837
160	0x3f066fd8	0.5251441
161	0xbd653233	-0.055956077
162	0xbea58408	-0.32327294
163	0xbf1444e1	-0.579176
164	0xbee11d60	-0.43967724
165	0xbf0fc0f9	-0.5615383
166	0x3db3d913	0.08781638
167	0x3dd2b541	0.10288478
168	0xbe6bb795	-0.2301925
169	0xbd94bfec	-0.07263169
170	0xbebadfbe	-0.36498827
171	0x3ce2def8	0.02769421
172	0xbe44ab34	-0.19205934
173	0x3e9e2114	0.30884612
174	0x3e59b1c8	0.21259224
175	0x3eeeabfb	0.46615586
176	0x3f1867ac	0.5953319
177	0xbd22e947	-0.03977325
178	0xbe306732	-0.17226866
179	0xbf1bcc2e	-0.6085843
180	0x3ea64814	0.32476866
181	0xbe22a9e6	-0.15885124
182	0x3dcbf75d	0.0995929
183	0x3ef6526c	0.48109758
184	0xbf0823ba	-0.53179514
185	0xbe3f5d3d	-0.18687911
186	0xbd06c76c	-0.032905027
187	0xbedbfdd3	-0.4296709
188	0xbeebfb03	-0.46089944
189	0xbf2b00b8	-0.6679797
190	0x3f26618c	0.64992595
191	0x3e11e51d	0.14247556
192	0xbf217823	-0.6307394
193	0xbf322111	-0.69581705
194	0xbf8e5a70	-1.1121349
195	0x3ee729df	0.45149133
196	0xbf7ede0d	-0.9955757
197	0xbe09d580	-0.1346035
198	0x3f67ff26	0.906237
199	0x3db4687b	0.088089906
200	0x3f1751bf	0.5910911
201	0xbefc4b9c	-0.49276435
202	0xbf8c9f54	-1.0986123
203	0xbdc6d1a7	-0.09707957
204	0x3ec2157d	0.3790702
205	0x3f6b8917	0.9200606
206	0x3f040504	0.51570153
207	0x3f21bdf9	0.631805
208	0xbef82352	-0.48464447
209	0x3f2e1e3a	0.6801487
210	0x3ed5a9d3	0.41731128
211	0x3f00cc0a	0.5031134
212	0x3e8911e2	0.26771456
213	0x3ca5ec30	0.020254225
214	0x3eb52fc6	0.3538801
215	0xbcba824c	-0.022767209
216	0x3e076684	0.132227
217	0xbec5e7fc	-0.38653553
218	0x3eb34304	0.35012066
219	0xbdcacb6c	-0.09902081
220	0x3ea87b50	0.3290658
221	0x3f3c85af	0.73641485
222	0x3ec85297	0.3912551
223	0x3f0791f3	0.52957076
224	0x3eb9f3e4	0.36318886
225	0xbf4a7b77	-0.7909464
226	0x3f4fdf73	0.8120033
227	0x3e95f943	0.29291734
228	0xbeb224cb	-0.34793696
229	0x3e7aea63	0.24503474
230	0x3f120f3a	0.57054484
231	0x3f249338	0.6428714
232	0xbe43460c	-0.1906969
233	0xbf2ccd57	-0.67500824
234	0xbf1e63a1	-0.6187077
235	0x3f0d7c65	0.55267936
236	0xbe312c62	-0.17302087
237	0xbf0061ff	-0.5014953
238	0xbeb28e08	-0.34873986
239	0xbf208477	-0.62702125
240	0xbe859296	-0.260884
241	0xbda6cf9f	-0.08145069
242	0x3ee7f007	0.45300314
243	0xbe40ea6b	-0.18839423
244	0x3f12a8b2	0.5728866
245	0xbeab4256	-0.33449048
246	0x3e2126c3	0.15737443
247	0xbe5c522b	-0.2151572
248	0x3e857a3d	0.26069823
249	0x3e4248c9	0.18973078
250	0xbf3b28bc	-0.7310903
251	0x3dc314c3	0.09525444
252	0x3ea9b2f1	0.33144334
253	0x3d801d52	0.062555924
254	0xbe765a24	-0.24057823
255	0x3e710ba5	0.23539598

model/conv2d_1/Conv2D_bias f4 [16]
0	0xbda478a7	-0.08030825
1	0x3f7a8dac	0.97872424
2	0x3f5b64f7	0.85700935
3	0x3f42229f	0.7583408
4	0xbfaf1246	-1.3677452
5	0xbe6b3632	-0.22969893
6	0x3c3e5aca	0.0116183255
7	0x3f1e05ca	0.61727583
8	0x3f38ddc2	0.72213376
9	0x3e3bf584	0.18355376
10	0x3e65fe85	0.22460373
11	0xbea581e8	-0.32325673
12	0x3f2dacdd	0.67841893
13	0xbf5783c3	-0.8418543
14	0x3e090254	0.13379794
15	0xbe352fc0	-0.17693996

model/conv2d_10/Conv2D/ReadVariableOp f4 [16, 1, 1, 32]
0	0x3db1acc4	0.086755306
1	0xbe970ef4	-0.29503596
2	0xbdff9c38	-0.12480968
3	0x3e99f2c0	0.30068016
4	0x3e39b279	0.18134488
5	0xbe48becb	-0.19604032
6	0x3e2c5cad	0.16832228
7	0x3e0fef37	0.14056097
8	0xbe968399	-0.29397276
9	0xbe8462d7	-0.2585666
10	0xbe9b10d3	-0.30286273
11	0x3ea2ddbe	0.318098
12	0xbe021ad2	-0.12705544
13	0xbe16b539	-0.14717568
14	0xbe956dac	-0.29185236
15	0xbeb3331a	-0.34999925
16	0xbeb034de	-0.34415334
17	0x3e851d6e	0.25999016
18	0xbe781e87	-0.24230395
19	0xbea5a35b	-0.32351193
20	0xbe854736	-0.26030892
21	0xbe08420b	-0.13306443
22	0xbc87b65a	-0.016566444
23	0x3e374fbf	0.17901514
24	0x3e37f991	0.17966296
25	0xbd12fb57	-0.035884228
26	0xbddeac53	-0.10872712
27	0x3db97c53	0.09056916
28	0xbe97bc70	-0.29635954
29	0x3e7cd428	0.24690306
30	0xbdfea89f	-0.12434506
31	0xbb388698	-0.0028156396
32	0x3e4bf60a	0.19918075
33	0x3e24c260	0.16089773
34	0x3e30094b	0.17191045
35	0xbeab7214	-0.33485472
36	0x3e31eca2	0.17375425
37	0x3bd66408	0.0065426864
38	0x3dd356fc	0.10319325
39	0x3e2a029a	0.16602555
40	0x3e64200a	0.22277847
41	0x3dd16199	0.102236934
42	0xbe397cf7	-0.18114077
43	0x3dcd5803	0.100265525
44	0x3e6988c1	0.22806074
45	0x3e80c1c0	0.2514782
46	0xbea149e2	-0.3150168
47	0xbe96366b	-0.29338393
48	0x3e24d754	0.16097766
49	0xbe0f286f	-0.13980268
50	0xbd53460e	-0.05158048
51	0x3e11da27	0.14243375
52	0x3e75747b	0.23970215
53	0x3ea93c3d	0.3305377
54	0x3ea08ca5	0.31357303
55	0x3e2440b0	0.16040301
56	0x3da2f1a8	0.079562485
57	0xbe10e81c	-0.14151043
58	0xbe3902c5	-0.18067463
59	0x3e3c77d0	0.1840508
60	0xbc3b53cf	-0.011433556
61	0x3e4946ae	0.19655868
62	0x3e2b1451	0.16706969
63	0x3dc4f7f8	0.09617609
64	0xbe864b9d	-0.26229563
65	0x3e93d458	0.28872943
66	0x3ebdf7a1	0.37102988
67	0x3d9c6c07	0.07637792
68	0x3e8fb432	0.28067166
69	0xbe326111	-0.1741984
70	0x3da0279f	0.07820057
71	0x3e819e48	0.25316072
72	0xbdcfa6e7	-0.10139256
73	0xbe2bc428	-0.16774046
74	0x3d3034b2	0.043019004
75	0xbe2f6f3d	-0.17132278
76	0x3e7f2f05	0.2492028
77	0xbe93d622	-0.28874308
78	0x3dbac21d	0.091190554
79	0xbd911576	-0.070841715
80	0xbe7f87af	-0.24954103
81	0xbe4c2ffa	-0.19940177
82	0xbdfaa8db	-0.12239238
83	0x3e3b485a	0.18289319
84	0xbe6e6c1a	-0.23283425
85	0xbd0779cf	-0.03307515
86	0x3e32c331	0.17457272
87	0xbe3454b8	-0.17610443
88	0xbdc8140d	-0.097694494
89	0xbe316cb8	-0.17326629
90	0xbe98e7fa	-0.29864484
91	0x3d0a5f8b	0.033782523
92	0x3df6c7dc	0.12049839
93	0x3e217f9c	0.15771335
94	0x3e8a1c23	0.26974592
95	0x3db2e1ea	0.08734496
96	0x3e6149c9	0.22000803
97	0xbe08afad	-0.13348265
98	0xbd7a1f2f	-0.061064895
99	0xbe372eca	-0.17888942
100	0x3e25278d	0.16128369
101	0xbdc2b754	-0.09507623
102	0x3e9a9e81	0.30199054
103	0xbe4da342	-0.20081809
104	0x3e33c4aa	0.1755549
105	0xbe4beea5	-0.19915254
106	0xbc14d84b	-0.009084771
107	0x3e4958f6	0.19662842
108	0x3ea4c83e	0.32184023
109	0x3d65d9d0	0.056115925
110	0x3da60744	0.081068546
111	0x3e47b46a	0.19502416
112	0x3e40559c	0.18782657
113	0xbd9eaa29	-0.07747299
114	0x3e881687	0.26579687
115	0x3e447b14	0.19187576
116	0xbab4fb16	-0.001380774
117	0xbce74301	-0.028230192
118	0xbc853915	-0.01626257
119	0xbe637aee	-0.22214863
120	0x3e7fb5df	0.24971722
121	0x3e2a5b01	0.16636278
122	0xbe156fa8	-0.14593375
123	0x3e8b6467	0.27225038
124	0xbd71550a	-0.05891899
125	0x3eab573a	0.33464986
126	0xbea4c217	-0.3217933
127	0x3eb2e9af	0.3494391
128	0x3d9b458e	0.07581626
129	0xbe28042f	-0.16407846
130	0xbeb17a5d	-0.34663668
131	0x3e96507f	0.2935829
132	0x3dc58697	0.096448116
133	0x3e8bd5b1	0.2731147
134	0xbe643102	-0.2228432
135	0xbea104f6	-0.31449097
136	0x3d0db369	0.034594927
137	0x3d81b109	0.06332595
138	0x3e05d912	0.13071087
139	0x3e8003a5	0.2500278
140	0xbd40d5b9	-0.04707882
141	0xbe5cb417	-0.21553074
142	0x3e4f1654	0.20223361
143	0x3e615945	0.2200671
144	0xbdf45ced	-0.11931787
145	0x3e1381f0	0.14405036
146	0xbe5f0c29	-0.21781982
147	0xbea7cd59	-0.32773855
148	0x3e317156	0.1732839
149	0xbe4097a2	-0.18807843
150	0xbc0de5cf	-0.008660748
151	0x3e29ae2e	0.1657035
152	0xbe97986c	-0.29608476
153	0x3e4f8094	0.20263892
154	0xbdaaf32d	-0.08347163
155	0x3e3f5412	0.18684414
156	0x3e12d5ac	0.14339322
157	0xbd1bee34	-0.038068965
158	0xbe9ba2ba	-0.30397588
159	0xbe6af47f	-0.2294483
160	0xbe9bd2ff	-0.30434415
161	0x3e3d995a	0.1851553
162	0xbca5e12c	-0.020248972
163	0x3e802ede	0.25035757
164	0xbe4cba04	-0.19992834
165	0xbe8eec2a	-0.27914554
166	0x3e6af2aa	0.22944131
167	0x3cfc6a4d	0.030812407
168	0xbd6499a8	-0.0558106
169	0xbeb0280c	-0.34405553
170	0xbe8e2f42	-0.2777043
171	0xbe2c5ff4	-0.16833478
172	0x3e88bb62	0.26705462
173	0x3e71d878	0.23617733
174	0x3d801c48	0.06255394
175	0x3d2fa380	0.042880535
176	0x3eaa24d8	0.33231235
177	0xbe00ddad	-0.12584563
178	0x3e5f93a3	0.21833663
179	0x3db4a9c1	0.088214405
180	0x3e42253c	0.18959516
181	0xbeb50956	-0.35358685
182	0xbe6439f1	-0.22287728
183	0xbe226ed7	-0.15862595
184	0x3e23f31f	0.16010712
185	0x3db6b1fb	0.08920666
186	0xbe0130f7	-0.12616335
187	0x3e0db0ed	0.13837023
188	0x3dc0988e	0.094040975
189	0xbe9c7647	-0.30558988
190	0x3dc4bb32	0.09606017
191	0xbe85764e	-0.26066822
192	0xbe98b5b5	-0.2982613
193	0x3e7c1571	0.24617554
194	0xbe82e7cd	-0.25567475
195	0xbd93a161	-0.07208515
196	0xbe4e79df	-0.20163678
197	0x3db91d0e	0.09038745
198	0xbd0e828e	-0.034792475
199	0x3e8affde	0.27148336
200	0xbe9cfe4d	-0.30662766
201	0x3e12638e	0.1429579
202	0xbe2da6b4	-0.16958123
203	0xbe13a31b	-0.14417689
204	0x3d0c764a	0.034292497
205	0xbe964af0	-0.29354048
206	0xbe43297b	-0.19058792
207	0xbe598996	-0.21243891
208	0x3dcd5f9d	0.100280024
209	0xbe9824f6	-0.297157
210	0x3c2ad38e	0.010426415
211	0xbe7e802f	-0.24853586
212	0xbd536407	-0.051609065
213	0x3e9c4310	0.30519915
214	0xbe80cd7e	-0.25156778
215	0xbe619b71	-0.22031952
216	0x3d6f6c7e	0.058453076
217	0xbe675c9c	-0.22593921
218	0xbe6ccd64	-0.23125225
219	0xbe63179a	-0.22176972
220	0x3d491027	0.04908767
221	0x3dd5148a	0.10404308
222	0xbe29c75f	-0.1657996
223	0x3e5b857e	0.21437642
224	0x3ea76dbf	0.32700917
225	0x3c9d07ea	0.019168813
226	0xbdd1fbf1	-0.10253132
227	0x3df5484e	0.11976682
228	0xbe08c381	-0.13355829
229	0x3e330e45	0.17485912
230	0xbd7f2f93	-0.06230123
231	0xbe8bff68	-0.27343297
232	0xbeb8c845	-0.36090294
233	0x3e6d48bd	0.23172279
234	0x3e4f7cba	0.20262423
235	0x3e0158d8	0.12631547
236	0xbd0dc058	-0.03460726
237	0xbe9050de	-0.28186697
238	0xbc9a0ed5	-0.0188059
239	0x3e950704	0.29106915
240	0xbea411e2	-0.32044894
241	0x3e51da77	0.20493494
242	0xbe23b72e	-0.15987846
243	0xbe347495	-0.17622598
244	0x3e1cad8e	0.15300581
245	0x3e9bd522	0.30436045
246	0x3dc05de5	0.09392909
247	0x3e06ed9e	0.13176581
248	0xbe9bd035	-0.30432287
249	0xbcdbb0e2	-0.026817743
250	0x3cf3693d	0.029713267
251	0x3dcd2bdf	0.10018133
252	0x3e45f9d7	0.19333588
253	0xbeaa0db7	-0.3321359
254	0xbe903d58	-0.28171802
255	0xbe0bb74b	-0.1364414

model/conv2d_10/Conv2D_bias f4 [16]
0	0xbc2635db	-0.010144676
1	0x3b849839	0.0040464667
2	0x3bd46391	0.006481596
3	0x3bd0749d	0.0063615576
4	0x3bdd4a43	0.0067532375
5	0x3a8bfa97	0.001067954
6	0x393dba50	0.00018093851
7	0xbb2d6b29	-0.0026461578
8	0xbbea2369	-0.0071453345
9	0xbc2b908a	-0.0104714725
10	0x3b84c83f	0.0040521915
11	0xbc3d4928	-0.011553086
12	0x3c048a31	0.008089588
13	0x3c024764	0.007951591
14	0xbc606ea4	-0.013698254
15	0x3c5a8578	0.0133374855

model/conv2d_11/Conv2D/ReadVariableOp f4 [64, 1, 1, 64]
0	0x3e827346	0.25478572
1	0xbcc39b74	-0.023877837
2	0x3e3facf1	0.18718316
3	0xbe5dc9f7	-0.21659075
4	0xbe6f42ce	-0.23365328
5	0x3d80ae62	0.06283261
6	0x3e13e0ca	0.14441219
7	0xbe16ca85	-0.14725693
8	0xbe6f7809	-0.23385634
9	0xbe737aec	-0.2377736
10	0xbdcf4a8c	-0.101216406
11	0x3e8e4426	0.27786368
12	0x3db1d7ae	0.08683716
13	0x3e319271	0.17341019
14	0xbd827278	-0.063694894
15	0x3d642319	0.055697534
16	0xbe66ce6f	-0.22539686
17	0x3e649e9e	0.22326133
18	0x3e2d2276	0.16907677
19	0xbe28ae65	-0.16472776
20	0xbd97f86c	-0.074204296
21	0xbe338e17	-0.17534672
22	0xbb20f2cd	-0.0024558783
23	0xbe59f78d	-0.2128584
24	0x3e5aa142	0.21350577
25	0x3e1ba8fb	0.1520118
26	0xbe819160	-0.25306225
27	0xbe9a4fca	-0.30139
28	0x3e456e22	0.19280294
29	0xbd0060fb	-0.031342488
30	0x3e34f49f	0.1767144
31	0x3e245728	0.16048872
32	0xbdeb2795	-0.11482159
33	0x3ad88351	0.0016518628
34	0x3e92ed58	0.28696704
35	0xbe8500a6	-0.25977057
36	0x3e181772	0.14852694
37	0xbe8ba807	-0.27276632
38	0xbe8f1bb2	-0.27950817
39	0xbb9506c4	-0.0045479257
40	0xbd7f8ae8	-0.06238833
41	0xbe0948f2	-0.13406733
42	0x3e352a47	0.17691909
43	0x3e1359c9	0.14389719
44	0x3e6f039f	0.23341225
45	0x3e6bdae0	0.23032713
46	0x3e5a3b3c	0.21311659
47	0xbc8a3980	-0.016873121
48	0x3e6639bf	0.22482966
49	0x3d92a2eb	0.071599804
50	0xbde6fb8a	-0.11278446
51	0xbe24fa98	-0.16111219
52	0x3c7bcd78	0.015368812
53	0xbd083d60	-0.033261657
54	0xbe7ff25b	-0.24994795
55	0xbe6502ee	-0.22364399
56	0x3e5d37e9	0.2160336
57	0x3d68017f	0.05664205
58	0xbd87afde	-0.06625341
59	0xbe4ebfa1	-0.20190288
60	0xbdf584d4	-0.119882256
61	0xbd207b63	-0.03918017
62	0x3e30dc7e	0.17271611
63	0x3c3a3f76	0.011367669
64	0x3e5cd449	0.21565355
65	0x3e262899	0.16226424
66	0x3eab819f	0.3349733
67	0x3e23d80e	0.16000387
68	0x3ead243e	0.33816713
69	0x3df5f765	0.120100774
70	0xbd80cd48	-0.06289154
71	0xbca0ec41	-0.019643905
72	0xbd29f91c	-0.041497335
73	0x3e4f3939	0.20236672
74	0xbe317a98	-0.17331922
75	0x3ea86db0	0.32896185
76	0xbea1bb81	-0.31588367
77	0xbd97ab5d	-0.07405732
78	0xbe8f0f2b	-0.2794126
79	0xbd1fda08	-0.03902629
80	0xbdbe6b78	-0.09297842
81	0xbe80f237	-0.25184795
82	0xbe9b45b3	-0.30326614
83	0x3e87cd34	0.26523745
84	0x3d9ffa4a	0.07811411
85	0xbe2d9572	-0.1695154
86	0x3dd0e40d	0.10199747
87	0xbe4496c5	-0.19198139
88	0xbe8effa8	-0.27929425
89	0xbe0d4931	-0.13797452
90	0x3e4050f6	0.18780884
91	0x3eb881a1	0.360364
92	0x3e0ec940	0.13943958
93	0x3e984c31	0.2974563
94	0xbe1d75de	-0.15376994
95	0x3dac343e	0.08408402
96	0xbeda4bb5	-0.42635885
97	0x3db25509	0.087076254
98	0xbe93b28e	-0.28847164
99	0xbeaf52ac	-0.3424276
100	0xbe10e985	-0.1415158
101	0xbde322f7	-0.110906534
102	0x3e708e0d	0.23491688
103	0x3df8b94d	0.12144718
104	0x3e79d1b8	0.24396408
105	0xbe5e46fd	-0.21706767
106	0xbe8f8612	-0.28031975
107	0x3d95fa66	0.0732315
108	0x3eba219f	0.36353776
109	0x3d77c96d	0.06049483
110	0xbd676c63	-0.05649985
111	0x3d0a3c8c	0.03374915
112	0x3e0e28af	0.13882707
113	0x3dabedce	0.08394967
114	0xbe50befa	-0.20385352
115	0x3de80a10	0.11330044
116	0x3cd74af1	0.026280852
117	0x3e874fdc	0.26428115
118	0x3e4c33db	0.19941656
119	0x3dbe194f	0.09282171
120	0x3e5cb68b	0.2155401
121	0x3cdc95fc	0.026926987
122	0x3e042859	0.12906016
123	0xbde15242	-0.110020176
124	0xbe73cb2f	-0.23807977
125	0xbe6abd44	-0.22923762
126	0x3d34cf09	0.044142757
127	0xbe8e1f25	-0.27758136
128	0xbe89999d	-0.2687501
129	0xbe6ba2f1	-0.23011376
130	0x3e0efba4	0.13963181
131	0x3e0d6568	0.13808215
132	0x3db66b82	0.08907224
133	0x3e80fb16	0.25191563
134	0xbe51d073	-0.20489673
135	0xbe5ef4d7	-0.21773086
136	0xbe087c73	-0.13328724
137	0x3c498252	0.012299137
138	0xbe9a40a3	-0.3012744
139	0xbd86a553	-0.06574502
140	0x3df16d90	0.117884755
141	0xbe07f37f	-0.1327648
142	0x3d90a65c	0.070629805
143	0x3e469353	0.19392137
144	0xbe051c9a	-0.12999192
145	0x3cdc0184	0.026856191
146	0xbe332efb	-0.1749839
147	0x3d105f9c	0.03524743
148	0x3e9daf00	0.30797577
149	0x3e7a48df	0.2444186
150	0x3dfbefff	0.12301635
151	0x3dd81097	0.10550039
152	0xbe27125a	-0.16315594
153	0xbe848e8c	-0.25890005
154	0xbe5ff6bf	-0.2187147
155	0xbe682129	-0.226689
156	0x3e8c1165	0.2735702
157	0x3dad2015	0.08453385
158	0x3e55b992	0.2087157
159	0xbe7e392b	-0.24826495
160	0xbe7c5e4f	-0.24645351
161	0x3d7b77d4	0.061393574
162	0xbe3cde2c	-0.18444127
163	0xbe707263	-0.23481135
164	0x3e18ee43	0.1493464
165	0xbdb4cf59	-0.08828611
166	0x3e107f0b	0.14110963
167	0xbe3f44df	-0.18678616
168	0x3e26328d	0.16230221
169	0xbe1ac50c	-0.1511423
170	0xbe53063e	-0.2060785
171	0x3d87cc12	0.0663072
172	0xbe1d75a2	-0.15376905
173	0x3b408ef3	0.002938208
174	0x3e02da77	0.1277865
175	0x3a0c9b9f	0.00053637655
176	0x3e837005	0.25671402
177	0x3e4518d0	0.19247746
178	0xbd80fae5	-0.06297854
179	0x3e498a56	0.19681677
180	0x3e6356bd	0.22201057
181	0x3e72eb91	0.23722674
182	0x3e9a553c	0.30143154
183	0xbe4ede72	-0.20202044
184	0x3e2b72ec	0.16743058
185	0x3cb63519	0.022242116
186	0xbb32e60b	-0.002729776
187	0xbe8fed2e	-0.2811064
188	0x3e50c8cf	0.20389102
189	0xbe7f5d4e	-0.24937937
190	0x3e941cad	0.28928128
191	0xbde33315	-0.110937275
192	0xbe66f52f	-0.22554468
193	0xbe8c859c	-0.27445686
194	0x3e82ba85	0.25532928
195	0x3ac95e20	0.0015363134
196	0x3e35c320	0.17750216
197	0xbe4bf1c9	-0.19916452
198	0xbcad445b	-0.021150758
199	0x3e00c41b	0.12574808
200	0xbe269c0e	-0.16270468
201	0x3d8d00a8	0.06884891
202	0x3e3bd4cb	0.18342893
203	0x3e5d8bfb	0.2163543
204	0x3db724ae	0.08942543
205	0xbe041d9f	-0.12901925
206	0xbe1ac79e	-0.1511521
207	0x3e339552	0.1753743
208	0xbde567ed	-0.11201463
209	0x3e8e575b	0.27801022
210	0x3ba1b771	0.004935198
211	0x3e4d307f	0.20038031
212	0xbd0ea87f	-0.03482866
213	0xbdcfa3ad	-0.101386406
214	0x3d880790	0.066420674
215	0xbe846315	-0.25856844
216	0x3e1e3392	0.1544936
217	0xbe10d404	-0.14143378
218	0x3e581276	0.21100792
219	0x3e8034fc	0.25040424
220	0xbe390365	-0.18067701
221	0x3d03efd1	0.03221113
222	0x3e165676	0.1468142
223	0xbbc12fb9	-0.0058955816
224	0x3e290e1d	0.1650929
225	0x3e6b8286	0.2299901
226	0x3d73bab0	0.05950421
227	0x3df9a4af	0.12189614
228	0x3dd19bc5	0.10234789
229	0x3c8b28a7	0.016987158
230	0xbe60f28f	-0.21967529
231	0x3c742605	0.014901643
232	0xbdb47ee4	-0.08813265
233	0x3e6cbd96	0.23119196
234	0xbe45128d	-0.19245358
235	0x3bd9901f	0.006639495
236	0x3d85726f	0.06515967
237	0x3e70718f	0.23480819
238	0x3d7290fa	0.05922029
239	0x3e4abb19	0.19797935
240	0xbdab659b	-0.08368989
241	0x3d5928f3	0.053017568
242	0x3d83be9c	0.0643284
243	0x3e65b699	0.22432937
244	0x3e68d548	0.2273761
245	0xbdebb6b6	-0.11509459
246	0x3e553562	0.20821145
247	0x3d1860f6	0.037201844
248	0xbd01bce6	-0.03167429
249	0x3e43c82b	0.19119327
250	0x3dd0d5db	0.1019704
251	0x3e4547c2	0.19265655
252	0xbe18bc26	-0.14915523
253	0x3e40f316	0.1884273
254	0xbe1a10d3	-0.1504548
255	0xbe1dec48	-0.15422165

model/conv2d_11/Conv2D_bias f4 [64]
0	0x3eb4051a	0.35160142
1	0x3e801bf6	0.25021333
2	0xbdbc28d0	-0.09187472
3	0xbfd021a0	-1.6260262
4	0xbf31957a	-0.6936871
5	0x3fbabda5	1.4589125
6	0x3f711f62	0.9418851
7	0x3eacd3a7	0.33755228
8	0xbd959143	-0.07303097
9	0xbdf721b4	-0.12066975
10	0xbef009a4	-0.46882355
11	0x3e890576	0.2676198
12	0x3f612b41	0.87956625
13	0xbf57fb39	-0.8436771
14	0x3f813847	1.00953
15	0xbe0586ed	-0.13039751
16	0x3f361688	0.7112813
17	0x3f271a64	0.65274644
18	0xbe5f7146	-0.21820554
19	0xbeebe56e	-0.46073478
20	0x3f8dbe06	1.1073616
21	0xbfad325a	-1.3530991
22	0x3fc89926	1.5671737
23	0x3d7db330	0.061938465
24	0xbf2be24c	-0.67142177
25	0x3eff2b37	0.49837658
26	0x3f514168	0.81740427
27	0x3f7bc070	0.9834051
28	0x3f93554f	1.1510409
29	0x3f336ae4	0.7008498
30	0xbebe6c64	-0.3719207
31	0x3f95eb9d	1.1712528
32	0x3efe22de	0.49635977
33	0x3f762afd	0.96159345
34	0x3fd2fee9	1.6484042
35	0x3f4212b7	0.75809807
36	0x3e98858c	0.29789388
37	0x3ecfe033	0.40600738
38	0x3fa85d60	1.3153496
39	0xbfadfe1c	-1.3593173
40	0x3e0a406b	0.13501136
41	0xbfa65504	-1.2994695
42	0xbe1f7eec	-0.1557576
43	0xbf5b779f	-0.857294
44	0xbe698cc6	-0.22807607
45	0xbd4aaec1	-0.049483065
46	0x3fd3f483	1.6558994
47	0x3d6172a0	0.055040956
48	0x3ebe80ec	0.37207735
49	0x3f66d83b	0.9017369
50	0x3eff2cfa	0.49839002
51	0x3f284764	0.65733933
52	0x3f2134fd	0.6297148
53	0x3ee3f033	0.44519195
54	0x3e7a8980	0.24466515
55	0xbf086303	-0.5327608
56	0xbf97f5e6	-1.1871917
57	0x3e50f5ee	0.20406315
58	0x3f036f2f	0.5134153
59	0x3d7b4b1c	0.061350927
60	0xbb86dbd5	-0.0041155615
61	0xbf861104	-1.0473943
62	0xbf680d5b	-0.9064538
63	0xbf6e6157	-0.9311728

model/conv2d_12/Conv2D/ReadVariableOp f4 [16, 1, 1, 64]
0	0xbe08b652	-0.133508
1	0x3e23d4da	0.15999165
2	0x3e852135	0.26001897
3	0xbe5e4b27	-0.21708356
4	0x3de9cdb1	0.11416186
5	0xbe007935	-0.12546237
6	0xbe20b53c	-0.15694135
7	0xbe354e7b	-0.17705719
8	0x3da230d8	0.079194725
9	0x3e13097a	0.14359084
10	0x3d49ffdf	0.049316283
11	0xbe18300e	-0.14862081
12	0x3e25d4f7	0.16194521
13	0x3d0019f8	0.031274766
14	0x3e3fefe3	0.18743853
15	0x3df29aad	0.11845908
16	0x3dc70742	0.09718181
17	0xbe90c4b5	-0.28275076
18	0x3e7a42b9	0.24439515
19	0xbe5757f9	-0.21029653
20	0xbe54d667	-0.20784913
21	0xbe0e276e	-0.13882229
22	0xbe55c845	-0.20877178
23	0xbe1ccf61	-0.15313484
24	0x3e1f1bf9	0.15538014
25	0x3e81ea5e	0.2537412
26	0x3dd74b2e	0.10512386
27	0x3d872a9c	0.06599924
28	0x3e59a402	0.2125397
29	0x3c5f2b71	0.013621197
30	0xbe8916eb	-0.26775298
31	0xbe4f5532	-0.20247343
32	0x3e580c9d	0.21098562
33	0x3cae9bc1	0.021314504
34	0x3da854ed	0.08219323
35	0x3e74d942	0.23911002
36	0x3e4f2a05	0.20230873
37	0xbcf07156	-0.029350918
38	0x3e3fea38	0.18741691
39	0xbe8af148	-0.27137208
40	0xbd91f7c4	-0.07127336
41	0x3d6d0169	0.057862673
42	0xbe830cd3	-0.25595722
43	0xbd9d4c64	-0.07680586
44	0x3e6edb3e	0.23325822
45	0xbd97a892	-0.07405199
46	0x3e818449	0.25296238
47	0x3e42fd4e	0.1904194
48	0x3d9cb22e	0.076511726
49	0xbde24062	-0.11047436
50	0x3e26534d	0.16242714
51	0x3d7f85e6	0.062383555
52	0x3e7976c9	0.24361719
53	0x3e50b1e5	0.20380361
54	0x3d96f127	0.07370215
55	0x3d547385	0.05186798
56	0xbe2b054c	-0.1670124
57	0x3c23cc9a	0.009997511
58	0x3c8881a4	0.01666338
59	0x3db602ff	0.0888729
60	0xbe15e78e	-0.14639112
61	0xbe420cc6	-0.18950185
62	0x3d606771	0.05478615
63	0x3e726135	0.23669894
64	0xbe631379	-0.22175397
65	0x3d8812a6	0.06644182
66	0xbc1f678b	-0.009729276
67	0x3e7c4b6d	0.24638148
68	0x3e2b8915	0.16751511
69	0xbe3c1c78	-0.18370235
70	0xbe5327f1	-0.20620705
71	0x3e324f1c	0.1741299
72	0xbe43edfe	-0.19133756
73	0xbe4f6719	-0.20254172
74	0xbde90280	-0.1137743
75	0xbdf56a9a	-0.11983223
76	0x3d7f0fc3	0.06227089
77	0x3e635e8c	0.22204036
78	0x3de9dc41	0.11418963
79	0x3e1c0aae	0.15238449
80	0x3e61ab7d	0.22038074
81	0x3cb3f72a	0.021968443
82	0xbdfefa30	-0.12450063
83	0xbde2406a	-0.11047442
84	0x3e0d1f98	0.13781583
85	0xbb7ca04c	-0.0038547693
86	0xbd6d1e55	-0.057890255
87	0x3a3ca60a	0.00071963726
88	0x3dcd9fea	0.10040267
89	0xbe27bac5	-0.1637984
90	0xbe568265	-0.20948179
91	0x3da94349	0.08264787
92	0xbe4ed236	-0.20197377
93	0x3e8ab4c7	0.27091047
94	0xbd5ce4b5	-0.05392905
95	0xbe62da1b	-0.22153513
96	0xbd218029	-0.039428864
97	0x3debef51	0.11520255
98	0x3e264ba9	0.162398
99	0x3df1fd87	0.11815935
100	0x3d6b73c8	0.057483464
101	0x3da47ae1	0.0803125
102	0x3e0f3729	0.13985886
103	0xbe481c8a	-0.19542137
104	0x3d935c05	0.07195286
105	0xbe5cc16d	-0.21558161
106	0xbd22a2b9	-0.039705966
107	0xbced3d33	-0.028959846
108	0xbe3796cf	-0.17928623
109	0x3db78f58	0.089628875
110	0x3c065e04	0.008201126
111	0xbe426241	-0.18982793
112	0x3d4d97b0	0.05019349
113	0xbc91aa1a	-0.017781306
114	0xbe7045a5	-0.23464067
115	0x3e4c1c7e	0.19932744
116	0x3dae6a45	0.08516363
117	0xbd0953a1	-0.03352702
118	0xbe06a07a	-0.13147154
119	0x3e35a669	0.17739262
120	0xbe7f1c39	-0.2491311
121	0xbd0c2316	-0.034213148
122	0x3e852080	0.26001358
123	0x3e82c6e7	0.25542375
124	0xbe228c2b	-0.15873782
125	0x3e3ac9d3	0.18241052
126	0xbdcc31a2	-0.09970404
127	0xbd2c2327	-0.04202571
128	0xbd4114c5	-0.047138948
129	0xbe1cecb2	-0.15324667
130	0x3cad4f67	0.021156026
131	0xbb78e989	-0.0037980995
132	0x3de49ed8	0.111631095
133	0x3e7b29c4	0.24527651
134	0x3db8d8f2	0.09025754
135	0x3d987e0d	0.07445917
136	0x3d356176	0.0442824
137	0x3e31c7c4	0.17361361
138	0x3d82b85b	0.06382819
139	0xbe77bbd2	-0.24192742
140	0x3e32467c	0.174097
141	0x3c09781a	0.008390451
142	0xbcb370c8	-0.021904364
143	0x3dd90992	0.105975285
144	0xbd7de810	-0.06198889
145	0x3e3d4fcd	0.18487473
146	0xbd8831b0	-0.06650102
147	0xbd2b0345	-0.041751165
148	0x3b31de07	0.0027140395
149	0xbe25a1b7	-0.1617497
150	0x3e53eb76	0.2069529
151	0x3db00ab1	0.08595789
152	0xbe071697	-0.13192211
153	0x3dce9bb3	0.10088291
154	0xbe156c80	-0.1459217
155	0xbe7e1f13	-0.24816541
156	0xbdc59baf	-0.09648835
157	0x3e2a47d9	0.1662897
158	0xbdc61948	-0.09672791
159	0x3e8b1e54	0.27171576
160	0x3e503178	0.20331371
161	0xbe68f980	-0.22751427
162	0xbd836209	-0.06415183
163	0x3db1afe6	0.08676128
164	0xbd521e21	-0.051298264
165	0xbe6e01d0	-0.23242879
166	0x3e10352c	0.14082783
167	0xbdcbdd41	-0.0995431
168	0x3e2a451a	0.16627923
169	0x3e3ca061	0.18420555
170	0x3e6ea564	0.23305279
171	0x3e321f57	0.17394768
172	0xbdb637b7	-0.088973455
173	0x3e520a8b	0.20511834
174	0xbc7c4e14	-0.015399475
175	0xbe8ad946	-0.2711889
176	0x3e2e75bb	0.17037098
177	0x3ccbdf86	0.024886858
178	0xbc448843	-0.011995378
179	0x3dd4086e	0.1035317
180	0x3dcafbcd	0.099113084
181	0xbe10497d	-0.14090534
182	0x3cb64cf5	0.022253493
183	0xbe106c35	-0.14103778
184	0x3e49193f	0.19638537
185	0x3e0c8714	0.13723403
186	0xbe64a29e	-0.22327659
187	0xbb1759c5	-0.0023094278
188	0xbe8c0100	-0.27344513
189	0xbc6a7062	-0.014309021
190	0xbd5f8453	-0.054569554
191	0xbe0a1a66	-0.13486633
192	0xbe4b996c	-0.19882745
193	0xbe66fc0d	-0.22557087
194	0x3de3f568	0.11130792
195	0x3e01420a	0.12622848
196	0x3ddf97d5	0.109176315
197	0xbda99214	-0.08279815
198	0x3e717d48	0.23582947
199	0xbd02d396	-0.031940065
200	0xbd96a07c	-0.07354829
201	0xbe80f08a	-0.25183517
202	0xbd23eff0	-0.040023744
203	0x3e102e9a	0.14080277
204	0x3d83d3ea	0.06436904
205	0xbd8b1def	-0.06792819
206	0xbe88512e	-0.26624435
207	0xbe49c1ae	-0.19702789
208	0x3e76a00b	0.24084489
209	0x3ce041d3	0.027375137
210	0xbdd0927b	-0.10184189
211	0x3dee1a36	0.11626093
212	0x3dae5869	0.08512957
213	0xbe60be29	-0.2194754
214	0xbb79c54d	-0.0038111985
215	0xbd45713e	-0.0482037
216	0x3dcd53c4	0.10025743
217	0xbe4dbb33	-0.20090942
218	0x3e7974b3	0.24360923
219	0x3d6cf7fd	0.057853688
220	0x3e1259ce	0.1429207
221	0x3d5afb6e	0.05346244
222	0x3e1bb918	0.15207326
223	0xbe897389	-0.2684596
224	0x3dc8f96f	0.09813201
225	0xbe85ebe2	-0.26156527
226	0x3b9aeabd	0.00472769
227	0xbd98bfa5	-0.07458428
228	0x3d2e300c	0.04252629
229	0xbe582bba	-0.2111043
230	0x3df28e2d	0.11843524
231	0xbe4b3424	-0.19844109
232	0x3da6ea01	0.081501015
233	0x3d9b3225	0.07577924
234	0x3d288836	0.041145526
235	0x3e83fb63	0.2577773
236	0xbe40e5d9	-0.1883768
237	0xbe3072a6	-0.17231235
238	0xbd5429b3	-0.05179758
239	0xbe81b518	-0.25333476
240	0x3cb187ce	0.021671202
241	0x3d6daba2	0.05802501
242	0xbe78591b	-0.24252741
243	0xbe241cbc	-0.16026586
244	0x3da17315	0.07883278
245	0xbd919894	-0.0710918
246	0xbe4afb60	-0.19822454
247	0xbd33e741	-0.043921713
248	0x3e256b40	0.16154194
249	0xbe4e511e	-0.20148131
250	0x3e641954	0.22275287
251	0x3e39bd53	0.18138628
252	0x3e75373e	0.23946854
253	0x3e580e2c	0.21099156
254	0xbe84d107	-0.25940725
255	0x3dd90ec3	0.10598519

model/conv2d_12/Conv2D_bias f4 [16]
0	0xbb0507be	-0.0020298804
1	0x3be76c2f	0.007062457
2	0x3957616b	0.00020540289
3	0x3bd9db40	0.006648451
4	0xbadc9662	-0.0016829486
5	0x3b1a8376	0.0023576892
6	0x39b49077	0.0003443991
7	0x3c35c23b	0.011093671
8	0xbb2bc6ed	-0.0026211098
9	0xbc02dc48	-0.007987089
10	0xbbf89934	-0.0075866226
11	0xbb76882b	-0.0037617784
12	0x3b76b233	0.0037642836
13	0xbbb9cbf3	-0.0056700646
14	0xbb9ca419	-0.004780304
15	0xbc081a9c	-0.008307125

model/conv2d_13/Conv2D/ReadVariableOp f4 [64, 1, 1, 64]
0	0x3e7de91a	0.24795952
1	0xbe9cb39c	-0.3060578
2	0xbdeb2fe8	-0.11483747
3	0xbeac89c1	-0.33698848
4	0x3e93667a	0.2878912
5	0x3e23abb4	0.15983468
6	0xbe7a8f4c	-0.24468726
7	0x3ae8915f	0.0017743519
8	0x3e132f33	0.14373474
9	0x3eb88071	0.36035493
10	0x3ea906c8	0.33012986
11	0xbea93680	-0.33049393
12	0x3d98c50c	0.07459459
13	0xbd18223a	-0.037142016
14	0xbe312729	-0.17300095
15	0xbe8ad090	-0.27112246
16	0xbd999079	-0.07498259
17	0x3e6641ef	0.22486089
18	0xbd16f23e	-0.036852114
19	0x3e307919	0.17233695
20	0x3dfa8e59	0.12234182
21	0x3e898ffe	0.2686767
22	0x3c6a7a61	0.014311404
23	0xbe73a348	-0.23792756
24	0x3d1d4e02	0.038404472
25	0xbc5d2f16	-0.013499996
26	0x3e8db568	0.27677464
27	0x3eae3304	0.34023297
28	0xbeba4554	-0.36381018
29	0xbe9e8d00	-0.3096695
30	0xbd7f2150	-0.06228763
31	0x3e4ff281	0.20307352
32	0xbe6aa423	-0.22914176
33	0x3e998746	0.29986018
34	0xbe0db5dd	-0.13838907
35	0x3e805bb7	0.25069973
36	0x3e61ede0	0.22063398
37	0x3ebf08f5	0.3731152
38	0xbdeef6ba	-0.11668153
39	0x3cab7f94	0.020934857
40	0xbe0b9d05	-0.13634117
41	0xbe747685	-0.23873337
42	0x3dbc9e16	0.0920984
43	0x3c5d9553	0.013524371
44	0x3e7ae8e5	0.24502905
45	0x3e7a9897	0.24472271
46	0xbe5d5f5c	-0.21618408
47	0x3eb80adc	0.35945785
48	0xbe9ef60a	-0.31047088
49	0xbe29c3d4	-0.16578609
50	0xbe0989a9	-0.1343142
51	0x3e24b5cf	0.1608498
52	0x3b6e290d	0.0036340386
53	0xbe87ce5c	-0.26524627
54	0xbd3e5114	-0.04646404
55	0x3eb784bc	0.35843456
56	0xbcf69619	-0.030100869
57	0xbec7d8ca	-0.39032584
58	0x3deae4fc	0.114694566
59	0x3e88df14	0.26732695
60	0xbe8410fa	-0.25794202
61	0xbe4f7557	-0.20259605
62	0xbe906b7b	-0.28207
63	0xbcf2f4c8	-0.029657736
64	0xbe8e78f6	-0.2782666
65	0x3ead8882	0.3389321
66	0xbca8f8f4	-0.020626523
67	0xbea10636	-0.3145005
68	0xbe65aeef	-0.22430013
69	0x3e1e59d8	0.1546396
70	0x3e044f31	0.12920834
71	0xbe1a195d	-0.15048738
72	0xbeb80be9	-0.35946587
73	0xbe8b272b	-0.2717832
74	0xbd25878f	-0.040412482
75	0xbe939270	-0.2882266
76	0x3dd0f58d	0.10203085
77	0x3e3e1700	0.18563461
78	0xbe08e34a	-0.13367954
79	0xbe346988	-0.17618382
80	0xbe84d22f	-0.25941607
81	0x3da0433e	0.078253254
82	0xbe712aae	-0.23551437
83	0xbe944f45	-0.28966728
84	0x3e3499da	0.17636815
85	0xbe959ede	-0.2922277
86	0x3dbc077e	0.091811165
87	0x3e89bac1	0.26900294
88	0xbe850f67	-0.25988314
89	0x3c53256a	0.012887338
90	0x3ea6f01e	0.3260507
91	0xbe1e35d1	-0.15450217
92	0xbd9d3847	-0.0767675
93	0xbe97c743	-0.29644212
94	0xbd3d97f2	-0.046287484
95	0xbe9fe2af	-0.31227633
96	0xbe8fe41c	-0.2810372
97	0x3ea83441	0.32852367
98	0xbe45496c	-0.1926629
99	0x3da584d2	0.08081974
100	0x3d02cba0	0.031932473
101	0x3c3e22cf	0.011604979
102	0xbe00bdff	-0.12572478
103	0xbe97d4ec	-0.29654634
104	0x3e1c44d5	0.15260632
105	0xbd3319ff	-0.043725964
106	0x3e9619f4	0.29316676
107	0x3dfa82bd	0.122319676
108	0xbe9eb63f	-0.30998418
109	0xbe73af3a	-0.23797312
110	0x3ec05123	0.37561902
111	0x3e8a7d28	0.27048612
112	0x3e1780c5	0.14795215
113	0xbea5b7f4	-0.32366908
114	0x3db56515	0.088571705
115	0x3e5630b9	0.20917024
116	0x3dd114e3	0.10209062
117	0x3e8e9286	0.27846164
118	0x3e1353df	0.14387463
119	0x3e0f252f	0.13979028
120	0xbdcf921c	-0.1013529
121	0x3e2a18ad	0.16610976
122	0x3e342607	0.17592631
123	0xbe5cf406	-0.21577463
124	0x3e3e9d23	0.1861463
125	0xbe81fbfd	-0.25387564
126	0x3e2cf923	0.16891913
127	0x3e580492	0.21095493
128	0x3d90d4b4	0.0707182
129	0xbd84268e	-0.06452666
130	0xbbff3312	-0.0077880705
131	0x3eb0114b	0.34388193
132	0x3ca4fae5	0.020139167
133	0x3ed0b79c	0.40765083
134	0x3eaf8d8e	0.34287685
135	0x3eccd75b	0.40008053
136	0xbebffbcf	-0.37496802
137	0x3e893268	0.2679627
138	0x3d03e209	0.032197986
139	0x3cc435b4	0.023951389
140	0xbd41ef50	-0.047347367
141	0x3e9e4086	0.30908602
142	0xbec13283	-0.3773385
143	0x3dd4817d	0.103762604
144	0xbeb501e2	-0.35353
145	0xbe8dce5a	-0.27696496
146	0x3e719bc5	0.23594578
147	0x3e77ee12	0.2421191
148	0x3ea774f9	0.3270643
149	0xbe2fcaf5	-0.17167266
150	0xbea1e043	-0.3161641
151	0x3d1e768a	0.038687266
152	0xbe4012c8	-0.18757164
153	0x3dc60a42	0.09669925
154	0x3e0d86e0	0.13820982
155	0x3e8cdfa2	0.27514368
156	0x3e3812fb	0.1797599
157	0x3e5e2877	0.21695124
158	0xbd6ef4b1	-0.058338825
159	0xbe698d1f	-0.2280774
160	0xbec423a6	-0.38308448
161	0xbead5eb4	-0.33861315
162	0xbe432abf	-0.19059275
163	0x3d32f1d3	0.043687653
164	0xbe29b5ee	-0.16573307
165	0x3e25a411	0.16175868
166	0xbdb85f8e	-0.090026006
167	0xbdd7e857	-0.10542362
168	0xbea7b22e	-0.32753128
169	0x3ea28443	0.31741533
170	0x3e063fc6	0.13110265
171	0x3cf1d400	0.029520035
172	0xbe7e2ee9	-0.24822582
173	0xbdd660aa	-0.10467656
174	0x3e239a33	0.15976791
175	0xbce1e278	-0.027573809
176	0xbdad93e0	-0.084754705
177	0xbbe0d974	-0.00686186
178	0x3dcb6086	0.0993052
179	0x3c9d5ddf	0.0192098
180	0xbbb4c3cc	-0.005516505
181	0xbe13199d	-0.1436524
182	0x3e2d6201	0.16931917
183	0xbc458d85	-0.012057667
184	0xbe602a3d	-0.21891113
185	0xbe1f46f0	-0.15554404
186	0x3de4d9ff	0.11174392
187	0xbe60e8a6	-0.21963748
188	0x3ec38ac7	0.38191816
189	0x3e0e204b	0.13879506
190	0x3d5315b9	0.05153439
191	0xbe81446a	-0.25247508
192	0x3e4bd593	0.19905691
193	0xbe8f23d1	-0.27957013
194	0x3df9fedd	0.122068144
195	0xbe85c52c	-0.26126993
196	0xbe6f159f	-0.23348092
197	0xbe8b64d8	-0.27225375
198	0x3e9b6c32	0.30355984
199	0xbe9547d4	-0.29156363
200	0x3e0a2a44	0.13492686
201	0x3d127601	0.03575707
202	0xbd378123	-0.04480089
203	0x3d223e84	0.0396104
204	0x3eb0f574	0.34562266
205	0x3e1b3712	0.15157726
206	0xbd98f182	-0.07467939
207	0x3eabc141	0.3354588
208	0xbdbfba4e	-0.09361707
209	0xbd73fdde	-0.05956828
210	0x3e750066	0.23925933
211	0x3d4623aa	0.048373856
212	0x3e9cfbdf	0.30660912
213	0x3e463f5b	0.19360106
214	0xbded2b33	-0.11580505
215	0xbe2df16b	-0.16986625
216	0x3e098f7d	0.13433643
217	0xbceade44	-0.028670438
218	0x3e897cd0	0.26853037
219	0xbdf05bbf	-0.11736249
220	0x3e00e81f	0.12588547
221	0x3dad39c0	0.084582806
222	0xbe51325a	-0.20429364
223	0xbb1bbd36	-0.0023763902
224	0x3e7785c1	0.24172117
225	0xbd8aaba3	-0.06771018
226	0xbeb46e5c	-0.35240448
227	0x3e5ebf6f	0.21752714
228	0x3dc2a5c4	0.095042735
229	0x3e97ea6b	0.29671034
230	0x3e8f3fb2	0.27978283
231	0x3e1f02fc	0.15528482
232	0x3e274484	0.1633473
233	0xbde8ae29	-0.113613434
234	0xbe8d4f71	-0.2759967
235	0x3e8abc79	0.27096918
236	0xbdbaaf4a	-0.09115465
237	0x3e197e1f	0.14989518
238	0x3eb54591	0.35404637
239	0x3dffa8c7	0.124833636
240	0xbe998dbe	-0.29990953
241	0xbe09f595	-0.13472588
242	0xbe63ecd0	-0.22258306
243	0xbc257ac3	-0.010100069
244	0xbe69196e	-0.22763607
245	0x3ebf8214	0.3740393
246	0x3e93dd04	0.2887956
247	0xbde37021	-0.11105371
248	0xbe317401	-0.17329408
249	0xbdd92fda	-0.1060483
250	0x3ea50c81	0.32236102
251	0xbdaa8770	-0.08326614
252	0x3d539982	0.05166007
253	0x3de9f1b4	0.11423054
254	0x3cbabc30	0.022794813
255	0xbe7556c8	-0.23958886

model/conv2d_13/Conv2D_bias f4 [64]
0	0x3d2eb4cf	0.0426529
1	0x3f536b3f	0.8258552
2	0xbd8e23d7	-0.0694043
3	0xbf339761	-0.7015286
4	0xbe48adbe	-0.19597527
5	0x3d3dc54e	0.046330743
6	0xbec147da	-0.3775013
7	0xbe4256db	-0.18978445
8	0xbf07c9e4	-0.53042436
9	0x3f753bc9	0.9579435
10	0x3f05f3f5	0.52325374
11	0xbf9ebd41	-1.2401506
12	0x3f38bf21	0.7216664
13	0xbfa224e3	-1.2667507
14	0x3f4e646f	0.80622
15	0x3fa65278	1.2993917
16	0x3ec4fc9c	0.38473976
17	0x3e1dd389	0.15412726
18	0x3f60f102	0.8786775
19	0xbdc662f0	-0.096868396
20	0xbf85d32c	-1.045507
21	0x3ef0d6d1	0.47038892
22	0xbf8983e6	-1.0743377
23	0x3e8f1021	0.27941993
24	0x3f8bb36d	1.0914131
25	0x3eef8215	0.46778932
26	0xbf03a44c	-0.5142257
27	0xbed29af5	-0.41133848
28	0x3fa38e87	1.2777871
29	0xbe9e39b0	-0.30903387
30	0x3ff726ba	1.9308693
31	0x3f818de0	1.0121422
32	0x3ffc5d60	1.9715996
33	0x3f57eaec	0.8434284
34	0x3f86fc78	1.0545797
35	0xbf435169	-0.762961
36	0x3e8a131e	0.2696771
37	0xbe227c9b	-0.15867846
38	0xbedd6092	-0.4323774
39	0xbf5c7eea	-0.86131155
40	0x3f632ce2	0.8874036
41	0x3dbc49e9	0.09193785
42	0xbd954ec2	-0.072904125
43	0xbf9598cd	-1.1687256
44	0xbf150abd	-0.5821951
45	0xbf5c0688	-0.85947466
46	0xbe677cee	-0.2260625
47	0xbf75dc23	-0.96039027
48	0x3fa2722e	1.2691095
49	0xbe4f9e8b	-0.20275323
50	0x3e3500a8	0.17676032
51	0x3f338cc0	0.7013664
52	0xbe14e5be	-0.14540765
53	0xbf67272b	-0.9029414
54	0xbe8a5fad	-0.2702612
55	0xbfa1569b	-1.2604555
56	0x3f297a18	0.66201925
57	0xbf426655	-0.75937396
58	0x3ea0fa2f	0.31440875
59	0xbf2e5021	-0.68091017
60	0xbf06cfc9	-0.52660805
61	0x3f823b86	1.0174415
62	0xbf059ba9	-0.52190644
63	0x3fac5a87	1.3465127

model/conv2d_14/Conv2D/ReadVariableOp f4 [16, 1, 1, 64]
0	0xbe6e3b51	-0.23264815
1	0x3e23686c	0.15957803
2	0x3e5d328f	0.21601318
3	0xbdddc842	-0.10829212
4	0x3d86fceb	0.06591209
5	0x3e5f1844	0.217866
6	0xbc6d07c6	-0.014467185
7	0xbde8e431	-0.11371649
8	0x3c613e83	0.013747814
9	0xbe526458	-0.2054609
10	0x3e909db1	0.2824531
11	0xbdd10682	-0.102063194
12	0x3e88a1b4	0.2668587
13	0xbddc27a7	-0.107497506
14	0xbe5fe04b	-0.21862905
15	0x3d95bd4f	0.073114984
16	0xbe724922	-0.2366071
17	0x3e744b11	0.2385676
18	0x3e68d4be	0.22737405
19	0x3e4b50a5	0.19854982
20	0x3e89f9bb	0.26948342
21	0x3903628f	0.0001252985
22	0xbe873c51	-0.26413205
23	0x3e1a379c	0.15060276
24	0xbd6665e8	-0.05624953
25	0xbe11e305	-0.14246757
26	0xbe143c6d	-0.14476176
27	0x3e7d9a15	0.24765809
28	0x3c9d4f69	0.019202905
29	0xbe23fa3a	-0.16013423
30	0xbd32033d	-0.04346012
31	0x3dcff93b	0.10154959
32	0x3dcbca7a	0.09950729
33	0x3e8c4fbf	0.2740459
34	0xbe1f2a32	-0.1554344
35	0xbe39411d	-0.18091245
36	0xbcefa76a	-0.029254634
37	0xbd005479	-0.03133056
38	0x3c0c570d	0.008565676
39	0x3d07ed2d	0.033185173
40	0x3e8496b5	0.2589623
41	0xbe873317	-0.26406166
42	0x3dde9e27	0.10870009
43	0xbe892748	-0.26787782
44	0xbe21918f	-0.15778182
45	0xbdaf216a	-0.08551295
46	0x3e31055b	0.17287199
47	0xbe5086a9	-0.20363869
48	0xbe843a9e	-0.2582597
49	0xbe4a0674	-0.19729024
50	0xbcc255a6	-0.023722481
51	0xbe2786da	-0.16360036
52	0x3b9be4bc	0.004757492
53	0x3e1c001e	0.1523442
54	0x3e59322f	0.2121055
55	0xbe3a862f	-0.1821525
56	0xbe083735	-0.1330231
57	0xbe18946c	-0.14900368
58	0x3e869688	0.2628672
59	0x3e4d24b6	0.20033535
60	0x3da46b57	0.08028286
61	0xbd605480	-0.054768085
62	0xbe2cd999	-0.16879882
63	0xbe69249c	-0.22767872
64	0xbe70087a	-0.23440734
65	0xbe639865	-0.22226103
66	0x3e1d45b2	0.15358618
67	0x3e866aed	0.26253453
68	0xbe3fe6f1	-0.18740441
69	0x3c572a83	0.013132694
70	0x3e876786	0.2644617
71	0xbc34d173	-0.011036265
72	0x3b8fd43f	0.0043893154
73	0x3dcf39f1	0.10118473
74	0x3da75539	0.08170552
75	0xbca6ec4b	-0.020376345
76	0x3e255be5	0.16148336
77	0xbe4e86eb	-0.20168655
78	0xbd8c3ffc	-0.068481416
79	0x3dc284aa	0.0949796
80	0x3e450e7c	0.19243807
81	0x3dbac978	0.09120458
82	0x3db8a109	0.0901509
83	0xbe031bce	-0.12803575
84	0x3dba06e8	0.090833485
85	0xbda0764b	-0.078350626
86	0xbe648d58	-0.22319543
87	0x3e012461	0.12611534
88	0xbe6af231	-0.22943951
89	0x3e571fd4	0.21008235
90	0x3cf18701	0.02948332
91	0xbdbd1669	-0.0923279
92	0xbdaa01aa	-0.08301099
93	0xbe0d7e50	-0.13817716
94	0xbd9b8e54	-0.07595506
95	0x3c4b4085	0.012405519
96	0xbe29f328	-0.16596663
97	0x3e720a19	0.23636664
98	0xbd8759c0	-0.06608915
99	0x3e134c6a	0.14384618
100	0x3e6acd1b	0.22929804
101	0x3e853dfd	0.26023856
102	0xbe85b39d	-0.26113597
103	0x3d17d6be	0.03707003
104	0xbe2db953	-0.16965227
105	0xbd47f69e	-0.048819177
106	0xbd86e488	-0.065865576
107	0x3e6cbe78	0.23119533
108	0xbe04f967	-0.12985764
109	0xbe1fd274	-0.15607625
110	0xbcb8832c	-0.022523485
111	0xbe39366a	-0.18087164
112	0x3e1e9b4c	0.15488929
113	0x3c5b874c	0.0133989565
114	0x3e85f3a8	0.26162457
115	0x3e53a847	0.20669661
116	0x3e9287fa	0.28619367
117	0x3e5967b4	0.21230966
118	0x3c0b5337	0.008503727
119	0x3e8488a4	0.258855
120	0x3e82ab65	0.2552139
121	0x3c6f35fe	0.014600275
122	0xbe001cfc	-0.12511057
123	0x3e0a9ebb	0.13537113
124	0xbc02748d	-0.007962358
125	0xbd483d83	-0.048886787
126	0x3dd4917c	0.103793114
127	0x3dbbf3d9	0.091773696
128	0xbd55b107	-0.05217078
129	0x3e972662	0.2952147
130	0xbe69387b	-0.22775452
131	0x3e76cd36	0.2410172
132	0xbe4e9b19	-0.20176353
133	0x3e3378d9	0.17526568
134	0xbe2dd77d	-0.16976734
135	0xbd8fd60a	-0.070232466
136	0xbe59568a	-0.21224418
137	0x3c85c30c	0.016328357
138	0x3dba92ed	0.09110055
139	0x3e4c0c5d	0.19926591
140	0xbd3445c8	-0.04401186
141	0x3cffd05f	0.031227289
142	0xbe041ce6	-0.12901649
143	0x3e910f35	0.28331915
144	0x3c5ab1b0	0.013348028
145	0x3d834d65	0.06411246
146	0xbd3c0501	-0.04590321
147	0x3dc58614	0.09644714
148	0xbd403abf	-0.046931025
149	0x3e80bc54	0.25143683
150	0xbe76f7a9	-0.24117912
151	0x3e33a4a5	0.17543276
152	0x3e66b7c5	0.2253104
153	0x3e20b981	0.15695764
154	0x3c6ef4c0	0.01458472
155	0xbd460847	-0.048347738
156	0x3d1603c4	0.036624685
157	0x3e5c8e1e	0.21538588
158	0x3e891c92	0.2677961
159	0xbd774e48	-0.06037739
160	0x3d3105c3	0.043218385
161	0x3cf1b6dc	0.02950614
162	0x3e657557	0.22408043
163	0x3dba3fe3	0.09094217
164	0xbe83261d	-0.25615016
165	0xbdf92aad	-0.12166343
166	0x3e6e0129	0.2324263
167	0x3dac593e	0.08415459
168	0xbd798ce7	-0.06092539
169	0x3e19e6d1	0.15029456
170	0x3dbaec85	0.09127144
171	0x3dd51ecb	0.10406264
172	0x3dafd1c4	0.085849315
173	0x3e6062f9	0.21912755
174	0x3e4ad6de	0.19808528
175	0xbe4b5be8	-0.19859278
176	0xbe162dd5	-0.14665921
177	0x3e766a8d	0.24064083
178	0x3d5954ce	0.05305939
179	0x3e00ba4c	0.12571067
180	0x3e1b3be9	0.15159573
181	0xbe7d2d64	-0.24724346
182	0x3cb13bdf	0.021634994
183	0xbe026dc6	-0.12737188
184	0x3e39ef46	0.18157682
185	0xbe2b510a	-0.16730133
186	0xbdf8f217	-0.1215555
187	0xbe4595a9	-0.19295372
188	0xbe82fc5c	-0.2558316
189	0xbdf572f3	-0.119848154
190	0xbe72c871	-0.23709275
191	0x3e777800	0.2416687
192	0xbe19a932	-0.15005949
193	0xbe1f86be	-0.15578744
194	0xbe068008	-0.13134778
195	0x3e83c159	0.2573345
196	0xbc290eea	-0.010318497
197	0x3d7f5b3d	0.06234287
198	0xbda704da	-0.08155222
199	0xbe5841e9	-0.21118893
200	0xbdd0e419	-0.10199756
201	0xbda0a698	-0.07844275
202	0xbdcccbb9	-0.099997945
203	0xbe374a33	-0.17899399
204	0x3e65bf03	0.22436146
205	0x3e88c393	0.2671171
206	0x3e745445	0.23860271
207	0xbe75516a	-0.23956838
208	0xbe289636	-0.16463551
209	0xbdaaed97	-0.08346098
210	0x3e1b5e39	0.15172662
211	0x3e666d83	0.22502713
212	0xbd92bf35	-0.07165376
213	0xbd6996fa	-0.057028748
214	0x3e802d80	0.25034714
215	0x3db0310a	0.086031035
216	0x3e328676	0.17434105
217	0xbe5d508c	-0.21612757
218	0x3e0c34c6	0.13692006
219	0x3dbe3dee	0.09289156
220	0x3db87a4e	0.09007703
221	0xbd927ef4	-0.07153121
222	0x3dd5eabd	0.104451634
223	0x3cf43e47	0.029814852
224	0xbe115ffe	-0.14196774
225	0xbe56558c	-0.20931071
226	0xbe7d24bc	-0.24721044
227	0x3d103faa	0.035216965
228	0x3ca43bb7	0.020048006
229	0x3e163350	0.14668012
230	0x3dbaa465	0.09113387
231	0xbdb56956	-0.08857982
232	0xbc9e3338	-0.019311532
233	0xbde17f79	-0.110106416
234	0x3ba2f59b	0.004973126
235	0x3dfd012c	0.12353739
236	0xbd96ce7c	-0.073636025
237	0x3e11cc4d	0.14238091
238	0xbe3b3b21	-0.18284275
239	0xbdbe831f	-0.09302353
240	0x3dffc2bb	0.12488314
241	0xbc908459	-0.017641233
242	0x3b58c396	0.0033075563
243	0xbe4e6f6d	-0.20159693
244	0x3e3adc7f	0.18248175
245	0x3e1cfc91	0.15330721
246	0xbccbb600	-0.024867058
247	0xbe6b93a7	-0.23005544
248	0x3e25ac18	0.1617893
249	0x3e177000	0.14788818
250	0xbe395b25	-0.18101175
251	0x3e51996e	0.20468685
252	0xbe689d2e	-0.2271621
253	0x3e0bf6d3	0.13668375
254	0xbdcc8b56	-0.09987514
255	0x3e612162	0.21985391

model/conv2d_14/Conv2D_bias f4 [16]
0	0x3c3f1fdd	0.011665312
1	0xbb5122eb	-0.0031911682
2	0x3c3b95dc	0.0114493035
3	0xba06a080	-0.00051356107
4	0x3c323560	0.010876983
5	0x3b4ccc80	0.0031249821
6	0x3b7919a4	0.0038009668
7	0x3b2652a0	0.0025378838
8	0xbc43986b	-0.011938195
9	0x3c1ab9fe	0.009443758
10	0xbb147bb6	-0.0022656745
11	0xbc487ce9	-0.012236812
12	0xbb9f760b	-0.0048663667
13	0xbbee3f4a	-0.0072707282
14	0xbbae21a3	-0.0053140684
15	0x3af25318	0.0018487899
