VOC2012/Model_V0_1.tflite (tflite, 4452 bytes, 10 tensors)

model/batch_normalization/FusedBatchNormV3_add_param f4 [5]
0	0x00000000	0.0
1	0x00000000	0.0
2	0x3fa0feb0	1.2577724
3	0x3d59aae4	0.05314149
4	0x3eda4e74	0.4263798

model/batch_normalization/FusedBatchNormV3_mul_0_param f4 [5]
0	0x41fcfb71	31.622774
1	0x41fcfb71	31.622774
2	0x40680bea	3.6257272
3	0x41fa4ad8	31.286545
4	0x40a733ca	5.225072

model/batch_normalization_1/FusedBatchNormV3_add_param f4 [5]
0	0xbbd8ec65	-0.0066199773
1	0x3be35926	0.0069381176
2	0xbf2a9209	-0.6662908
3	0xbe87ba7f	-0.26509473
4	0xbefca47c	-0.49344242

model/batch_normalization_1/FusedBatchNormV3_mul_0_param f4 [5]
0	0x41fcfb71	31.622774
1	0x41fcfb71	31.622774
2	0x3fd2936d	1.6451241
3	0x41f360f1	30.422335
4	0x3fdc277e	1.7199552

model/conv2d/Conv2D/ReadVariableOp f4 [5, 1, 1, 3]
0	0xbf181c32	-0.5941802
1	0xbf170ebe	-0.5900687
2	0xbbc52100	-0.006015897
3	0xbe1bfb3c	-0.15232557
4	0xbe53ec70	-0.20695662
5	0xbf0f91e0	-0.5608196
6	0x3f0c5824	0.5482199
7	0x3ef5824a	0.47950965
8	0x3f042fae	0.51635253
9	0xbef596a5	-0.47966495
10	0x3e81dc37	0.25363323
11	0xbcb88d9a	-0.022528458
12	0xbe56abae	-0.20963928
13	0x3f5b25fb	0.8560483
14	0x3f1fad45	0.62373763

model/conv2d/Conv2D_bias f4 [5]
0	0x00000000	0.0
1	0x00000000	0.0
2	0x3d7c823e	0.061647646
3	0xbb0a8f83	-0.0021142669
4	0x3d26f0bf	0.040756937

model/conv2d_1/Conv2D/ReadVariableOp f4 [21, 1, 1, 5]
0	0xbf90f715	-1.1325403
1	0xbe538426	-0.2065588
2	0x3f8cab91	1.0989858
3	0x3f8d709e	1.1049993
4	0xbe529418	-0.20564306
5	0x3ec62f5d	0.3870801
6	0xbe3b4d9f	-0.18291329
7	0xbf03c60a	-0.5147406
8	0xbe0c06be	-0.13674447
9	0xbeedac3c	-0.46420467
10	0x3eaa1027	0.33215448
11	0xbede50d8	-0.43421054
12	0x3f3b32f3	0.7312462
13	0x3f2a8e80	0.6662369
14	0xbfb90329	-1.4454089
15	0xbd46eeb6	-0.048567496
16	0x3f7128ae	0.942027
17	0x3f6e4a17	0.930818
18	0x3eb7a7dd	0.35870257
19	0xbdabcdf0	-0.08388889
20	0x3f14bd81	0.5810166
21	0xbf1ac729	-0.60460144
22	0x3f33b14a	0.70192397
23	0xbe9e8594	-0.30961287
24	0x3e664ddd	0.2249064
25	0x3f3b7d5c	0.7323816
26	0x4028109b	2.6260135
27	0x3db6d535	0.08927385
28	0xc042ce87	-3.0438554
29	0xbe81fdca	-0.25388938
30	0x3d38c177	0.045106377
31	0x3f70d009	0.94067436
32	0x3f2935d5	0.66097766
33	0x3f8171ae	1.0112817
34	0x3e5dfa1d	0.21677442
35	0xbfb71768	-1.4304018
36	0x3fcb66d7	1.5890759
37	0x3ed02b66	0.4065811
38	0xbfc0b849	-1.5056239
39	0xbf90da9f	-1.1316718
40	0xbf47f7c2	-0.78112423
41	0x3eaec7b5	0.3413674
42	0xbe581d03	-0.21104817
43	0x3ea6146b	0.32437453
44	0xbf49d587	-0.7884144
45	0xbf691115	-0.9104169
46	0x3fb6bbba	1.427604
47	0xbfab0625	-1.336125
48	0xbf5b0711	-0.8555766
49	0x3f75a743	0.95958346
50	0x3e57d346	0.21076688
51	0xbf651f41	-0.89500815
52	0x3f279326	0.65458906
53	0x3e855795	0.26043382
54	0x3e924375	0.2856709
55	0x3ecdb30d	0.40175667
56	0x3ee1bc5a	0.44089013
57	0xbec8cc30	-0.39218283
58	0x3e351c75	0.17686637
59	0xbf19fc83	-0.6015093
60	0x3f8e0ad6	1.1097057
61	0x3f50a073	0.81494826
62	0xbe3033cf	-0.17207263
63	0xbcdc5d3f	-0.026899932
64	0x3f8d507f	1.104019
65	0xbfaa4838	-1.330329
66	0x3edadca0	0.4274645
67	0x3eff5d73	0.49875984
68	0x3f1bbe44	0.608372
69	0x3ee27356	0.4422862
70	0xbf48c843	-0.78430575
71	0x3ec6e33d	0.38845244
72	0x3f33c80f	0.7022714
73	0x3f146967	0.5797333
74	0x3e55c9cc	0.2087776
75	0x3f0c0c16	0.5470594
76	0x3eaede7b	0.34154114
77	0xbf979b7f	-1.1844329
78	0x40004a77	2.004545
79	0x3f804196	1.0020015
80	0xbe8bb2f4	-0.27284968
81	0x3dfb3630	0.12266195
82	0x3f562f6a	0.836661
83	0xbfa6cd94	-1.3031487
84	0x38d32a87	0.000100691854
85	0x3f7c425b	0.9853875
86	0x3f399965	0.72499686
87	0xbf36434e	-0.7119645
88	0x3fa08f74	1.2543778
89	0xbe376538	-0.17909706
90	0xbe3116d8	-0.1729387
91	0x3e455712	0.19271496
92	0x3ef10b93	0.47079143
93	0xbe158ed8	-0.14605272
94	0x3f0362b0	0.5132246
95	0x3e470ac5	0.19437702
96	0xbf180077	-0.5937571
97	0xbf040181	-0.51564795
98	0x3ee28d45	0.44248405
99	0xbef0170a	-0.46892577
100	0x3f6760e6	0.9038223
101	0x3ea3dd8e	0.3200497
102	0xbf8e8028	-1.113286
103	0x3fba1e17	1.4540433
104	0x3fa92c4e	1.3216646

model/conv2d_1/Conv2D_bias f4 [21]
0	0x3d74584a	0.05965451
1	0xbd75ec73	-0.06003995
2	0xbd413890	-0.047173083
3	0xbd96709b	-0.073456965
4	0xbd63a552	-0.055577584
5	0xbd244318	-0.040103048
6	0xbdb3a171	-0.08771027
7	0xbd372dc4	-0.04472138
8	0xbd8e6490	-0.069527745
9	0xbdb77669	-0.08958132
10	0xbd838d23	-0.06423404
11	0xbd8d2825	-0.068924226
12	0xbda7b36c	-0.08188519
13	0xbdbb0894	-0.091324955
14	0xbdabaccd	-0.083825685
15	0xbd311c59	-0.043239925
16	0xbd542e2e	-0.051801853
17	0xbda6ab86	-0.08138184
18	0xbd969563	-0.07352712
19	0xbd8848ca	-0.066545084
20	0xbdd8542a	-0.10562928

model/depthwise_conv2d/depthwise/ReadVariableOp f4 [1, 3, 3, 5]
0	0xbe1edab6	-0.15513119
1	0xbe2de36b	-0.16981284
2	0x3e70b0fe	0.23505017
3	0x3e0e41cc	0.13892287
4	0x3d62ef7b	0.055404168
5	0x3d1981c0	0.037477255
6	0xbd89654c	-0.06708774
7	0xbe8474c9	-0.2587035
8	0xbe9c3fe2	-0.3051749
9	0xbe38887a	-0.18020812
10	0x3e8e50d3	0.2779604
11	0x3e14d82a	0.14535585
12	0xbe31e79d	-0.1737351
13	0x3d91e055	0.07122866
14	0x3da28e13	0.07937255
15	0xbea6af3e	-0.32555574
16	0xbe270010	-0.16308618
17	0xbd9f4e8b	-0.07778653
18	0xbe8aeb25	-0.27132526
19	0xbd89b4ae	-0.06723915
20	0x3e2936d6	0.16524825
21	0xbe4a8130	-0.19775844
22	0xbdce256a	-0.1006573
23	0xbd9eb744	-0.07749799
24	0xbd78824f	-0.060671147
25	0xbe8a17ee	-0.26971382
26	0xbba75ec0	-0.0051077306
27	0xbe5b5932	-0.21420744
28	0xbe92b584	-0.2865411
29	0xbe5cef7b	-0.2157573
30	0x3e555eba	0.20836917
31	0x3e5d645a	0.21620312
32	0xbdfb4a60	-0.12270045
33	0xbe7e83a3	-0.24854903
34	0x3e872961	0.26398757
35	0x3d1a6098	0.037689775
36	0x3dd654ec	0.10465416
37	0x3e4c12ab	0.19928996
38	0xbbf8a2af	-0.007587753
39	0xbd6f8e85	-0.058485527
40	0xbdd5b276	-0.10434429
41	0x3e4b8eca	0.19878688
42	0x3e017360	0.12641668
43	0x3e0bf82b	0.13668887
44	0x3da3b86a	0.079941586

model/depthwise_conv2d/depthwise_bias f4 [5]
0	0x00000000	0.0
1	0x00000000	0.0
2	0x3c2913e6	0.010319686
3	0xbaa0bbac	-0.0012262962
4	0x3c355e12	0.011069791
