VOC2012/Model_V0_1.tflite (tflite, 3932 bytes, 8 tensors)

model/conv2d/Conv2D/ReadVariableOp f4 [2, 1, 1, 3]
000000 30 96 af be 0c 8b a0 be 25 ee 79 bf 39 0c f9 3c
       -0.3429427 -0.31356084 -0.97629005 0.030401336
000010 d9 f3 a2 3f 77 11 10 3f
       1.2730666 0.5627665

model/conv2d/Conv2D_bias f4 [2]
000000 00 00 00 00 95 2b ae 3e
       0.0 0.34017625

model/conv2d_1/Conv2D/ReadVariableOp f4 [21, 1, 1, 4]
000000 15 c3 de bf 90 17 97 3f b5 35 82 bf 97 93 a8 3e
       -1.7403284 1.1804066 -1.017264 0.32925102
000010 ad f6 3e 3f 6b 78 ba 3f c9 56 3f c0 25 65 32 3f
       0.7459515 1.4567999 -2.989672 0.69685584
000020 68 14 25 3f 65 9c ae 3f 1a 85 70 40 3d af 45 3f
       0.6448426 1.3641478 3.7581239 0.7722052
000030 af 0c 17 be 35 62 b6 3f 78 c9 9c 3f d4 bb 15 3f
       -0.14750932 1.424872 1.2248983 0.5848973
000040 78 e4 e7 3f ed e6 b3 3f 3e 8e 11 c0 70 21 1a 3f
       1.8116598 1.4054848 -2.2743068 0.6020727
000050 17 39 b1 3d 30 40 ad 3f be 45 14 c0 fd 15 18 3f
       0.08653467 1.3535213 -2.3167567 0.5940855
000060 bb ca f7 bf fd d5 b0 3f 29 2f c0 3f 5c 3c 84 3f
       -1.9358743 1.3815304 1.5014392 1.033092
000070 2f bb 7c be 1c 84 b9 3f ae 82 df 3d 80 58 49 3f
       -0.2468078 1.4493442 0.10913597 0.78650665
000080 55 ca 00 3f 6b 29 c2 3f 54 1e e7 bf 1c c4 5e 3e
       0.50308734 1.516889 -1.805613 0.21754497
000090 81 b3 e9 bf 34 38 a9 3f 6f 57 16 3f dc 23 82 3e
       -1.8257905 1.3220277 0.58727163 0.25417984
0000a0 14 f1 1a c0 f8 7f ab 3f ca 17 12 c0 24 bc 3a 3f
       -2.4209642 1.3398428 -2.282702 0.7294333
0000b0 65 16 75 40 2e 89 b8 3f 60 39 34 3e e6 37 0a 3e
       3.8294919 1.4416864 0.17600012 0.13497886
0000c0 4a d4 16 bf 7d b6 bb 3f e8 c7 09 3f 74 0c b5 3e
       -0.5891768 1.4665066 0.5382066 0.35361063
0000d0 b7 35 9e bf 14 bd ad 3f f9 93 e0 bf 40 09 3f 3f
       -1.2360142 1.3573327 -1.7545158 0.7462349
0000e0 b4 e9 16 3f 87 6f ad 3f 81 07 a5 be 7b 0e a0 3f
       0.5895035 1.354966 -0.32232288 1.2504419
0000f0 bc aa 0c 3e c5 e6 cf 3f a7 59 59 3f 68 d9 9a 3e
       0.13737005 1.62423 0.84902424 0.30243993
000100 01 a3 11 bf e5 1b ad 3f 9f 67 27 40 d8 41 0e 3f
       -0.5688935 1.3524138 2.6156995 0.5556922
000110 38 16 c7 3d 22 0c b2 3f c9 bf a7 3f 2b bc 28 3f
       0.09721035 1.3909953 1.3105403 0.6591212
000120 21 51 3a 3e 4c 2d a8 3f 86 f6 e1 bd 3c cf 6e 3e
       0.1819501 1.3138824 -0.11033349 0.23321241
000130 6e 2f 01 3e 72 c3 ad 3f d2 5f c4 3f 42 0d 5b 3f
       0.12615749 1.357527 1.5341742 0.85567105
000140 ea 6f e1 bf ce 7a ad 3f 03 ac a5 bf 93 66 0c 3f
       -1.7612278 1.3553102 -1.2943119 0.54844016

model/conv2d_1/Conv2D_bias f4 [21]
000000 42 9d 91 bf df 6a 2f c0 6c 4d 2e c0 03 dc 29 c0
       -1.1376116 -2.740898 -2.7234755 -2.6540534
000010 e0 6d 2d c0 1e 0e 25 c0 66 a9 30 c0 71 f6 29 c0
       -2.7098312 -2.5789866 -2.7603393 -2.6556666
000020 91 1f 2d c0 70 bd 1b c0 15 10 2b c0 eb 01 2a c0
       -2.7050517 -2.4334373 -2.6728566 -2.656367
000030 b5 cb 29 c0 18 30 2f c0 3e cf 32 c0 b7 14 0d c0
       -2.6530583 -2.7373104 -2.793899 -2.2043893
000040 ef c1 26 c0 22 58 30 c0 64 0a 27 c0 36 69 2e c0
       -2.6055868 -2.7553792 -2.6100092 -2.7251716
000050 9f c9 2b c0
       -2.684181

model/depthwise_conv2d/depthwise/ReadVariableOp f4 [1, 3, 3, 2]
000000 c9 a1 93 3e a9 20 eb 3e ee 40 a8 40 45 85 61 3e
       0.2883437 0.45923355 5.257926 0.22023495
000010 af 34 1b c1 7f 02 c1 3e b0 33 57 41 26 cd 9d 3e
       -9.700362 0.37697217 13.450119 0.30820578
000020 41 c5 d3 40 09 77 19 3e 57 80 1a c1 b1 7f c2 3d
       6.617829 0.14986815 -9.656333 0.094970115
000030 23 6c af 3f 3b 5b 86 bd 33 53 f5 3e 96 da 86 3e
       1.3704876 -0.065603696 0.47915038 0.26338643
000040 c6 48 6e c1 9e ef 67 3e
       -14.892767 0.2265

model/depthwise_conv2d/depthwise_bias f4 [2]
000000 00 00 00 00 ed d2 f5 bf
       0.0 -1.9204994

model/depthwise_conv2d_1/depthwise/ReadVariableOp f4 [1, 3, 3, 2]
000000 38 0e a4 40 f5 2d 69 3e 85 c1 c4 bf f1 c2 88 3e
       5.1267357 0.22771437 -1.5371557 0.26711228
000010 da 36 01 c1 4e 9c e7 bd e4 7e 4d 41 4f 51 9a 3c
       -8.0758915 -0.1130911 12.843479 0.0188376
000020 be a3 4e c1 8d 7c 12 3e 8d 8d 05 41 d6 85 82 bd
       -12.914976 0.14305325 8.347058 -0.063731834
000030 6e dd d5 bf a9 08 4b bd 97 a0 fd 40 12 3b ae 3d
       -1.67082 -0.049568806 7.9258533 0.085073605
000040 0d 4e 95 3d ca ac 8d 3e
       0.07290278 0.2767089

model/depthwise_conv2d_1/depthwise_bias f4 [2]
000000 00 00 00 00 2a f1 51 bf
       0.0 -0.8200861
