VOC2012/Model_V0_1.tflite (tflite, 86696 bytes, 88 tensors)

model/conv2d/Conv2D/ReadVariableOp f4 [4, 1, 1, 3]
0.5347116 0.783749 -0.4286309 0.29854825 0.78432417 -0.5746445 0.3688006 -0.65285313
0.046787187 0.5062338 0.13185915 0.673831
00000000: dce2 083f c6a3 483f 8275 dbbe 51db 983e
00000010: 78c9 483f e71b 13bf 6fd3 bc3e 6221 27bf
00000020: eca3 3f3d 8a98 013f 1606 073e 3080 2c3f

model/conv2d/Conv2D_bias f4 [4]
-0.00495617 0.010098016 -0.010300884 0.006060953
00000000: 5e67 a2bb 2672 253c 0ac5 28bc f59a c63b

model/conv2d_1/Conv2D/ReadVariableOp f4 [8, 1, 1, 4]
0.5634736 -1.5188556 0.9800147 0.23843664 -1.7032802 0.43016696 -0.0082432 1.7438684
0.00074601534 -1.6101129 -0.6941533 1.6549844 0.94205076 0.1927854 -0.113285534 0.65074235
0.010631197 0.42517778 1.421234 -1.1620603 0.40236273 -1.0649126 -0.68951416 1.5481273
-1.5048038 -0.70773226 -1.1076297 1.1470062 -0.5970386 -0.91188014 0.46290332 -0.10728865
00000000: ce3f 103f dc69 c2bf 3ee2 7a3f bc28 743e
00000010: 1605 dabf d83e dc3e 7d0e 07bc 1437 df3f
00000020: 3e90 433a 2e18 cebf 08b4 31bf 87d6 d33f
00000030: 3d2a 713f 8969 453e 3f02 e8bd 0d97 263f
00000040: 792e 2e3c e7b0 d93e ffea b53f 64be 94bf
00000050: 7d02 ce3e 0e4f 88bf 0084 30bf 0929 c63f
00000060: 699d c0bf f12d 35bf cfc6 8dbf 19d1 923f
00000070: 86d7 18bf fa70 69bf aa01 ed3e 27ba dbbd

model/conv2d_1/Conv2D_bias f4 [8]
0.011759074 -0.29430056 0.29104605 -0.63694805 -0.25478074 -0.047397047 0.77446544 0.46631786
00000000: 22a9 403c 90ae 96be fd03 953e 070f 23bf
00000010: 9f72 82be 6823 42bd 5e43 463f 37c1 ee3e

model/conv2d_10/Conv2D/ReadVariableOp f4 [16, 1, 1, 4]
-0.030175144 0.003848365 -0.37198168 -2.0853674 -1.276318 -1.1131417 0.043689206 0.047304958
-0.58494246 1.3477787 1.202229 -0.2284842 0.19034535 -0.094944544 -1.537165 0.5634278
-0.43702447 -0.11835004 0.951062 -1.7964157 0.7887294 -0.3045201 0.6109298 -1.2592504
0.8971585 -1.5920382 -0.024048297 -0.29312897 -0.57494617 2.1262274 -0.0327753 -0.7700839
0.30771902 1.4875762 -0.83163476 -1.0535233 -0.8502011 -0.6713728 -0.0034709305 1.3498108
-1.0693629 0.13688828 0.80191994 -1.663533 -0.9057591 0.08247503 1.2443247 -0.67107165
-1.1832957 1.3899523 -0.41013366 -1.4140862 -1.0693736 1.3940017 0.5427254 -0.13501093
1.0406535 -1.1025078 0.88366956 1.1872896 -0.058269773 -0.66856426 -1.421028 -0.7637226
00000000: dd31 f7bc da34 7c3b 6274 bebe a976 05c0
00000010: 635e a3bf 6d7b 8ebf 74f3 323d d8c2 413d
00000020: cabe 15bf 0384 ac3f a4e2 993f c3f7 69be
00000030: e4e9 423e 4972 c2bd d3c1 c4bf ce3c 103f
00000040: acc1 dfbe 8161 f2bd cd78 733f f3f0 e5bf
00000050: 2cea 493f 0fea 9bbe e565 1c3f 1e2f a1bf
00000060: 2eac 653f e8c7 cbbf ef00 c5bc 0015 96be
00000070: ac2f 13bf 1c14 0840 653f 06bd 3824 45bf
00000080: 598d 9d3e e668 be3f 04e6 54bf dad9 86bf
00000090: c7a6 59bf 16df 2bbf 8d78 63bb 9ac6 ac3f
000000a0: e2e0 88bf 712c 0c3e a04a 4d3f a6ee d4bf
000000b0: d4df 67bf abe8 a83d 0846 9f3f 5acb 2bbf
000000c0: 3c76 97bf f5e9 b13f 0afd d1be c700 b5bf
000000d0: 3ce1 88bf a66e b23f 0df0 0a3f 4e40 0abe
000000e0: 2234 853f fa1e 8dbf 2b38 623f 1bf9 973f
000000f0: 49ac 6ebd 0727 2bbf 3fe4 b5bf 5383 43bf

model/conv2d_10/Conv2D_bias f4 [16]
1.015518 0.8571939 -0.65503985 0.30965954 0.58859617 0.11555116 0.39825308 -0.25634623
0.078783825 0.03234831 0.70780545 0.094969265 0.6471196 -0.29368332 -0.7684321 1.1181296
00000000: 7efc 813f 0f71 5b3f b1b0 27bf b28b 9e3e
00000010: 3dae 163f 16a6 ec3d d4e7 cb3e d03f 83be
00000020: 6a59 a13d a97f 043d bd32 353f 3f7f c23d
00000030: a1a9 253f a95d 96be f7b7 44bf df1e 8f3f

model/conv2d_11/Conv2D/ReadVariableOp f4 [16, 1, 1, 32]
-0.69207513 0.38636172 0.8915338 -0.023272242 -0.77856076 0.51324415 -0.52750134 0.40895137
-0.91600746 -0.0900774 -0.55340695 -0.14063656 -0.40836638 -0.7690074 0.1311099 0.235071
0.38745913 -0.5152612 0.45742196 0.20388427 0.04772178 0.18051438 0.24514186 -0.82145834
-0.75378036 -0.26969907 0.051212065 -0.07685131 0.6034158 -0.3136599 0.49992996 0.10715237
0.41839808 -0.20584805 0.48684946 -0.21830742 0.44848028 0.14619163 0.0045108963 0.28229526
-0.0023713948 0.026661715 0.2985052 0.13915059 -0.06658443 -0.29513896 -0.22933322 0.06572468
0.45964178 -0.25106212 0.092744365 -0.2532628 -0.30566588 -0.15072393 -0.22414169 0.49106473
-0.49655238 -0.14196889 0.11527277 -0.27185363 0.054271154 -0.3772536 0.40047044 0.21752262
0.4994796 -0.44326988 0.04354632 0.23088221 -0.20329826 0.009176044 0.07682153 -0.01818147
-0.37248874 -0.008170483 0.43770567 -0.22390953 0.008646123 0.18441851 0.27053085 0.31549746
-0.46966997 -0.15346079 -0.06565164 0.24582307 -0.42473817 -0.30438775 0.07014209 -0.45184818
-0.2117911 0.4097682 0.0099667 0.5018316 0.14810257 0.41562638 0.055986576 -0.4415508
0.10403688 0.08221709 0.2969493 0.31406507 -0.20081979 0.22321583 -0.019900871 -0.6618952
-0.40395248 -0.46908966 0.6454021 -0.5859325 0.6127842 0.6290561 0.23671356 0.0334692
-0.056071054 -0.50277185 -0.18718457 -0.5249794 -0.65569234 0.3843497 0.35733122 -0.067783445
-0.1153666 -0.6264927 -0.06730165 -0.19089958 0.31227306 0.5412623 -0.11507738 0.30171156
0.3768019 -0.25938088 0.10392584 -0.16750464 -0.36590248 0.31782413 0.42849407 -0.43589467
-0.25102267 0.03398079 -0.35072383 0.011611467 -0.12861043 0.3296693 0.14229886 0.27737704
0.34829125 0.11265006 0.41180456 0.03688946 0.1883984 0.18465199 0.0067335404 0.17431252
0.0483347 0.21503752 0.028813977 0.38432106 -0.37473577 -0.19316284 -0.019215064 0.3152873
0.25512925 0.49106959 0.07082175 -0.06443041 0.044692066 -0.55381864 -0.5679548 0.13918592
-0.17590228 0.42367354 0.35272723 -0.2967306 -0.62847966 -0.027984655 -0.114002965 0.27230695
-0.524772 0.23688962 -0.3021392 0.49938166 0.14175774 0.58699477 0.094623454 -0.12414056
-0.29518792 -0.19190322 0.22746208 0.47428197 0.19613715 -0.075315416 0.233976 0.27595642
0.13120626 -0.4445315 -0.17435484 -0.28168592 0.45879826 0.4018893 -0.01936716 0.33345848
0.45433822 0.32077584 0.030347833 -0.1260705 0.047852077 -0.09163976 0.16304283 0.13345358
0.46635845 -0.12007697 -0.25064224 0.32387424 0.30577698 0.06878905 -0.3766039 0.31701246
0.3537509 0.3926851 -0.44805613 0.41442055 0.0135493195 -0.05755031 0.45454264 -0.13572547
0.37817845 0.34081057 -0.20271453 -0.38941878 0.18143107 -0.21827313 -0.4107778 -0.40312573
0.12687561 -0.5230926 0.062195614 0.38158643 -0.18722475 0.42083746 0.23892951 0.5350035
-0.08773287 -0.48313496 0.1979183 0.038835622 0.50682217 -0.079001606 -0.046710454 -0.54093903
0.1306086 -0.16302498 0.3080006 -0.23648857 -0.3102958 -0.30925092 -0.10713679 0.11611757
00000000: d62b 31bf 34d1 c53e 8f3b 643f 6ea5 bebc
00000010: c24f 47bf f863 033f 540a 07bf 1362 d13e
00000020: 777f 6abf 807a b8bd 14ac 0dbf 0803 10be
00000030: 6615 d1be abdd 44bf ac41 063e 74b6 703e
00000040: 0b61 c63e 28e8 03bf 3633 ea3e 0ac7 503e
00000050: ea77 433d c3d8 383e 7806 7b3e 184b 52bf
00000060: c0f7 40bf ff15 8abe bec3 513d 3864 9dbd
00000070: 7579 1a3f 0898 a0be d2f6 ff3e b472 db3d
00000080: 4638 d63e d5c9 52be 5544 f93e fb8b 5fbe
00000090: 359f e53e 42b3 153e 24d0 933b 0189 903e
000000a0: 6769 1bbb ab69 da3c acd5 983e 7e7d 0e3e
000000b0: 6b5d 88bd 741c 97be 54d6 6abe a99a 863d
000000c0: 2b56 eb3e 378b 80be c2f0 bd3d a9ab 81be
000000d0: 3d80 9cbe 6057 1abe 6685 65be d66c fb3e
000000e0: 1d3c febe 4b60 11be 2114 ec3d 6630 8bbe
000000f0: 6e4b 5e3d 6227 c1be 760a cd3e 40be 5e3e
00000100: cabb ff3e 45f4 e2be a05d 323d 636c 6c3e
00000110: 6b2d 50be 1e57 163c 9b54 9d3d 4ef1 94bc
00000120: d8b6 bebe 7ddd 05bc f51a e03e 8a48 65be
00000130: 78a8 0d3c 35d8 3c3e 0583 8a3e e288 a13e
00000140: 9578 f0be d324 1dbe 5e74 86bd 0bb9 7b3e
00000150: 4877 d9be b6d8 9bbe a8a6 8f3d a558 e7be
00000160: c4df 58be 23cd d13e 5f4b 233c 0978 003f
00000170: 33a8 173e fbcc d43e 2e52 653d f212 e2be
00000180: 4a11 d53d 6f61 a83d bd09 983e 23cd a03e
00000190: b4a3 4dbe b192 643e 2707 a3bc f771 29bf
000001a0: dcd2 cebe 852c f0be 1239 253f acff 15bf
000001b0: 6ddf 1c3f d209 213f 0a65 723e 0017 093d
000001c0: c3aa 65bd a8b5 00bf 50ad 3fbe 0d65 06bf
000001d0: 74db 27bf 7cc9 c43e 1ef4 b63e 0cd2 8abd
000001e0: 5345 ecbd d361 20bf 73d5 89bd 2e7b 43be
000001f0: 41e2 9f3e 2b90 0a3f b0ad ebbd f079 9a3e
00000200: 2eec c03e 92cd 84be 12d7 d43d 5686 2bbe
00000210: 9257 bbbe d8b9 a23e 9363 db3e 962d dfbe
00000220: 0b86 80be 712f 0b3d 1392 b3be 063e 3e3c
00000230: 74b2 03be 6aca a83e cbb6 113e 5d04 8e3e
00000240: 3b53 b23e 13b5 e63d 0cd8 d23e 6719 173d
00000250: 83eb 403e 6915 3d3e 08a5 dc3b fb7e 323e
00000260: 9bfa 453d cc32 5c3e 4a0b ec3c bbc5 c43e
00000270: 5edd bfbe 7bcc 45be e968 9dbc 566d a13e
00000280: 4da0 823e 796d fb3e fe0a 913d 17f4 83bd
00000290: 070f 373d 0fc7 0dbf 7c65 11bf c186 0e3e
000002a0: ba1f 34be bdeb d83e aa98 b43e 13ed 97be
000002b0: 0be4 20bf 1340 e5bc 637a e9bd d16b 8b3e
000002c0: 7557 06bf 3193 723e fdb1 9abe f4ae ff3e
000002d0: f128 113e 4a45 163f f1c9 c13d 683d febd
000002e0: df22 97be 4782 44be d2eb 683e 16d5 f23e
000002f0: 2dd8 483e f83e 9abd 6897 6f3e 294a 8d3e
00000300: ef5a 063e a299 e3be 138a 32be 2339 90be
00000310: 9be7 ea3e 6fc4 cd3e e1a7 9ebc 12bb aa3e
00000320: 059f e83e bb3c a43e 059c f83c a018 01be
00000330: 8a00 443d a0ad bbbd b3f4 263e 0ea8 083e
00000340: 89c6 ee3e eaea f5bd 2e54 80be d8d2 a53e
00000350: cd8e 9c3e 46e1 8c3d 3ad2 c0be 754f a23e
00000360: d71e b53e 050e c93e 9d67 e5be ee2e d43e
00000370: f7fd 5d3c e0b9 6bbd d0b9 e83e 9efb 0abe
00000380: 9ba0 c13e b97e ae3e 6694 4fbe e661 c7be
00000390: 11c9 393e fe82 5fbe 7851 d2be 7f66 cebe
000003a0: aeeb 013e 66e9 05bf d4c0 7e3d 4c5f c33e
000003b0: d8b7 3fbe 0278 d73e f0a9 743e fdf5 083f
000003c0: 4aad b3bd 775d f7be 18ab 4a3e 1a12 1f3d
000003d0: 19bf 013f 98cb a1bd 7653 3fbd fb7a 0abf
000003e0: 43be 053e 05f0 26be 41b2 9d3e 0f2a 72be
000003f0: 17df 9ebe 2356 9ebe 896a dbbd 0ccf ed3d

model/conv2d_11/Conv2D_bias f4 [16]
0.9171732 -0.2888134 -0.070344664 0.15028922 -0.7885147 -0.42400593 -1.2105352 0.26904383
-0.37451833 0.09998483 -0.1641013 -0.07714238 -0.2857897 0.15584964 0.58702046 -0.6761266
00000000: ddcb 6a3f 5adf 93be dd10 90bd 6be5 193e
00000010: 19dc 49bf 4e17 d9be d1f2 9abf 1dc0 893e
00000020: dec0 bfbe d9c4 cc3d 2c0a 28be d3fc 9dbd
00000030: 0753 92be 0c97 1f3e f946 163f a216 2dbf

model/conv2d_12/Conv2D/ReadVariableOp f4 [4, 1, 1, 16]
0.42069632 -0.15543267 0.48130143 -0.12821247 -0.38959244 -0.29941157 -0.384128 0.5328861
-0.18739878 -0.49945623 -0.49613127 -0.009514741 0.12188633 -0.21804544 -0.38817862 -0.21080069
-0.07506478 -0.24620833 -0.059725348 0.22906165 0.14827228 -0.26478046 0.2937234 -0.22480945
0.47792223 0.10556551 0.18115307 -0.45095104 -0.016300863 0.3807247 0.25012478 -0.083240695
0.34573781 -0.2398631 -0.47423986 0.23222034 0.33616528 0.48705673 0.35032246 0.52446043
-0.44591206 0.037343327 0.25506377 -0.12592988 -0.21820499 -0.056655597 0.20865843 -0.1632396
0.38262254 -0.029140584 -0.48120221 0.23331739 -0.4952077 -0.26599246 -0.058391217 -0.3579692
-0.24970236 0.24715166 0.19193569 -0.5658951 0.32301015 -0.21150583 -0.24166311 0.33662418
00000000: 8265 d73e be29 1fbe 246d f63e 214a 03be
00000010: a978 c7be 794c 99be 6dac c4be 396b 083f
00000020: 77e5 3fbe bab8 ffbe eb04 febe b7e3 1bbc
00000030: 8a9f f93d 4e47 5fbe 59bf c6be 23dc 57be
00000040: 90bb 99bd 091e 7cbe 91a2 74bd 238f 6a3e
00000050: b0d4 173e 4e91 87be ea62 963e 7334 66be
00000060: 39b2 f43e bb32 d83d 3180 393e 0ee3 e6be
00000070: 6389 85bc 59ee c23e 5b10 803e 197a aabd
00000080: 8c04 b13e ac9e 75be 91cf f2be 2bcb 6d3e
00000090: db1d ac3e 805f f93e 775d b33e 0a43 063f
000000a0: 964e e4be 51f5 183d b897 823e c3f3 00be
000000b0: 2171 5fbe b30f 68bd 8eaa 553e 4828 27be
000000c0: 1ae7 c33e 3cb8 eebc 2360 f6be c1ea 6e3e
000000d0: dd8b fdbe 2a30 88be a12b 6fbd bd47 b7be
000000e0: fab1 7fbe 5315 7d3e ca8a 443e 80de 10bf
000000f0: 9661 a53e fc94 58be 8976 77be 015a ac3e

model/conv2d_12/Conv2D_bias f4 [4]
-0.001559694 0.0035110156 0.0048043067 -0.0068601947
00000000: a56e ccba 1119 663b 726d 9d3b 7ccb e0bb

model/conv2d_13/Conv2D/ReadVariableOp f4 [16, 1, 1, 4]
1.6909604 -0.91968846 0.3368835 0.05638152 -0.9740008 -0.3985733 0.07774585 1.1637163
0.5786209 1.1998378 1.1480404 -0.18742537 -1.3013334 0.18217358 -1.1295954 0.8105057
-0.8914805 -0.5799976 0.69321835 -1.1487646 0.9550848 -1.3872671 -1.1227274 -0.07700817
-0.8131163 1.0321798 0.9000177 -0.89492285 -0.49955478 -0.16168214 -1.8217285 -0.59374577
0.98919666 -0.9249063 -1.0529141 -0.94833636 -1.0894338 0.19136462 1.190685 -0.056924295
-1.0961564 1.1524518 0.085330725 1.5439521 -1.59281 0.71562976 -1.0553031 0.03976567
0.9845193 0.75460774 0.72014123 1.2108697 -1.0774474 -0.37015024 -0.79195654 -1.2509086
0.34017393 -0.72082865 -0.8482081 1.299955 1.0916052 0.492043 -0.9066199 0.44658616
00000000: 6471 d83f b470 6bbf fe7b ac3e 4ff0 663d
00000010: 1e58 79bf cd11 ccbe 3739 9f3d a8f4 943f
00000020: 8020 143f 4994 993f fdf2 923f 70ec 3fbe
00000030: 1892 a6bf b68b 3a3e 9596 90bf 4d7d 4f3f
00000040: 1138 64bf b97a 14bf c276 313f b80a 93bf
00000050: 7080 743f f891 b1bf 88b5 8fbf 76b6 9dbd
00000060: 6428 50bf 781e 843f 8f67 663f aa19 65bf
00000070: a5c5 ffbe 0190 25be 662e e9bf b9ff 17bf
00000080: fe3b 7d3f a9c6 6cbf e4c5 86bf 2cc6 72bf
00000090: 9172 8bbf 16f5 433e 5e68 983f 7329 69bd
000000a0: da4e 8cbf 8a83 933f e0c1 ae3d 39a0 c53f
000000b0: 33e1 cbbf 8333 373f 2c14 87bf 54e1 223d
000000c0: 7509 7c3f f92d 413f 2d5b 383f c7fd 9a3f
000000d0: cce9 89bf 5584 bdbe aabd 4abf c61d a0bf
000000e0: 472b ae3e 3a88 38bf 2b24 59bf ed64 a63f
000000f0: b8b9 8b3f 0fed fb3e 3e18 68bf f1a6 e43e

model/conv2d_13/Conv2D_bias f4 [16]
-0.46894735 -0.009205511 -1.0324527 0.52842027 0.7839578 0.610048 -0.037043113 1.224232
0.7541233 -0.08029042 -0.71151716 0.7416769 -1.4540721 1.3945485 -0.0985719 -0.43988338
00000000: de19 f0be b6d2 16bc 6927 84bf 8d46 073f
00000010: 75b1 483f 1b2c 1c3f 85ba 17bd a2b3 9c3f
00000020: 390e 413f 4e6f a4bd fd25 36bf 8ade 3d3f
00000030: 091f babf 9180 b23f 10e0 c9bd 6538 e1be

model/conv2d_14/Conv2D/ReadVariableOp f4 [16, 1, 1, 32]
-0.38918248 -0.21994132 0.16220821 0.13211931 0.084120885 -0.36519462 -0.016032942 -0.35634243
-0.34695914 0.06761317 -0.21977064 0.25929785 0.16095492 -0.039029684 -0.40753618 -0.18745731
0.25424087 0.40545705 0.03929241 -0.2928592 -0.16204928 0.32219887 0.30003294 0.019445762
0.3127428 -0.32841462 0.01392402 -0.14624907 -0.07010999 0.01641728 0.23332262 -0.011378932
0.29156813 0.36204517 0.35735837 0.357583 -0.41585752 0.13740082 -0.15658128 0.08748297
0.067649476 -0.24127364 -0.24447386 -0.35698047 -0.03972121 0.33962238 -0.37722665 0.13467194
0.12444571 -0.35744143 0.07315575 0.06126085 -0.25258303 0.09611641 -0.445082 0.29885527
-0.23707806 0.15686017 -0.13583124 -0.3384945 -0.29237354 0.31753123 -0.45030376 -0.111379564
-0.4242385 -0.4143177 -0.3435361 0.12931335 -0.30796516 -0.47725695 -0.13404477 -0.13538025
0.22355177 0.028610315 0.0954748 0.1904533 -0.16997112 -0.24058276 -0.15795243 -0.3568137
-0.2711971 -0.34744987 -0.12645657 -0.21193203 -0.12116077 -0.00021177842 0.21837792 -0.11902116
0.4132448 -0.09893222 0.0051444587 0.2844873 -0.33610478 -0.005308324 0.47578558 0.03416992
0.11565491 -0.5166688 -0.11834205 -0.20468612 0.16763519 0.47768477 -0.25196505 0.3603175
-0.113584556 0.13968857 0.12060246 -0.10353019 0.028961185 0.10419224 0.031024862 0.49343663
0.30063993 -0.3103248 -0.084222026 0.52448833 -0.12481863 -0.454353 0.012685243 -0.076076694
0.12617172 0.10442817 0.520125 0.43428618 0.31601477 -0.4612575 -0.015660072 -0.35078752
0.39476237 -0.23107542 -0.22588646 -0.08309342 0.025580902 0.20898764 -0.30193567 -0.41893357
-0.0023544952 -0.36953816 0.0047998065 0.1559106 -0.08113579 0.074767254 0.35386187 0.31431746
-0.3510435 -0.08079289 0.4089652 0.32108936 -0.097031765 0.18671653 0.33937058 0.19897838
0.31709784 0.1948143 0.1269349 0.009559855 -0.11917577 0.3448491 -0.14310236 0.3061457
-0.18306951 0.18746908 0.09764776 -0.37136695 0.45953014 0.08729626 0.101713695 0.19865958
0.25790265 -0.47902194 -0.34579048 -0.11676485 0.3638015 0.016945995 -0.24912064 -0.07803897
-0.22724792 -0.46778023 0.22219983 0.28055522 -0.23019974 -0.23436871 -0.39014456 -0.16664606
0.109799 0.2547512 -0.14984149 -0.43113625 -0.49554667 -0.42198023 0.31077236 -0.34823483
0.34770662 -0.08889626 0.10461915 0.4235811 -0.3246619 0.13299422 0.5224576 0.062200002
0.3492132 0.51295066 0.14188446 -0.47341213 -0.010513523 -0.14715654 -0.00966259 -0.031355433
0.4434037 -0.35528478 -0.27476668 0.21353705 -0.027708746 -0.37856057 -0.5100922 0.4922179
0.3552396 -0.19757429 0.55615455 -0.44211033 0.400348 -0.33567807 0.12118148 -0.29192433
-0.29240453 0.41379663 0.23471075 -0.2341822 -0.2160239 0.3199469 0.41733375 0.35555393
0.25263354 0.35283217 -0.26643315 0.18620965 -0.16021359 -0.25627935 -0.31003386 -0.38287255
0.065251224 -0.18384317 0.15650903 -0.4429086 -0.3369062 -0.035914104 -0.23685323 0.1609179
-0.0708516 0.0687072 -0.18139608 -0.3868455 -0.06783931 -0.055500846 -0.36345062 0.030550145
00000000: ed42 c7be 4c38 61be e919 263e 494a 073e
00000010: 9247 ac3d cafa babe 8457 83bc 8472 b6be
00000020: a1a4 b1be c678 8a3d 8e0b 61be b0c2 843e
00000030: 5ed1 243e 97dd 1fbd 95a8 d0be cff4 3fbe
00000040: dc2b 823e 1198 cf3e 14f1 203d a4f1 95be
00000050: 3ff0 25be 40f7 a43e eb9d 993e b84c 9f3c
00000060: d31f a03e f625 a8be 9321 643c 51c2 15be
00000070: d495 8fbd 887d 863c 20ec 6e3e b36e 3abc
00000080: 6b48 953e fc5d b93e adf7 b63e 1e15 b73e
00000090: 47eb d4be cdb2 0c3e d856 20be 452a b33d
000000a0: cf8b 8a3d 7010 77be 5b57 7abe 25c6 b6be
000000b0: b5b2 22bd fce2 ad3e da23 c1be 71e7 093e
000000c0: 64dd fe3d 9002 b7be afd2 953d a8ec 7a3d
000000d0: 9052 81be aed8 c43d cae1 e3be 8f03 993e
000000e0: 97c4 72be f49f 203e 5817 0bbe 274f adbe
000000f0: fcb1 95be 7493 a23e 378e e6be f81a e4bd
00000100: ca35 d9be 7321 d4be f7e3 afbe b86a 043e
00000110: 9cad 9dbe 065b f4be 0843 09be 1fa1 0abe
00000120: c1ea 643e 2e60 ea3c 4b88 c33d 3106 433e
00000130: e90c 2ebe 545b 76be 48be 21be 49b0 b6be
00000140: 59da 8abe f3e4 b1be d57d 01be b604 59be
00000150: 2323 f8bd d610 5eb9 769e 5f3e 5ec1 f3bd
00000160: d394 d33e fa9c cabd d992 a83b 52a8 913e
00000170: ed15 acbe 73f1 adbb 2b9a f33e c2f5 0b3d
00000180: 7bdc ec3d 6844 04bf 515d f2bd 3d99 51be
00000190: 8fa8 2b3e 1993 f43e 9001 81be 897b b83e
000001a0: 059f e8bd 850a 0f3e 6cfe f63d a307 d4bd
000001b0: 0240 ed3c be62 d53d da27 fe3c baa3 fc3e
000001c0: 7aed 993e e4e2 9ebe 997c acbd de44 063f
000001d0: e9a0 ffbd f5a0 e8be c4d5 4f3c 19ce 9bbd
000001e0: 2933 013e 70de d53d e926 053f c25a de3e
000001f0: b0cc a13e f129 ecbe 8d49 80bc 6c9a b3be
00000200: 4b1e ca3e 099f 6cbe c84e 67be e22c aabd
00000210: 0a8f d13c db00 563e 5097 9abe 767e d6be
00000220: e04d 1abb 1b34 bdbe b247 9d3b 07a7 1f3e
00000230: 852a a6bd 931f 993d 622d b53e 38ee a03e
00000240: f9bb b3be be76 a5bd e363 d13e d365 a43e
00000250: 97b8 c6bd 9e32 3f3e fbc1 ad3e fdc0 4b3e
00000260: a65a a23e 667d 473e 39fb 013e f0a0 1c3c
00000270: 6d12 f4bd 1090 b03e 6d89 12be 21bf 9c3e
00000280: 9376 3bbe e5f7 3f3e 8cfb c73d cf23 bebe
00000290: 8947 eb3e 62c8 b23d 454f d03d 6b6d 4b3e
000002a0: d10b 843e 5d42 f5be 730b b1be 6922 efbd
000002b0: 3144 ba3e 54d2 8a3c 7b19 7fbe e5d2 9fbd
000002c0: aeb3 68be e480 efbe 5a88 633e efa4 8f3e
000002d0: 7bb9 6bbe 5afe 6fbe 07c1 c7be 44a5 2abe
000002e0: 4cde e03d c06e 823e 0c70 19be e4bd dcbe
000002f0: 4bb8 fdbe cb0d d8be 8e1d 9f3e d64b b2be
00000300: 9a06 b23e 3e0f b6bd 9142 d63d 9fdf d83e
00000310: 163a a6be a32f 083e c8bf 053f 6ec5 7e3d
00000320: 13cc b23e bc50 033f 294a 113e 1363 f2be
00000330: e940 2cbc 34b0 16be d74f 1ebc 8e6e 00bd
00000340: cf05 e33e e3e7 b5be 38ae 8cbe 75a9 5a3e
00000350: 74fd e2bc b1d2 c1be 6795 02bf fc03 fc3e
00000360: f7e1 b53e ea50 4abe 2560 0e3f 495c e2be
00000370: 6afa cc3e ffdd abbe ff2d f83d 1b77 95be
00000380: 0cb6 95be 27dd d33e 0458 703e 75cd 6fbe
00000390: 5f35 5dbe 14d0 a33e c5ac d53e 2a0b b63e
000003a0: 2f59 813e 6ba6 b43e ed69 88be bead 3e3e
000003b0: 080f 24be 0c37 83be c2bc 9ebe df07 c4be
000003c0: 6fa2 853d 6241 3cbe e743 203e ebc4 e2be
000003d0: f87e acbe ab1a 13bd a789 72be a9c7 243e
000003e0: a51a 91bd 5cb6 8c3d e5bf 39be 9d10 c6be
000003f0: 56ef 8abd db54 63bd 3316 babe 4c44 fa3c

model/conv2d_14/Conv2D_bias f4 [16]
0.26863176 0.49749225 1.0025277 -0.47047737 -0.6099283 0.9307004 -0.4343673 0.519169
0.6932509 -0.5050186 -0.3055041 1.1876785 -0.28938255 0.5581935 -1.4865916 -0.20703986
00000000: 1a8a 893e 4eb7 fe3e d452 803f 69e2 f0be
00000010: 4324 1cbf 6242 6e3f 6465 debe 42e8 043f
00000020: e478 313f e648 01bf 096b 9cbe d905 983f
00000030: f329 94be c5e5 0e3f a248 bebf 4202 54be

model/conv2d_15/Conv2D/ReadVariableOp f4 [8, 1, 1, 16]
-0.32705924 0.32927155 0.019321047 0.1412009 0.17663845 0.14273372 -0.40925413 -0.0019653195
0.34196183 0.20166318 -0.114925206 -0.14710899 -0.036269292 0.23551323 0.24012795 0.46621865
0.3647879 0.39738327 -0.31066677 0.16820395 -0.43317792 -0.2882944 0.069572136 -0.38546988
0.24541841 -0.07247147 -0.37661773 0.11481418 0.030991785 -0.38637373 0.2804601 -0.31094325
-0.33738703 -0.18769522 -0.2063292 -0.25263137 0.13739763 0.30252385 -0.23858477 0.22055267
0.1876622 -0.057412125 0.14997587 -0.37110823 0.43211845 -0.053278137 -0.2997675 -0.16676192
0.03761705 0.32751518 -0.021956777 -0.28338093 -0.406105 -0.06883884 0.29821768 -0.07787803
0.43301764 -0.29535297 0.35764748 0.44974712 0.32200614 0.22367142 -0.27256867 -0.487867
0.12320544 -0.05083355 0.16788867 -0.46366674 -0.3857377 -0.47575852 0.26281214 -0.2573514
-0.46673584 -0.2655419 -0.1735998 0.057666153 0.1320495 0.3637347 0.23191273 -0.14893293
0.05287465 0.22545022 -0.46814978 -0.4303923 -0.077502385 -0.09647039 -0.15769607 -0.32972646
-0.30777162 -0.06326493 -0.4792766 -0.15868896 -0.46117496 0.049545564 -0.32699245 0.2687052
-0.24708721 -0.24534535 -0.09322685 -0.42223236 -0.3653218 0.12531096 0.43253106 -0.020156447
-0.0814754 0.39190188 0.49761966 -0.24606034 -0.46629113 0.36481625 -0.12282088 0.3760935
0.23116958 -0.093012296 0.34705123 -0.3739668 -0.020652222 -0.14735427 0.25132385 -0.34543186
-0.10822689 -0.29491335 0.29381007 -0.02656352 0.12134053 -0.117552795 -0.45690054 -0.1124833
00000000: 4f74 a7be 4896 a83e 2c47 9e3c f896 103e
00000010: b6e0 343e ca28 123e c289 d1be 97cc 00bb
00000020: 9f15 af3e cb80 4e3e e85d ebbd bda3 16be
00000030: 1c8f 14bd 612a 713e 1ae4 753e 36b4 ee3e
00000040: 7bc5 ba3e d275 cb3e b70f 9fbe a83d 2c3e
00000050: 7fc9 ddbe 539b 93be d67b 8e3d 4f5c c5be
00000060: f74e 7b3e ec6b 94bd 0ad4 c0be b223 eb3d
00000070: 7ce2 fd3c c7d2 c5be 7798 8f3e f433 9fbe
00000080: febd acbe 2d33 40be f647 53be e658 81be
00000090: f7b1 0c3e 68e4 9a3e 914f 74be 8fd8 613e
000000a0: 852a 403e fa28 6bbd 4693 193e e601 bebe
000000b0: a13e dd3e 2d3a 5abd 207b 99be a3c3 2abe
000000c0: 5614 1a3d 12b0 a73e b3de b3bc 4e17 91be
000000d0: ffec cfbe 61fb 8cbd fdaf 983e 847e 9fbd
000000e0: 7db4 dd3e 8138 97be 921d b73e 4145 e63e
000000f0: fddd a43e 1f0a 653e 1f8e 8bbe b4c9 f9be
00000100: 2253 fc3d d736 50bd 02eb 2b3e ba65 edbe
00000110: 697f c5be 9f96 f3be 508f 863e 90c3 83be
00000120: 00f8 eebe 1cf5 87be 25c4 31be 5833 6c3d
00000130: fc37 073e 6f3b ba3e 887a 6d3e e081 18be
00000140: 1793 583d 6cdc 663e 54b1 efbe 615c dcbe
00000150: 92b9 9ebd 4592 c5bd 147b 21be e8d1 a8be
00000160: 3e94 9dbe 0b91 81bd be63 f5be 5c7f 22be
00000170: 201f ecbe 4af0 4a3d 8e6b a7be ba93 893e
00000180: 6e04 7dbe d03b 7bbe b8ed bebd d72e d8be
00000190: 750b bbbe 8451 003e b674 dd3e 221f a5bc
000001a0: 93dc a6bd 5da7 c83e 01c8 fe3e 3ef7 7bbe
000001b0: b6bd eebe 32c9 ba3e 8389 fbbd 548f c03e
000001c0: b8b7 6c3e 3b7d bebd b3b0 b13e 9478 bfbe
000001d0: d92e a9bc 0ae4 16be 85ad 803e 72dc b0be
000001e0: 0fa6 ddbd e2fe 96be 466e 963e bd9b d9bc
000001f0: 6281 f83d 85bf f0bd deee e9be a55d e6bd

model/conv2d_15/Conv2D_bias f4 [8]
0.024189146 0.007449779 0.0043096365 0.008127576 -0.0053657745 0.0063819117 0.0029620735 0.008517421
00000000: 5128 c63c 471d f43b da37 8d3b 8629 053c
00000010: 61d3 afbb 5b1f d13b 591f 423b a78c 0b3c

model/conv2d_16/Conv2D/ReadVariableOp f4 [32, 1, 1, 8]
0.3042405 0.0646307 0.5052738 0.6646712 0.66633856 0.3541088 -0.96681476 0.774592
-0.5516073 0.6997672 -0.15588908 -0.070613734 0.63822156 0.68804145 -0.619422 0.6690104
0.010096881 1.0724281 0.5001508 -0.03303315 -0.48637906 -0.7079596 -0.25326222 -0.19456404
0.24547516 0.8247413 0.8295791 0.48357874 0.37209707 0.7041041 -0.46605253 0.015284621
0.3860037 -0.43683693 -0.9107897 0.6286605 0.2472398 0.121093065 -0.9821889 -0.9158939
0.6986883 -0.53629905 -0.74721515 -0.09582087 0.36963695 0.5561911 0.7116153 -0.65306944
0.11937486 -0.77470285 -0.90967095 -0.40389937 -0.17501181 -0.5500787 -0.06836186 0.88759017
0.7017567 0.60082763 0.12135075 -0.56852394 0.70049477 -0.6206323 0.5636203 0.40678838
-0.85850245 -0.15277392 -0.25972405 0.83132833 0.42989686 -0.7559441 0.38019985 0.4043713
0.64203316 0.8729186 0.27325326 -0.36267066 0.4071668 0.053343587 -0.17111684 0.98977697
-0.5255728 0.6889263 0.4011054 -0.89684916 0.11609504 -0.30696377 0.38486642 -1.2181528
-0.79098284 0.78810585 -0.78117836 0.17871724 0.6048454 0.3724494 0.7521881 -0.86120087
-0.2839214 0.6197399 -0.7067921 -0.90047735 -0.52787894 -0.5444112 0.3210432 -0.3640261
-0.89585835 0.028281339 0.79209167 -0.84263825 -0.48222595 -0.0761553 0.32981423 0.6005802
0.24318875 -0.6022352 0.5933742 -0.64968294 0.6550786 0.39063475 0.31880823 -0.3641171
0.113367714 -0.49647775 -0.60682046 -0.95474833 -0.859116 0.6575074 0.6849452 -0.24719417
-0.35993618 0.37351453 -0.6800127 0.18213993 -0.4260793 0.9451328 0.51505107 0.64855886
0.067782216 -0.34321907 0.09033819 -0.31003457 0.30231664 0.998187 0.8955852 -0.5105764
-0.3495449 0.27703768 -0.6400932 -0.6906829 -0.06997316 0.7520406 0.6253053 0.7703625
-0.0330828 -0.6783463 -0.8027866 -0.51916045 0.458913 -1.1044962 0.4515269 -1.0223019
0.58053374 -0.31480512 -0.28158426 -0.22112775 0.8034882 0.6539882 -0.8277416 -0.16430697
0.06712623 0.41076684 -0.54131526 0.36518127 0.10531048 0.5363368 0.7423914 1.1050832
-0.764898 -0.7710823 0.7527582 0.03543312 -0.16755952 -0.51226604 -0.22448976 -0.46616182
0.86648136 -0.38209072 -0.9188303 0.88213974 -0.24587725 0.34679252 -0.45688233 0.23026988
-0.9570933 0.8544514 -0.031382766 -0.5675449 0.78080225 0.3990133 0.79010916 -0.95607865
-0.6906474 -0.61193806 0.7583607 -0.25325838 -0.6393792 0.54739016 -0.7223009 -0.23991416
0.10791907 -0.000905242 -0.5144566 0.53980505 -0.18615232 -0.68470705 -0.90322554 0.87125695
0.25789797 -0.12656751 -0.54573727 -0.046774976 0.6726748 0.7890056 0.8290251 0.2068666
0.6374542 -0.6642971 -1.0258986 0.73035896 -0.11999318 -0.17084591 -0.73826337 0.41825923
-0.73442566 -0.5924468 -0.43323088 -0.3932121 -0.10076072 -0.7354326 0.445597 -0.497736
0.12272437 0.42196944 0.7806322 0.24086265 0.58255637 0.43342543 0.40077078 -0.6791649
-0.10846997 -0.20918821 -0.50330895 0.074408285 -0.98895913 0.32892838 -0.37416366 1.087026
00000000: 69c5 9b3e 1a5d 843d a059 013f e427 2a3f
00000010: 2a95 2a3f c04d b53e 2c81 77bf a94b 463f
00000020: 2336 0dbf f123 333f 63a1 1fbe ef9d 90bd
00000030: 7d62 233f 7c23 303f 7192 1ebf 4444 2b3f
00000040: 636d 253c 5345 893f e209 003f c54d 07bd
00000050: ad06 f9be d73c 35bf 96ab 81be cc3b 47be
00000060: d75d 7b3e 3f22 533f 4c5f 543f a297 f73e
00000070: 8283 be3e 2b40 343f 709e eebe 596c 7a3c
00000080: 47a2 c53e 17a9 dfbe 8429 69bf e5ef 203f
00000090: 6e2c 7d3e a4ff f73d bb70 7bbf 0678 6abf
000000a0: 3ddd 323f e54a 09bf 7e49 3fbf bb3d c4bd
000000b0: 0e41 bd3e 8a62 0e3f 6c2c 363f 8f2f 27bf
000000c0: ce7a f43d ed52 46bf 32e0 68bf e6cb cebe
000000d0: 4c36 33be f5d1 0cbf 4e01 8cbd 1c39 633f
000000e0: 54a6 333f d7cf 193f be86 f83d c98a 11bf
000000f0: a053 333f c2e1 1ebf 6c49 103f 9146 d03e
00000100: d1c6 5bbf c470 1cbe 8dfa 84be efd1 543f
00000110: 711b dc3e 8d85 41bf 8ea9 c23e c109 cf3e
00000120: 495c 243f 9877 5f3f dae7 8b3e f8af b9be
00000130: 2b78 d03e ce7e 5a3d 4139 2fbe 0662 7d3f
00000140: f08b 06bf 795d 303f b05d cd3e e897 65bf
00000150: 3dc3 ed3d 5b2a 9dbe 360d c53e 6eec 9bbf
00000160: da7d 4abf 4ec1 493f 4efb 47bf a701 373e
00000170: 26d7 1a3f b0b1 be3e 668f 403f a977 5cbf
00000180: 255e 91be 46a7 1e3f 54f0 34bf af85 66bf
00000190: 1323 07bf 885e 0bbf c65f a43e a161 babe
000001a0: f956 65bf 44ae e73c 85c6 4a3f 24b7 57bf
000001b0: 52e6 f6be 4ff7 9bbd 69dd a83e a0bf 193f
000001c0: 7906 793e 162c 1abf 5fe7 173f 9f51 26bf
000001d0: 3bb3 273f 4701 c83e d53a a33e 8e6d babe
000001e0: 552d e83d 5532 febe 9658 1bbf 636a 74bf
000001f0: 07ef 5bbf 6852 283f 9258 2f3f 7820 7dbe
00000200: 8e49 b8be 4c3d bf3e 5015 2ebf e482 3a3e
00000210: 1127 dabe 39f4 713f 63da 033f f407 263f
00000220: 67d1 8a3d 69ba afbe 3b03 b93d dabc 9ebe
00000230: 3fc9 9a3e 2f89 7f3f 1245 653f 23b5 02bf
00000240: 8df7 b2be e2d7 8d3e 26dd 23bf 98d0 30bf
00000250: 174e 8fbd bc85 403f 0214 203f 7a36 453f
00000260: d581 07bd 1aa8 2dbf 6c83 4dbf b3e7 04bf
00000270: a5f6 ea3e 2260 8dbf 892e e73e cada 82bf
00000280: dc9d 143f 232e a1be d02b 90be 506f 62be
00000290: 67b1 4d3f c56b 273f e0e6 53bf 1640 28be
000002a0: 7a79 893d 0850 d23e a393 0abf 0af9 ba3e
000002b0: 05ad d73d 5e4d 093f 5d0d 3e3f 5e73 8d3f
000002c0: 5bd0 43bf a665 45bf c3b4 403f 5222 113d
000002d0: b994 2bbe de23 03bf a5e0 65be c3ac eebe
000002e0: b9d1 5d3f 65a1 c3be 7638 6bbf e9d3 613f
000002f0: 3fc7 7bbe ca8e b13e 7bec e9be decb 6b3e
00000300: 1104 75bf 54bd 5a3f 378b 00bd 9f4a 11bf
00000310: a8e2 473f 794b cc3e 9844 4a3f 92c1 74bf
00000320: 45ce 30bf f9a7 1cbf ed23 423f 15ab 81be
00000330: 5bae 23bf c321 0c3f b6e8 38bf 0fac 75be
00000340: ac04 dd3d c34d 6dba 6eb3 03bf aa30 0a3f
00000350: b79e 3ebe f648 2fbf ca39 67bf b20a 5f3f
00000360: 340b 843e ea9a 01be 70b5 0bbf 1e97 3fbd
00000370: 6a34 2c3f 45fc 493f fd3a 543f d7d4 533e
00000380: 3330 233f 600f 2abf a550 83bf cef8 3a3f
00000390: fcbe f5bd 3bf2 2ebe d4fe 3cbf 1326 d63e
000003a0: 5203 3cbf 98aa 17bf 70d0 ddbe 1953 c9be
000003b0: a35b cebd 5045 3cbf 4a25 e43e 41d7 febe
000003c0: ea56 fb3d 610c d83e 83d7 473f b3a4 763e
000003d0: 6a22 153f f0e9 dd3e d431 cd3e c0dd 2dbf
000003e0: 8125 debd 6f35 56be dbd8 00bf 5f63 983d
000003f0: 6d2c 7dbf 4d69 a83e 6192 bfbe ab23 8b3f

model/conv2d_16/Conv2D_bias f4 [32]
-0.8591348 -0.49568528 0.04285089 -1.1110871 0.74128497 -0.13837945 0.69340754 -0.76229835
0.061097775 -1.040767 0.44093055 -0.11698573 0.8255596 0.15838031 -0.2767852 0.5654673
-0.4595382 -0.49505082 -0.30417508 1.1902184 -0.12516364 -1.033026 0.8038428 -0.04871138
-0.20070167 0.69358283 0.33631235 -0.8006973 0.42261714 1.1258466 -0.8685195 0.2873408
00000000: 42f0 5bbf 76ca fdbe 6a84 2f3d 1a38 8ebf
00000010: dac4 3d3f 58b3 0dbe 2883 313f fc25 43bf
00000020: a941 7a3d da37 85bf a6c1 e13e 3796 efbd
00000030: e057 533f 732e 223e cab6 8dbe 77c2 103f
00000040: 9748 ebbe 4d77 fdbe d6bc 9bbe 1459 983f
00000050: e62a 00be 323a 84bf a4c8 4d3f 9685 47bd
00000060: bd84 4dbe a58e 313f 2231 ac3e 80fa 4cbf
00000070: 4661 d83e be1b 903f 4b57 5ebf 551e 933e

model/conv2d_17/Conv2D/ReadVariableOp f4 [32, 1, 1, 48]
0.31149623 -0.16301948 -0.2723777 -0.274663 -0.13164523 -0.31857494 -0.16273028 -0.12513109
-0.1470305 0.14750686 -0.34711167 0.003880751 0.119284235 0.1417819 -0.2346984 -0.23933281
0.27167213 -0.057442132 0.31761605 -0.18999971 -0.067573 0.21012802 -0.25817594 0.19556668
-0.20177127 0.1148678 -0.0029263361 0.04159653 0.1734601 -0.14167 0.15958759 -0.30875567
0.33128467 0.11389898 0.09975771 -0.2599255 -0.30545768 -0.048442833 -0.23937926 -0.005730242
0.2661016 0.17943256 0.32231373 -0.31572685 -0.2809305 -0.33058202 0.08072378 0.289197
-0.09421987 -0.20444416 -0.18634154 -0.11292512 0.34596753 0.28638074 -0.35653678 -0.017542738
0.026800804 -0.10789208 -0.1829905 0.26311478 0.012777059 -0.11692271 -0.2367172 0.1798611
0.19781853 -0.3276053 -0.056328706 0.089824915 -0.066278294 -0.25562897 0.016386585 -0.34035128
-0.097862594 0.115954526 0.3743007 -0.26335984 0.10090918 0.3088458 -0.25171766 -0.026727615
-0.10233002 0.045277786 -0.13439903 -0.2859839 -0.28899887 -0.04602156 -0.23514429 0.2866724
-0.08445464 -0.14862609 0.2411222 0.32220733 -0.2904079 -0.33699372 -0.37174854 -0.025554676
0.053285696 -0.20564495 -0.25401157 -0.1808319 -0.14156534 0.048081398 0.06722776 0.1545729
0.2438839 -0.27394494 -0.13642435 -0.28760135 0.18721755 -0.013074921 -0.15922068 0.24118553
-0.28774112 -0.23739427 0.043241356 -0.30563992 -0.19876477 0.11424029 -0.26065713 0.13656813
0.06499874 -0.14810847 0.26476663 0.1277171 0.2531623 0.010555062 0.23210734 0.022650672
0.12241191 -0.09201137 -0.12891561 -0.22641936 -0.12886304 0.00029546468 -0.060960334 -0.30366042
-0.040438503 0.25145283 0.11126614 -0.03432643 0.10095281 -0.1593889 0.1880605 0.117843814
-0.09741468 -0.14051181 -0.013760379 0.021449922 0.104014136 0.12162352 0.051028773 -0.09290122
0.23925854 -0.19309415 0.23675115 0.14077853 -0.12890375 0.0080626225 -0.10241313 0.24058147
0.076764986 -0.17311539 -0.08308331 0.21735965 0.23467474 -0.24515529 0.25805375 0.20505945
0.0064630928 0.18794104 -0.14053859 -0.26795277 0.16807786 0.18376732 -0.09865635 -0.20034386
-0.1083196 0.075705595 0.05826318 -0.19581585 0.1916163 0.0072498294 0.18492445 0.19433218
0.098163076 -0.11299155 0.20501435 -0.07268502 0.2130786 -0.2311373 -0.22297543 -0.052609097
0.15007785 0.17259862 0.07221035 0.036344606 -0.23116763 -0.08680572 0.23250364 0.17451909
-0.114843704 -0.13243355 -0.12110256 -0.087749526 0.2189787 0.09405827 0.20813118 -0.14439648
-0.13312458 -0.18835014 0.007688073 -0.12978838 -0.23230137 -0.11471671 -0.17615327 0.1741315
0.146129 0.0016869394 -0.22283511 0.015339229 0.11970332 0.06216289 0.026673023 0.09618163
0.11187696 0.13779712 -0.13317241 -0.1848505 -0.13348843 -0.21323416 0.053002544 -0.078589045
-0.06721406 -0.2253671 0.13240896 -0.061913993 -0.16694365 0.028018406 -0.08290216 -0.08523502
0.23708816 0.15808734 0.29742807 0.18208642 0.16207671 0.16120295 0.08021042 0.15360054
-0.060677417 0.30888632 -0.21327801 -0.18021181 0.08083505 0.14291573 -0.21147443 -0.17914213
00000000: 6f7c 9f3e 94ee 26be 1775 8bbe a1a0 8cbe
00000010: 02ce 06be 411c a3be c4a2 26be 5d22 00be
00000020: 2a8f 16be 0a0c 173e 9fb8 b1be 3354 7e3b
00000030: 4b4b f43d 462f 113e c754 70be a913 75be
00000040: 9c18 8b3e 7148 6bbd 929e a23e 498f 42be
00000050: b763 8abd cd2b 573e a32f 84be a242 483e
00000060: 219d 4ebe cf3f eb3d c6c7 3fbb 1f61 2a3d
00000070: 869f 313e f111 11be ee6a 233e 3915 9ebe
00000080: 259e a93e de43 e93d c54d cc3d f514 85be
00000090: f364 9cbe fe6b 46bd d61f 75be c1c4 bbbb
000000a0: 783e 883e 2bbd 373e 4e06 a53e f3a6 a1be
000000b0: 1fd6 8fbe 0c42 a9be 8252 a53d a111 943e
000000c0: 59f6 c0bd cf59 51be 51d0 3ebe 4945 e7bd
000000d0: a822 b13e 7fa0 923e fd8b b6be cab5 8fbc
000000e0: 5c8d db3c 86f6 dcbd dd61 3bbe fbb6 863e
000000f0: df56 513c 2c75 efbd fe65 72be 822d 383e
00000100: f190 4a3e e2bb a7be eeb8 66bd 20f6 b73d
00000110: eabc 87bd cde1 82be 293d 863c 8642 aebe
00000120: 2f6c c8bd 9179 ed3d 57a4 bf3e 1ad7 86be
00000130: 79a9 ce3d 0921 9e3e 23e1 80be dff3 dabc
00000140: 6792 d1bd 3375 393d e69f 09be 7b6c 92be
00000150: a9f7 93be 1a81 3cbd aac9 70be bac6 923e
00000160: 8ef6 acbd 7031 18be bde8 763e 5cf8 a43e
00000170: 58b0 94be 718a acbe d355 bebe 0a58 d1bc
00000180: 1a42 5a3d 9794 52be ce0d 82be ff2b 39be
00000190: 81f6 10be 00f1 443d b5ae 893d 5c48 1e3e
000001a0: b3bc 793e 8342 8cbe d3b2 0bbe 7c40 93be
000001b0: f5b5 3f3e 3238 56bc bf0a 23be 57f9 763e
000001c0: ce52 93be 7c17 73be d91d 313d d67c 9cbe
000001d0: fe88 4bbe d0f6 e93d da74 85be 84d8 0b3e
000001e0: 0f1e 853d bfa9 17be 7e8f 873e 45c8 023e
000001f0: 7d9e 813e 24ef 2c3c 8cad 6d3e e78d b93c
00000200: 18b3 fa3d 7570 bcbd 7402 04be 7ada 67be
00000210: acf4 03be 99e8 9a39 8bb1 79bd 6179 9bbe
00000220: d8a2 25bd 6dbe 803e 81df e33d df99 0cbd
00000230: 59c0 ce3d d836 23be ef92 403e 1958 f13d
00000240: 5981 c7bd 54e2 0fbe 3673 61bc bfb7 af3c
00000250: 5d05 d53d c115 f93d 8c03 513d ff42 bebd
00000260: 3100 753e 79ba 45be e56e 723e 3f28 103e
00000270: 58ff 03be 1719 043c fabd d1bd fd5a 763e
00000280: f636 9d3d 2945 31be 9527 aabd 8793 5e3e
00000290: 934e 703e fd09 7bbe 9f1f 843e 1bfb 513e
000002a0: 5ac8 d33b 9e73 403e 59e9 0fbe 1b31 89be
000002b0: 9a1c 2c3e 802d 3c3e 570c cabd f126 4dbe
000002c0: abd6 ddbd 890b 9b3d 5fa5 6e3d f383 48be
000002d0: 1037 443e fa8f ed3b d65c 3d3e 04ff 463e
000002e0: b909 c93d 1d68 e7bd 48ef 513e e2db 94bd
000002f0: 4731 5a3e 42af 6cbe ac53 64be a37c 57bd
00000300: 02ae 193e b1bd 303e 05e3 933d 15de 143d
00000310: 35b7 6cbe 33c7 b1bd 6f15 6e3e 22b5 323e
00000320: 2d33 ebbd a99c 07be 9e04 f8bd 06b6 b3bd
00000330: f43b 603e 9fa1 c03d 5720 553e acdc 13be
00000340: cf51 08be dcde 40be 3bec fb3b 3fe7 04be
00000350: 69e0 6dbe 98f0 eabd 8661 34be 874f 323e
00000360: d7a2 153e 4b1c dd3a e32e 64be 6451 7b3c
00000370: 0427 f53d 849e 7e3d 6281 da3c e0fa c43d
00000380: bf1f e53d b01a 0d3e 595e 08be 7349 3dbe
00000390: 31b1 08be 0e5a 5abe 3219 593d 4bf3 a0bd
000003a0: 86a7 89bd a2c6 66be 3796 073e 8799 7dbd
000003b0: 47f3 2abe db86 e53c 9cc8 a9bd b38f aebd
000003c0: 3dc7 723e a6e1 213e 7e48 983e dd74 3a3e
000003d0: 70f7 253e 6312 253e 5c45 a43d 7649 1d3e
000003e0: e288 78bd 5926 9e3e 8d65 5abe 7289 38be
000003f0: d98c a53d 8058 123e c18c 58be 0971 37be

model/conv2d_17/Conv2D_bias f4 [32]
1.2532575 2.2793803 1.0501078 -0.8397365 1.0808297 0.14921209 2.3945045 -2.2787237
0.10245448 1.4872769 -1.0973337 -0.76257914 0.9266185 -1.7880746 -0.0573403 1.2250254
-0.10260065 0.41057238 2.58345 -0.14059427 -1.0358912 -0.119817354 -1.0301327 -0.24546312
1.3795949 0.7511982 -0.06707936 1.357632 -0.4627047 2.1811235 -2.0577686 0.45523363
00000000: be6a a03f 5ee1 1140 ef69 863f f9f8 56bf
00000010: a158 8a3f 0ecb 183e 903f 1940 9cd6 11c0
00000020: a8d3 d13d 175f be3f 6e75 8cbf 6338 43bf
00000030: df36 6d3f a1df e4bf aadd 6abd a2cd 9c3f
00000040: 4a20 d2bd 8b36 d23e 3f57 2540 f2f7 0fbe
00000050: 1598 84bf cd62 f5bd 63db 83bf af5a 7bbe
00000060: 9196 b03f 864e 403f e760 89bd e3c6 ad3f
00000070: a1e7 ecbe 8797 0b40 7bb2 03c0 6214 e93e

model/conv2d_18/Conv2D/ReadVariableOp f4 [8, 1, 1, 32]
-0.35892245 0.13741043 -0.272665 0.3513427 0.18125145 -0.26510915 -0.07456444 -0.10719838
0.21499628 0.2682077 0.24397717 -0.3063548 0.3579967 0.2208496 0.006319779 -0.03905184
0.18972921 -0.17438489 0.30660063 0.26175183 -0.29164687 0.332693 0.28742817 -0.16847196
0.18266514 -0.27221984 -0.111232996 0.33156893 -0.03950764 0.095231555 0.3345444 0.37948632
0.2238748 -0.27865157 0.30771926 -0.01549001 -0.1642994 -0.06912906 -0.27189127 -0.23360635
0.09552558 -0.098544426 -0.07152411 0.314041 0.33698297 -0.039920524 0.15756863 -0.27348036
0.026214706 0.13347729 -0.3561548 -0.3095608 -0.024256473 0.024419954 -0.31954858 -0.36212724
0.09956717 0.062414695 0.029724153 -0.16618192 -0.13564672 -0.052182246 -0.009465466 -0.03978817
-0.14712664 0.00040166528 0.24659713 0.30875936 -0.23929067 -0.24270657 0.06797387 0.2507032
0.26523438 0.21619716 0.2664516 -0.25959077 -0.22534853 -0.326889 -0.03180072 0.08412104
0.07697959 -0.14417624 0.01133121 0.3196289 -0.05606344 0.3980683 0.0514919 0.16795519
0.0853004 0.0308487 0.21311994 -0.11530104 -0.36476502 0.010514592 0.3109368 -0.07276905
-0.19302103 0.04996658 0.0007172738 -0.0878406 -0.24435322 0.37773532 0.20140967 -0.22184312
0.35633907 -0.18092158 0.37568662 -0.3673278 0.293488 0.24146105 -0.32956323 -0.2675328
0.07601453 -0.012787402 -0.036117446 -0.3614324 -0.23174235 0.098340966 0.029448668 0.2048955
0.31440327 0.098369054 -0.30334955 0.32374403 -0.28812826 -0.018398305 -0.29610512 0.24122256
-0.08287457 0.06576781 0.31738597 -0.28795797 -0.14144315 0.005880694 0.12353652 0.16468167
-0.3722738 -0.075704865 0.17485869 0.0637684 -0.23519912 -0.3370623 -0.09142529 -0.13087486
-0.2158309 -0.24088933 -0.06440549 0.31297615 0.26717523 0.12039869 0.061034366 -0.028510157
-0.031775717 0.0061322013 -0.07738737 0.064311154 0.05675584 0.09411391 -0.12975234 0.2070275
-0.055830523 0.32902333 0.33428487 -0.099751025 0.37413946 -0.2855584 -0.23328356 0.31556603
-0.363313 0.31535575 -0.11615065 0.34372163 -0.24229093 0.008237772 0.37621018 -0.35562122
-0.3838869 -0.023148406 -0.2249301 -0.26326445 0.0071885455 -0.015102289 0.3478893 -0.1343012
0.36136654 0.32612157 -0.2723951 0.22192496 0.31687066 0.028294658 -0.2179197 0.023702867
-0.17132021 -0.015785139 -0.16513242 0.095267944 -0.30118558 0.28375655 0.16617957 0.2939566
-0.28023478 -0.17043914 -0.32877398 0.07467102 0.049351003 0.35493642 -0.35627493 0.0735899
-0.04396726 0.22745846 -0.23952007 0.27097446 0.15735845 0.16964151 0.08641949 -0.32001358
-0.16559154 -0.10866665 -0.35272032 -0.15969008 -0.34870785 -0.062345985 -0.011492057 0.33124048
0.13378549 -0.13769148 0.2800887 0.015845751 0.0014253502 -0.05332364 0.37442195 0.12509537
-0.03381984 0.14586233 -0.029648295 0.16754839 0.13721739 -0.027233835 0.37015828 -0.17067459
0.3355417 -0.15648484 0.20391756 -0.10515322 -0.27403653 -0.38208354 -0.0035918585 -0.08434913
0.23851843 -0.1278019 -0.06300303 -0.3908265 0.3465415 -0.078381635 0.20375377 -0.046561867
00000000: afc4 b7be 52b5 0c3e bf9a 8bbe 31e3 b33e
00000010: fb99 393e 63bc 87be 3eb5 98bd d38a dbbd
00000020: fc27 5c3e 8552 893e 27d5 793e 89da 9cbe
00000030: 584b b73e 6626 623e 2616 cf3b d2f4 1fbd
00000040: 6048 423e f491 32be c2fa 9c3e 5604 863e
00000050: bd52 95be bd56 aa3e c929 933e ea83 2cbe
00000060: 920c 3b3e 6660 8bbe 20ce e3bd 67c3 a93e
00000070: c3d2 21bd c308 c33d 6749 ab3e 084c c23e
00000080: 703f 653e 6bab 8ebe 618d 9d3e d0c9 7dbc
00000090: 1a3e 28be 8993 8dbd 5535 8bbe 8136 6fbe
000000a0: eaa2 c33d a9d1 c9bd 3c7b 92bd fbc9 a03e
000000b0: 0889 ac3e b483 23bd ac59 213e 9e05 8cbe
000000c0: 39c0 d63c 45ae 083e ec59 b6be c17e 9ebe
000000d0: 83b5 c6bc 5b0c c83c df9b a3be be68 b9be
000000e0: dfe9 cb3d 8da6 7f3d 1180 f33c 982b 2abe
000000f0: f9e6 0abe 0dbd 55bd 0b15 1bbc ecf8 22bd
00000100: 5ea8 16be 9a96 d239 f583 7c3e b515 9e3e
00000110: 9d08 75be 1288 78be e235 8b3d 2b5c 803e
00000120: cdcc 873e ca62 5d3e 586c 883e 15e9 84be
00000130: c4c1 66be ff5d a7be 7941 02bd a747 ac3d
00000140: 7aa7 9d3d f0a2 13be 8aa6 393c 66a6 a33e
00000150: c7a2 65bd 9ccf cb3e 2ce9 523d 72fc 2b3e
00000160: fab1 ae3d 6ab6 fc3c 1d3c 5a3e f422 ecbd
00000170: 7bc2 babe 6545 2c3c 1c33 9f3e f107 95bd
00000180: 4ea7 45be c2a9 4c3d 6e07 3c3a c6e5 b3bd
00000190: bb37 7abe 8666 c13e 563e 4e3e d82a 63be
000001a0: 1372 b63e 8243 39be ff59 c03e 6412 bcbe
000001b0: 0f44 963e 9141 773e 83bc a8be 0ffa 88be
000001c0: 82ad 9b3d 4082 51bc e3ef 13bd ab0d b9be
000001d0: de4d 6dbe fd66 c93d 553e f13c 20d0 513e
000001e0: 77f9 a03e b775 c93d a250 9bbe c7c1 a53e
000001f0: 8c85 93be 0bb8 96bc 179b 97be 0c03 773e
00000200: 24ba a9bd 46b1 863d 6a80 a23e 3a6f 93be
00000210: 79d6 10be d6b2 c03b b700 fd3d 50a2 283e
00000220: ac9a bebe 270b 9bbd 280e 333e 0299 823d
00000230: 0ad8 70be 6e93 acbe 2f3d bbbd 0f04 06be
00000240: c702 5dbe b1ab 76be 07e7 83bd 693e a03e
00000250: 31cb 883e 9793 f63d 2cff 793d 228e e9bc
00000260: 4127 02bd a2f0 c83b 457d 9ebd 91b5 833d
00000270: d078 683d cbbe c03d ccdd 04be 04ff 533e
00000280: 8cae 64bd bf75 a83e 6327 ab3e 444a ccbd
00000290: 358f bf3e b634 92be e3e1 6ebe df91 a13e
000002a0: 2904 babe 4f76 a13e 64e0 edbd 48fc af3e
000002b0: 1d1b 78be b8f7 063c 9f9e c03e fc13 b6be
000002c0: d38c c4be baa1 bdbc 1354 66be 99ca 86be
000002d0: e48d eb3b 976f 77bc 8c1e b23e 4186 09be
000002e0: 0905 b93e 68f9 a63e 5f77 8bbe 4c40 633e
000002f0: df3c a23e 33ca e73c 5826 5fbe 842c c23c
00000300: 916e 2fbe d64f 81bc 7918 29be d71b c33d
00000310: ff34 9abe 8a48 913e fa2a 2a3e 7b81 963e
00000320: ef7a 8fbe 9987 2ebe 1055 a8be 1fed 983d
00000330: 4724 4a3d 3aba b53e ab69 b6be 4db6 963d
00000340: 0317 34bd dfea 683e c044 75be 2abd 8a3e
00000350: 9322 213e 81b6 2d3e b4fc b03d d2d8 a3be
00000360: d490 29be 9f8c debd c297 b4be cc85 23be
00000370: d689 b2be 815e 7fbd 2e49 3cbc 5a98 a93e
00000380: 10ff 083e fffe 0cbe c967 8f3e f3ce 813c
00000390: d1d2 ba3a e469 5abd 3cb4 bf3e 0019 003e
000003a0: ac86 0abd ef5c 153e fbe0 f2bc ce91 2b3e
000003b0: b782 0c3e 7e19 dfbc 6385 bd3e 52c5 2ebe
000003c0: 1fcc ab3e 903d 20be c4cf 503e 925a d7bd
000003d0: 844e 8cbe 74a0 c3be 6365 6bbb 3dbf acbd
000003e0: 2d3e 743e 80de 02be bc07 81bd 691a c8be
000003f0: e36d b13e 8d86 a0bd d4a4 503e a8b7 3ebd

model/conv2d_18/Conv2D_bias f4 [8]
-0.009380182 -0.015079702 0.00080652646 -0.015060756 0.0088579785 -0.0072486186 0.00500157 -0.009158542
00000000: 56af 19bc db10 77bc 136d 533a 64c1 76bc
00000010: 0e21 113c d285 edbb 36e4 a33b b60d 16bc

model/conv2d_19/Conv2D/ReadVariableOp f4 [32, 1, 1, 8]
0.0059825457 0.50915915 0.53990835 -0.14806508 -0.027964856 0.93015546 1.0392529 0.4512356
-0.6837518 0.025005985 0.85790026 0.6495216 0.46068946 0.55684847 -0.54796046 0.5079633
-0.32167566 0.72117054 -0.0799183 -0.33332595 -1.1127548 0.62748975 0.4214458 -0.19997111
0.9019888 -0.5037904 -0.37554917 0.4366604 -0.9111498 -0.52244234 0.9803691 0.01077841
-0.3744169 0.6793722 -0.10745361 0.8333187 0.5107474 -0.23523495 0.21161601 -0.7652798
0.607799 -0.8339355 -0.5531175 -0.2164837 -0.74238104 0.09331928 -0.41893467 0.48888662
0.78197724 -0.83822435 -0.085342824 -0.6008486 -0.0044693146 -0.5836781 0.7411302 -0.20506266
-0.41712496 -0.5642955 -0.82467985 0.12883666 -0.80183685 -0.54035634 -0.5292712 0.8740449
0.6844158 0.03534402 -1.148093 -0.6500928 0.37373435 -0.28969088 0.7610453 -0.15458655
0.19062614 -0.8549849 -1.0991904 -0.7760649 0.14962022 -0.3700956 -0.16044813 -0.38298422
-0.83652735 -0.018954493 0.62943006 -0.9621604 -0.71302855 0.17827605 -0.01988438 0.44660717
0.52059823 1.1555629 0.71945417 1.0468905 -0.4555739 0.14788614 0.30162793 -0.58315986
-0.70829314 0.30441454 -0.83357084 0.49409363 0.53146136 -0.5922078 -0.2380304 0.75648904
1.0051898 0.609977 0.32819825 0.91797733 -0.0328022 -0.11109411 -1.2129109 -0.37863567
0.7044327 0.8182542 0.85033876 -0.01727788 -0.93640536 -0.54054445 0.45168316 0.26641828
0.20225182 0.7525894 -0.6718791 0.9411019 -0.28167367 -0.81672114 0.034897324 -0.6733381
-0.6816682 0.28338766 0.3156005 0.58807206 0.65374374 -0.81216174 0.07905939 0.6703937
0.9173272 -0.05747755 0.3021941 -0.30285713 -0.23194739 0.5909674 -0.444935 0.8581101
0.40905675 0.24485005 -0.6997416 0.92715555 -0.50697315 0.9794751 -0.16966511 0.6828142
-0.16826549 0.63470626 0.7555893 0.23790081 -0.74117625 0.7308526 0.39811903 0.6541184
0.036888175 0.027785785 0.012082355 0.145838 -0.8469774 -0.48967952 -0.8487422 0.917382
-1.2005613 0.13806129 -0.55714667 -1.0949484 0.44768107 0.6053268 0.008132493 0.7036733
-0.5735798 0.3162798 1.1288261 0.12308581 -0.20691723 -0.86948544 0.20812832 0.63130605
0.0112318015 0.117473945 -1.4024733 0.8697396 -0.6920051 -0.5529438 0.029897224 -0.06870838
0.9065971 -0.064741716 0.36385542 0.9032998 -0.38643625 -0.9355252 0.25155613 0.8351404
0.75276774 0.12944056 -0.83290565 0.3488821 -0.38630366 -0.15630123 -0.9621126 0.6560066
-0.69939107 0.50921035 0.48536217 0.4499004 0.80069816 -0.34405097 -0.29533064 -0.7715582
-0.7253336 -0.5687494 -0.22235888 0.5455099 0.67155063 0.010337437 0.6245233 -0.6023257
0.35450473 0.50038165 -0.121815495 -0.80478865 0.96725166 -0.3434144 -0.99064374 0.9377462
-0.08832907 -0.75343907 -0.6232202 0.26064768 -0.10430084 -0.9126425 0.70809454 -0.47877195
-0.11512239 0.41608113 -0.5104413 -0.72653276 0.28365394 -0.56626916 1.1766251 -0.30275765
0.9102177 0.9130204 0.13166256 -0.16096511 -1.0022848 -0.18587115 -0.13019346 -0.368753
00000000: 3b09 c43b 4158 023f 6f37 0a3f 5f9e 17be
00000010: 8e16 e5bc ab1e 6e3f 3d06 853f 5a08 e73e
00000020: 5c0a 2fbf 5ad9 cc3c 5a9f 5b3f 0c47 263f
00000030: 7ddf eb3e 9f8d 0e3f 2347 0cbf e209 023f
00000040: acb2 a4be a29e 383f 35ac a3bd b3a9 aabe
00000050: c06e 8ebf 2ba3 203f bec7 d73e 3ac5 4cbe
00000060: bde8 663f 68f8 00bf fb47 c0be f491 df3e
00000070: 1d41 69bf c8be 05bf 78f9 7a3f ee97 303c
00000080: 92b3 bfbe 56eb 2d3f a310 dcbd 6054 553f
00000090: 57c0 023f 6ee1 70be deb1 583e 61e9 43bf
000000a0: b798 1b3f cc7c 55bf 1c99 0dbf e7ad 5dbe
000000b0: af0c 3ebf 2e1e bf3d 9b7e d6be 594f fa3e
000000c0: a92f 483f df95 56bf 38c8 aebd 37d1 19bf
000000d0: 5473 92bb ee6b 15bf b5ba 3d3f f2fb 51be
000000e0: 6791 d5be ab75 10bf 381e 53bf c2ed 033e
000000f0: 2e45 4dbf cb54 0abf 517e 07bf 68c1 5f3f
00000100: e035 2f3f e4c4 103d b6f4 92bf 7b6c 26bf
00000110: 1c5a bf3e 5d52 94be ddd3 423f f04b 1ebe
00000120: 8033 433e 4ae0 5abf 45b2 8cbf 30ac 46bf
00000130: 0b36 193e 2c7d bdbe 844c 24be 8216 c4be
00000140: a826 56bf 7446 9bbc 5422 213f 2550 76bf
00000150: 0a89 36bf ff8d 363e 91e4 a2bc b2a9 e43e
00000160: ed45 053f 7ce9 933f 262e 383f 8200 863f
00000170: fb40 e9be 776f 173e fa6e 9a3e f749 15bf
00000180: b352 35bf 39dc 9b3e e664 55bf d7f9 fc3e
00000190: da0d 083f ee9a 17bf 3ebe 73be 44a9 413f
000001a0: 0faa 803f 7427 1c3f 9a09 a83e 9000 6b3f
000001b0: 9a5b 06bd 4f85 e3bd aa40 9bbf 89dc c1be
000001c0: b455 343f 1b79 513f cdaf 593f 578a 8dbc
000001d0: 43b8 6fbf 1f61 0abf 0443 e73e fa67 883e
000001e0: 1a1b 4f3e b3a9 403f 4500 2cbf 0eec 703f
000001f0: 8837 90be a314 51bf 7ff0 0e3d e35f 2cbf
00000200: cf81 2ebf 3018 913e 6496 a13e e48b 163f
00000210: c05b 273f d5e9 4fbf e4e9 a13d ec9e 2b3f
00000220: f5d5 6a3f 946d 6bbd 2fb9 9a3e 1710 9bbe
00000230: 9e83 6dbe a449 173f 85ce e3be 1aad 5b3f
00000240: e36f d13e f9b9 7a3e 4422 33bf 115a 6d3f
00000250: fec8 01bf e1be 7a3f b1bc 2dbe e9cc 2e3f
00000260: ca4d 2cbe 1c7c 223f 4d6e 413f 459c 733e
00000270: babd 3dbf 2819 3b3f 42d6 cb3e 4e74 273f
00000280: 0e18 173d 049f e33c 12f5 453c 8f56 153e
00000290: 83d3 58bf 46b7 fabe 2b47 59bf 8cd9 6a3f
000002a0: feab 99bf f05f 0d3e 2aa1 0ebf 4527 8cbf
000002b0: 7436 e53e b2f6 1a3f 263e 053c ef23 343f
000002c0: 20d6 12bf 6def a13e 607d 903f 6a14 fc3d
000002d0: 1ce2 53be 9996 5ebf 971f 553e 469d 213f
000002e0: 9705 383c 2e96 f03d 3f84 b3bf 41a7 5e3f
000002f0: 3f27 31bf ba8d 0dbf 06eb f43c fbb6 8cbd
00000300: bf16 683f 4e97 84bd 424b ba3e a83e 673f
00000310: f9da c5be 947e 6fbf f7cb 803e c3cb 553f
00000320: 63b5 403f 118c 043e 4e39 55bf ada0 b23e
00000330: 98c9 c5be 6e0d 20be 034d 76bf 0cf0 273f
00000340: 4b0b 33bf 9c5b 023f 6481 f83e 5859 e63e
00000350: 8efa 4c3f 7327 b0be 9435 97be d784 45bf
00000360: 76af 39bf 9099 11bf 0cb2 63be 89a6 0b3f
00000370: beea 2b3f 5a5e 293c c2e0 1f3f 0432 1abf
00000380: a581 b53e 0319 003f 677a f9bd a106 4ebf
00000390: ce9d 773f 03d4 afbe d49a 7dbf 2310 703f
000003a0: dfe5 b4bd 62e1 40bf 5c8b 1fbf 9d73 853e
000003b0: ae9b d5bd f0a2 69bf af45 353f 9921 f5be
000003c0: 4ac5 ebbd 9608 d53e 48ac 02bf 0dfe 39bf
000003d0: 173b 913e 04f7 10bf a79b 963f 0d03 9bbe
000003e0: 0704 693f b4bb 693f 8dd2 063e 0ad4 24be
000003f0: de4a 80bf 0255 3ebe 6f51 05be 31cd bcbe

model/conv2d_19/Conv2D_bias f4 [32]
-1.1529924 -0.6423441 0.12680382 0.04709923 -0.30085608 0.54056513 0.3203165 0.9129902
0.04270536 1.0985025 0.5364077 -0.93456924 -0.024659012 -0.3696118 -0.42545426 0.14474727
-0.38223806 -0.6049574 -0.77518374 -0.8466725 0.3916607 0.2249955 -0.13294993 0.48783395
-0.5931091 0.0648192 -0.029686812 0.0940584 -0.2634567 0.7388296 0.09769621 0.041983776
00000000: 4195 93bf aa70 24bf dcd8 013e 1feb 403d
00000010: cf09 9abe 7a62 0a3f 8600 a43e bab9 693f
00000020: d1eb 2e3d bb9b 8c3f 0452 093f ee3f 6fbf
00000030: b201 cabc c23d bdbe 24d5 d9be a138 143e
00000040: b5b4 c3be 7dde 1abf 7172 46bf 87bf 58bf
00000050: c087 c83e 3865 663e 0724 08be 5fc5 f93e
00000060: ffd5 17bf eebf 843d c231 f3bc b1a1 c03d
00000070: cce3 86be f023 3d3f f314 c83d 2ef7 2b3d
