VOC2012/Model_V0_1.tflite (tflite, 3404 bytes, 6 tensors)

model/conv2d/Conv2D/ReadVariableOp f4 [5, 1, 1, 3]
0	0x3fda8d94	1.7074456
1	0x3fe1138b	1.7584089
2	0x3f513d54	0.81734204
3	0x3e4a586e	0.19760296
4	0x3eaf0a93	0.34187755
5	0x3fa17b02	1.2615664
6	0x3f7fca08	0.9991765
7	0x3ff9f411	1.9527608
8	0x3ebb4377	0.3657491
9	0x3f384073	0.7197334
10	0xbf1a69e8	-0.6031785
11	0x3f3b543f	0.73175424
12	0x40025080	2.0361633
13	0x400131b8	2.0186596
14	0x3fada561	1.3566095

model/conv2d/Conv2D_bias f4 [5]
0	0x3f9916f3	1.1960129
1	0x3f87083a	1.0549386
2	0x3f9be4f8	1.2179251
3	0xbda275d9	-0.07932634
4	0x3f9c8e6c	1.2230964

model/conv2d_1/Conv2D/ReadVariableOp f4 [21, 1, 1, 5]
0	0xbf942408	-1.1573496
1	0xbf92d23c	-1.1470408
2	0xbf84a01d	-1.0361363
3	0xbcf3a176	-0.029740077
4	0xbef0e935	-0.47052923
5	0xbf74c453	-0.95612067
6	0xbf7ba718	-0.9830184
7	0xbf92012c	-1.1406608
8	0xbe8ffd7a	-0.28123075
9	0xbf30c24d	-0.6904648
10	0xbf54488e	-0.8292321
11	0xbf933eca	-1.1503537
12	0xbf20a72f	-0.627551
13	0x3e862cbc	0.26206005
14	0xbf923be1	-1.1424524
15	0xbf74c95c	-0.9561975
16	0xbf5ab26b	-0.85428494
17	0xbf626c48	-0.88446474
18	0x3e45f94b	0.19333379
19	0xbf791ec5	-0.97312576
20	0xbf136e61	-0.575903
21	0xbf8368e2	-1.0266383
22	0xbf8c55ef	-1.0963725
23	0x3eab1a21	0.33418372
24	0xbf84d4da	-1.0377457
25	0xbf37fcd3	-0.71870154
26	0xbf948bcb	-1.1605161
27	0xbf3aba32	-0.7294036
28	0x3e8621d4	0.26197684
29	0xbf93452b	-1.1505483
30	0xbfa3a6b0	-1.2785244
31	0xbf6e4a46	-0.9308208
32	0xbf72cbf1	-0.9484244
33	0x3eaf61b7	0.34254238
34	0xbf17316c	-0.59059787
35	0xbf1d3371	-0.6140662
36	0xbf6627a8	-0.8990426
37	0xbf7e9bab	-0.9945628
38	0x3eb8c6f5	0.36089292
39	0xbf92e194	-1.1475091
40	0xbf56a370	-0.83843136
41	0xbf6dccb3	-0.9289047
42	0xbf228890	-0.6348963
43	0xbc6a503d	-0.014301357
44	0xbfa069bf	-1.2532271
45	0xbf8206bd	-1.0158306
46	0xbf2ad713	-0.6673443
47	0xbf9951c0	-1.1978073
48	0x3d1f546f	0.03889888
49	0xbf3efe42	-0.74606717
50	0xbf3d5dd8	-0.7397132
51	0xbfa3e30f	-1.2803668
52	0xbf122ad9	-0.5709663
53	0x3e244f0d	0.1604578
54	0xbf9b7e0c	-1.2147841
55	0xbfa81350	-1.3130894
56	0xbf32f88a	-0.6991049
57	0xbf845052	-1.0337012
58	0xbcb17f03	-0.02166701
59	0xbf1e2234	-0.6177094
60	0xbf4ef428	-0.808413
61	0xbf3f28e3	-0.74671763
62	0xbf6c0461	-0.9219418
63	0x3e822d6b	0.25425276
64	0xbf8f0f15	-1.1176478
65	0xbf7c7dbd	-0.9862936
66	0xbec456b7	-0.38347408
67	0xbf89b567	-1.0758485
68	0xbd0a62f8	-0.03378579
69	0xbf861308	-1.0474558
70	0xbf3012a2	-0.6877843
71	0xbf944332	-1.1583006
72	0xbf798693	-0.9747097
73	0xbe3271b4	-0.17426187
74	0xbf79f783	-0.976433
75	0xbf6f8c95	-0.93573886
76	0xbf0e7415	-0.5564588
77	0xbf6c3cbc	-0.92280173
78	0xbf0a8a4d	-0.5411728
79	0xbf8bca90	-1.0921192
80	0xbf190458	-0.59772253
81	0xbfa1af2e	-1.2631586
82	0xbf7026bc	-0.93809104
83	0x3ebb8f99	0.36632994
84	0xbf825ad5	-1.018397
85	0xbef06e52	-0.46959168
86	0xbf1343f6	-0.57525575
87	0xbfa45a70	-1.2840099
88	0xbdc32f5e	-0.09530519
89	0xbf9d9736	-1.2311771
90	0xbf271d53	-0.6527912
91	0xbf9bfddf	-1.218685
92	0xbfa4d275	-1.2876726
93	0xbea42ef1	-0.32067063
94	0xbf36dad1	-0.7142764
95	0xbf2fccea	-0.6867205
96	0xbf90342b	-1.126592
97	0xbfaa2f17	-1.3295621
98	0xbed8ec77	-0.42367908
99	0xbf30180d	-0.687867
100	0xbfc002b0	-1.500082
101	0xbf16bc04	-0.5888064
102	0xbf425902	-0.75917065
103	0xbe74352b	-0.23848407
104	0xbf3c8301	-0.73637396

model/conv2d_1/Conv2D_bias f4 [21]
0	0xbecea9fa	-0.40364057
1	0xbeddd8c0	-0.4332943
2	0xbedda0c0	-0.43286705
3	0xbf04fd3a	-0.51948893
4	0xbf08ab93	-0.533868
5	0xbee9799b	-0.4560059
6	0xbf0133c8	-0.50469637
7	0xbf03b4a1	-0.5144749
8	0xbf1194f7	-0.5686793
9	0xbef8f633	-0.48625335
10	0xbf0424ea	-0.51618826
11	0xbefa6a60	-0.48909283
12	0xbf06f159	-0.5271202
13	0xbedd09b5	-0.43171468
14	0xbee15fac	-0.44018304
15	0xbef3f8db	-0.476508
16	0xbf0629a0	-0.52407265
17	0xbf01d28b	-0.5071189
18	0xbecc0019	-0.39843825
19	0xbedd9855	-0.43280283
20	0xbf16131b	-0.586229

model/depthwise_conv2d/depthwise/ReadVariableOp f4 [1, 3, 3, 5]
0	0x3f6b85db	0.9200112
1	0x3f83c016	1.0292995
2	0x3fc7617f	1.5576628
3	0x3d0a9631	0.03383464
4	0x3f7db8de	0.9911021
5	0x3f590ccc	0.8478515
6	0x3f82b06b	1.0210088
7	0x3fb33cd5	1.400294
8	0x3e0a88e2	0.13528779
9	0x3f96f84e	1.1794527
10	0x3f8c51af	1.0962428
11	0x3f79fd86	0.9765247
12	0x3fac12d4	1.3443246
13	0xbd92494c	-0.071428865
14	0x3f79619f	0.9741458
15	0x3fa26586	1.2687232
16	0x3f9e949f	1.2389106
17	0x3f8d5324	1.1040998
18	0xbe8ae0ce	-0.27124637
19	0x3f464f21	0.7746449
20	0x3f9dc1d5	1.2324778
21	0x3fb9d685	1.4518591
22	0x3fa6427d	1.2989041
23	0x3dbf402d	0.093384124
24	0x3f834e7a	1.0258324
25	0x3f8baa5d	1.0911366
26	0x3f86c0af	1.0527552
27	0x3fa6b8d2	1.3025153
28	0xbe13f990	-0.1445067
29	0x3f42c6f5	0.76084834
30	0x3faff7ae	1.3747461
31	0x3fb1d431	1.3892881
32	0x3f873a96	1.0564754
33	0x3d92a33e	0.07160042
34	0x3fac3db2	1.3456328
35	0x3fa26dad	1.268972
36	0x3fab3f6a	1.3378727
37	0x3fa51a64	1.2898679
38	0xbeb2ca16	-0.34919804
39	0x3fa7587d	1.307388
40	0x3f565167	0.8371796
41	0x3fae497d	1.3616177
42	0x3f7708a8	0.96497583
43	0xbde547e3	-0.11195352
44	0x3f860eaf	1.0473231

model/depthwise_conv2d/depthwise_bias f4 [5]
0	0x3f74a871	0.9556952
1	0x3f5dd14d	0.8664749
2	0x3f7828b9	0.9693714
3	0xbdab4213	-0.08362212
4	0x3f74aaea	0.95573294
