VOC2012/Model_V0_1.tflite (tflite, 3120 bytes, 5 tensors)

model/conv2d/Conv2D/ReadVariableOp f4 [1, 1, 1, 3]
0.87682647 -0.8801529 0.2976741
00000000: b377 603f b351 61bf bd68 983e

model/conv2d_1/Conv2D/ReadVariableOp f4 [21, 1, 1, 2]
-2.4372427 1.3605592 0.8782302 1.7341249 0.20699395 1.338254 0.55585045 1.2226168
0.47419494 1.7216697 -0.17495993 1.3744183 0.6801963 1.7200179 0.62459606 1.7982981
0.6319912 -0.20740628 -0.05926258 0.675222 0.2673033 1.2337172 0.7836439 1.6205645
0.83727425 1.0411266 0.032259528 1.3489462 0.6734678 1.5283777 1.2654763 1.4322684
-0.14042501 1.4972277 0.48151922 1.3719137 -0.036114357 1.26137 -0.10664507 1.6521432
-0.59407336 1.2447033
00000000: c9fb 1bc0 ce26 ae3f b2d3 603f cef7 dd3f
00000010: 39f6 533e e84b ab3f 374c 0e3f b57e 9c3f
00000020: aec9 f23e ac5f dc3f b228 33be f0ec af3f
00000030: 5821 2e3f 8c29 dc3f 87e5 1f3f a22e e63f
00000040: 2dca 213f 5062 54be 52bd 72bd 59db 2c3f
00000050: fadb 883e 72ea 9d3f e39c 483f a86e cf3f
00000060: 9b57 563f a343 853f 9122 043d 45aa ac3f
00000070: 6368 2c3f e1a1 c33f 21fb a13f 9254 b73f
00000080: 93cb 0fbe 28a5 bf3f b089 f63e de9a af3f
00000090: a6ec 13bd 9274 a13f bb68 dabd 6e79 d33f
000000a0: 3115 18bf 7052 9f3f

model/conv2d_1/Conv2D_bias f4 [21]
3.3385773 -1.5569988 -1.1167251 -1.0543357 -1.3260131 -0.6485307 -1.4948411 -1.1064472
-0.8708251 -0.35904753 -1.2227852 -1.4746966 -1.1360662 -1.0252229 -1.4203273 -0.47041595
-0.72692794 -1.3999745 -0.7391535 -0.85401654 -0.43881524
00000000: 40ab 5540 bd4b c7bf d9f0 8ebf 79f4 86bf
00000010: ccba a9bf 1c06 26bf f456 bfbf 10a0 8dbf
00000020: 65ee 5ebf 14d5 b7be 3a84 9cbf dcc2 bcbf
00000030: 9e6a 91bf 813a 83bf 49cd b5bf 5cda f0be
00000040: f317 3abf 5d32 b3bf 2a39 3dbf d4a0 5abf
00000050: 64ac e0be

model/depthwise_conv2d/depthwise/ReadVariableOp f4 [1, 3, 3, 1]
0.5075957 0.33851618 0.78685534 0.20169821 -0.16638741 0.17038818 0.36677206 0.41863889
-0.028406851
00000000: cbf1 013f fe51 ad3e 5a6f 493f fa89 4e3e
00000010: 7661 2abe 3d7a 2e3e 8cc9 bb3e d657 d63e
00000020: 7cb5 e8bc

model/depthwise_conv2d_1/depthwise/ReadVariableOp f4 [1, 5, 5, 1]
1.4558855 1.2984374 0.99250954 -0.11888654 1.7374834 -0.0564615 0.70941997 1.294322
2.178851 0.013174782 1.605707 -0.42022318 -1.7342279 -1.9276788 0.47270423 -2.268139
-1.1678559 0.31914034 -2.8180785 0.8217965 -1.0133886 0.8684411 0.36502126 0.19926116
-0.3525658
00000000: 755a ba3f 3233 a63f 1b15 7e3f c97a f3bd
00000010: db65 de3f 2c44 67bd 8c9c 353f 58ac a53f
00000020: 4b72 0b40 0adb 573c cf87 cd3f 7e27 d7be
00000030: 2efb ddbf 2ebe f6bf 4a06 f23e 3029 11c0
00000040: 4d7c 95bf 5d66 a33e 665b 34c0 4161 523f
00000050: b8b6 81bf 2852 5e3f 11e4 ba3e 1e0b 4c3e
00000060: 8183 b4be
