VOC2012/Model_V0_1.tflite (tflite, 3404 bytes, 6 tensors)

model/conv2d/Conv2D/ReadVariableOp f4 [5, 1, 1, 3]
-0.8728495 -0.11327688 0.04403558 -0.93966216 -0.46306106 0.34415022 -0.8851211 0.16222242
0.2953539 -0.49197537 0.18900639 -0.43628246 -0.62487537 0.553018 -0.24873787
00000000: 1173 5fbf b5fd e7bd a75e 343d b38d 70bf
00000010: 5716 edbe 7534 b03e 4c97 62bf a21d 263e
00000020: a038 973e 32e4 fbbe e48a 413e 6a60 dfbe
00000030: d5f7 1fbf 9692 0d3f 24b5 7ebe

model/conv2d/Conv2D_bias f4 [5]
-0.033650678 -0.09668328 -0.14100884 0.0 -0.053892173
00000000: 4bd5 09bd e201 c6bd 9f64 10be 0000 0000
00000010: 0abe 5cbd

model/conv2d_1/Conv2D/ReadVariableOp f4 [21, 1, 1, 5]
-0.42738706 -0.11535705 0.048077967 -0.21515071 -0.31428063 0.45361307 -0.3041494 -0.35592693
0.033920288 -0.34170815 -0.045888055 -0.26336518 -0.12692331 0.10008967 -0.25885573 0.41264927
-0.2713177 -0.44586843 0.35504365 -0.163785 0.032680444 -0.5617779 -0.17905414 -0.29094678
0.23852034 -0.16277255 -0.68071765 0.02973441 0.27183986 0.37824708 -0.117137976 -0.074449986
-0.20406449 -0.23969208 -0.47630554 -0.3635461 -0.4037327 0.11694574 0.16445094 0.0522682
0.22770673 -0.31282222 -0.09175263 -0.28572443 -0.41672203 -0.13814092 -0.18926346 0.30862445
0.26606905 -0.36212423 0.048874106 -0.0045478186 -0.07549897 -0.25840187 -0.514751 -0.4888399
-0.039131004 -0.39588207 0.053340435 0.036233768 -0.14956573 -0.40515524 -0.17332172 0.398858
-0.4456421 0.008190168 -0.3564745 -0.7423312 -0.32600808 -0.5761529 0.17132834 -0.34058
0.06158815 0.022470951 -0.3330439 0.0648044 0.33682355 0.16423097 -0.46162495 0.33715856
-0.08588433 0.25490817 -0.2214698 0.33418673 -0.014599755 -0.22546615 -0.073628 0.07599737
-0.4618617 -0.5254088 -0.07040888 -0.41253462 -0.22095846 0.18001086 -0.46247333 0.058910336
0.36941102 0.36461702 -0.46344373 0.31680122 0.35430068 -0.5005917 -0.050557815 0.29522765
0.13901077
00000000: 7ad2 dabe 5140 ecbd 67ed 443d 7850 5cbe
00000010: 64e9 a0be f93f e83e 78b9 9bbe 0e3c b6be
00000020: 00f0 0a3d 5ff4 aebe 1df5 3bbd cdd7 86be
00000030: 2ff8 01be d0fb cc3d bd88 84be c446 d33e
00000040: 27ea 8abe de48 e4be 48c8 b53e 41b7 27be
00000050: eedb 053d add0 0fbf f859 37be faf6 94be
00000060: ad3e 743e d9ad 26be 8343 2ebf 9495 f33c
00000070: 982e 8b3e 9aa9 c13e 09e6 efbd 3c79 98bd
00000080: 48f6 50be d771 75be 52de f3be b722 babe
00000090: 0db6 cebe 4081 ef3d d465 283e 2e17 563d
000000a0: f42b 693e 3c2a a0be cee8 bbbd 794a 92be
000000b0: 975c d5be d074 0dbe 48ce 41be 0604 9e3e
000000c0: 343a 883e 5968 b9be 3730 483d de05 95bb
000000d0: 349f 9abd 404d 84be b9c6 03bf 3949 fabe
000000e0: d547 20bd 0eb1 cabe 807b 5a3d dc69 143d
000000f0: c227 19be 8270 cfbe 407b 31be 1e37 cc3e
00000100: 342b e4be 0e30 063c d383 b6be 6b09 3ebf
00000110: 88ea a6be c27e 13bf b270 2f3e 8060 aebe
00000120: db43 7c3d 0015 b83c bb84 aabe 2bb8 843d
00000130: 2374 ac3e 2a2c 283e 1b5a ecbe 0ca0 ac3e
00000140: 20e4 afbd 5383 823e fbc8 62be 861a ab3e
00000150: d033 6fbc 99e0 66be 47ca 96bd 82a4 9b3d
00000160: 2379 ecbe 3181 06bf 8832 90bd bd37 d3be
00000170: ef42 62be c454 383e 4ec9 ecbe f74b 713d
00000180: 7123 bd3e 15af ba3e 7f48 edbe c533 a23e
00000190: e666 b53e c726 00bf b615 4fbd 1428 973e
000001a0: d758 0e3e

model/conv2d_1/Conv2D_bias f4 [21]
-0.39427283 -1.7813941 -1.7937928 -1.7201461 -1.8014752 -1.6887755 -1.823399 -1.6893144
-1.7301652 -1.5874368 -1.817603 -1.7893368 -1.7242869 -1.8288919 -1.7903987 -1.1243342
-1.7321554 -1.8026763 -1.7829316 -1.7050987 -1.7762707
00000000: 21de c9be b904 e4bf 019b e5bf bf2d dcbf
00000010: bd96 e6bf cc29 d8bf 2365 e9bf 743b d8bf
00000020: 0e76 ddbf 2131 cbbf 37a7 e8bf fd08 e5bf
00000030: 6fb5 dcbf 2119 eabf c92b e5bf 2fea 8fbf
00000040: 45b7 ddbf 19be e6bf 1a37 e4bf ad40 dabf
00000050: d75c e3bf

model/depthwise_conv2d/depthwise/ReadVariableOp f4 [1, 3, 3, 5]
0.020708619 0.11782004 -0.29996487 0.1347475 -0.12974143 -0.3300446 -0.2511333 0.096689254
-0.25481448 0.10861619 -0.07516727 0.08092408 0.008730592 -0.023394912 0.12983584 -0.30291444
0.045474816 -0.111012384 -0.03698507 -0.18127976 0.23559316 -0.03242969 -0.0012613882 -0.00016713142
-0.023056453 -0.29644382 -0.27773905 -0.06473837 0.29169074 0.09518494 -0.07182494 -0.30229044
-0.10367313 0.0039567053 -0.10226163 -0.26282033 0.22107933 0.10961851 -0.18300526 -0.18377513
-0.17660253 -0.2118905 0.079305224 0.06513271 0.14888404
00000000: 1fa5 a93c a24b f13d ff94 99be 40fb 093e
00000010: f0da 04be 9bfb a8be 8b94 80be 0405 c63d
00000020: 0b77 82be 2a72 de3d 4cf1 99bd 86bb a53d
00000030: c20a 0f3c b0a6 bfbc b0f3 043e 9a17 9bbe
00000040: cd43 3a3d 765a e3bd a87d 17bd 67a1 39be
00000050: 553f 713e ffd4 04bd 2a55 a5ba 0040 2fb9
00000060: e3e0 bcbc 7cc7 97be d033 8ebe 8d95 84bd
00000070: 7d58 953e 52f0 c23d f418 93bd d0c5 9abe
00000080: 9452 d4bd 40a7 813b 8c6e d1bd 6390 86be
00000090: 9f62 623e ab7f e03d bb65 3bbe 8c2f 3cbe
000000a0: 4bd7 34be d3f9 58be c76a a23d 4c64 853d
000000b0: 0f75 183e

model/depthwise_conv2d/depthwise_bias f4 [5]
-0.03797576 -0.044650383 -0.19192432 0.0 -0.021367878
00000000: 788c 1bbd 52e3 36bd cf87 44be 0000 0000
00000010: b00b afbc
