VOC2012/Model_V0_1.tflite (tflite, 5368 bytes, 10 tensors)

model/batch_normalization_2/FusedBatchNormV3_add_param f4 [10]
0	0xbe8c4354	-0.27395117
1	0xbfa003b9	-1.2501136
2	0xbfb26a55	-1.39387
3	0xbf14bb42	-0.5809823
4	0xbe37f81a	-0.17965737
5	0xbf689c4a	-0.9086348
6	0xbe715014	-0.23565704
7	0xbe472c50	-0.19450498
8	0xbf0fb367	-0.5613312
9	0xbf8c3416	-1.0953395

model/batch_normalization_2/FusedBatchNormV3_mul_0_param f4 [10]
0	0x40038a35	2.0553105
1	0x3fffac02	1.9974368
2	0x401eee04	2.4832773
3	0x41f5ef85	30.741953
4	0x3fe0c153	1.7558998
5	0x3fda4660	1.7052727
6	0x3ffbfc9b	1.9686464
7	0x402bcdb8	2.684431
8	0x41ed53ab	29.665854
9	0x3fcd0cb6	1.6019504

model/conv2d/Conv2D/ReadVariableOp f4 [5, 1, 1, 3]
0	0x3f596f9a	0.84935915
1	0x3e982e95	0.2972304
2	0xbe0c97b4	-0.13729745
3	0x3db71aac	0.08940634
4	0x3f304d20	0.68867683
5	0x3f1de6ed	0.6168049
6	0xbdb36856	-0.08760135
7	0x3f84441f	1.0333289
8	0x3eae42af	0.3403525
9	0xbf0ba000	-0.54541016
10	0x3ef0b6b4	0.4701439
11	0xbea0103d	-0.3126239
12	0x3f01add4	0.50655866
13	0x3ed7cf3e	0.421503
14	0xbe1c64c7	-0.15272819

model/conv2d/Conv2D_bias f4 [5]
0	0x3987cb4d	0.00025900677
1	0xbe451849	-0.19247545
2	0x3e06383b	0.13107388
3	0xbd8d6314	-0.06903663
4	0xbdf80142	-0.12109615

model/conv2d_1/Conv2D/ReadVariableOp f4 [21, 1, 1, 10]
0	0x3e0bc1ba	0.1364812
1	0xbde32dc3	-0.11092713
2	0x3ea22255	0.31666818
3	0x3ebc4bcd	0.3677658
4	0xbe1191ce	-0.14215776
5	0xbdfeb64a	-0.12437113
6	0xbe6f3372	-0.23359469
7	0xbe2c5cc0	-0.16832256
8	0xbe4744e6	-0.19459876
9	0x3ea68d98	0.32529902
10	0xbf172526	-0.5904106
11	0x3e8a40cb	0.27002558
12	0xbd0a4944	-0.033761278
13	0x3f4b533f	0.794239
14	0xbe8b62a5	-0.27223697
15	0x3e301800	0.17196655
16	0xbd8f00b8	-0.06982559
17	0xbec1298a	-0.37727004
18	0x3f19fc5b	0.6015069
19	0x3ef83d4d	0.4848427
20	0xbe6c8d84	-0.23100859
21	0x3ebbd5d8	0.36686587
22	0x3ea12c36	0.31479043
23	0x3eed98a9	0.46405533
24	0xbd5a10ac	-0.053238556
25	0x3e818e30	0.25303793
26	0x3ddb5025	0.10708646
27	0xbe34adfa	-0.17644492
28	0x3f3b6059	0.7319389
29	0x3f237208	0.6384587
30	0x3cbb328e	0.022851255
31	0xbe442427	-0.19154416
32	0x3ef1b1cc	0.4720596
33	0x3eb53340	0.35390663
34	0xbe892420	-0.26785374
35	0x3e5d21ab	0.21594875
36	0xbed035ae	-0.40665954
37	0xbed223ff	-0.41043088
38	0x3f2c3312	0.6726543
39	0x3f07e215	0.5307935
40	0xbef5f808	-0.48040795
41	0x3e9ca827	0.3059704
42	0x3eb1492e	0.34626144
43	0x3f3efc2b	0.7460353
44	0xbe78c5e6	-0.24294242
45	0x3e6f88df	0.23392056
46	0xbefe9fec	-0.49731386
47	0xbf123691	-0.5711451
48	0x3e0c364f	0.13692592
49	0x3eb6d321	0.35707954
50	0xbf154a9f	-0.5831699
51	0x3f08c6e1	0.53428465
52	0x3eb68d7d	0.35654822
53	0x3f215c53	0.630315
54	0xbb82eeaf	-0.0039957385
55	0x3e66f559	0.2255453
56	0xbeba922d	-0.36439648
57	0xbe86e170	-0.2634387
58	0x3d84a674	0.06477061
59	0x3efaff98	0.49023128
60	0xbe3c42a9	-0.18384804
61	0x3d8cfef4	0.06884566
62	0x3eaa58fc	0.33271015
63	0x3ecfcd42	0.40586287
64	0xbdb110c5	-0.08645777
65	0x3a45ac98	0.0007540672
66	0xbee07046	-0.43835658
67	0xbea65532	-0.32486874
68	0x3ef9a537	0.4875886
69	0x3eafae19	0.34312513
70	0xbe21388c	-0.15744227
71	0x3e91303d	0.28357115
72	0x3ee07928	0.43842435
73	0x3eea6f7a	0.45788175
74	0xbdcac935	-0.099016584
75	0xbe0e9cf8	-0.13927066
76	0xbeb5c173	-0.35499153
77	0xbe9cbfbb	-0.3061503
78	0x3ef49612	0.47770745
79	0x3ee3f5e3	0.44523534
80	0xbef19284	-0.47182095
81	0x3ed69af7	0.41915104
82	0x3cfbe10b	0.030746957
83	0x3e967b52	0.2939096
84	0xbe4f3eec	-0.20238847
85	0xba39dc50	-0.0007090019
86	0xbed443de	-0.4145803
87	0xbf2b6ecb	-0.6696593
88	0x3e8f7a43	0.28022966
89	0x3ed92185	0.42408386
90	0xbec0ddc4	-0.37669194
91	0xbaebdfd1	-0.001799578
92	0x3d6d2ca3	0.057903897
93	0x3f59701b	0.84936684
94	0xbe84c8c7	-0.2593443
95	0xbd010f91	-0.031508986
96	0xbe7d373e	-0.24728104
97	0xbdeccfe5	-0.1156309
98	0x3f09f85c	0.5389459
99	0x3ece117d	0.40247717
100	0xbf0ef25a	-0.5583855
101	0x3eea0f73	0.45714912
102	0x3e319159	0.17340602
103	0x3f4e76ae	0.8064984
104	0xbe15f08c	-0.14642543
105	0x3ebd472b	0.3696836
106	0xbe2cca09	-0.16873945
107	0xbf03909e	-0.51392543
108	0x3e02ba9b	0.12766497
109	0x3eed2a9a	0.46321565
110	0xbbe8cb71	-0.00710433
111	0xbda31202	-0.07962419
112	0x3f0231ee	0.50857437
113	0x3e60e709	0.21963133
114	0xbe923da4	-0.28562653
115	0x3d1b81ae	0.03796547
116	0xbf3d90ce	-0.7404908
117	0xbf026a9d	-0.5094393
118	0x3e3b8618	0.18312871
119	0x3ec4caf7	0.384361
120	0xbf148e21	-0.5802937
121	0x3dc7d571	0.097575076
122	0xb9eb2b08	-0.00044854754
123	0x3f4e45fb	0.8057553
124	0xbe882594	-0.2659117
125	0x3edd7d4b	0.43259653
126	0x3dc212ec	0.09476265
127	0xbedccc79	-0.4312475
128	0x3f198d66	0.5998138
129	0x3e115ca6	0.14195499
130	0xbf24f4ca	-0.6443602
131	0x3ebf80dd	0.37403002
132	0xbcedc826	-0.029026102
133	0x3f21a9ca	0.631497
134	0xbe19578c	-0.14974803
135	0x3eccfeb0	0.4003806
136	0xbd812d2d	-0.06307445
137	0xbed21e86	-0.41038913
138	0x3f389226	0.72098005
139	0x3ef3b0d4	0.47595847
140	0xbeb3ef14	-0.3514334
141	0x3e3f4e56	0.18682227
142	0x3d43c701	0.047797207
143	0x3f21a536	0.63142717
144	0xbc434894	-0.011919159
145	0x3e2b0546	0.1670123
146	0xbdfedf9a	-0.12444992
147	0xbe2a8773	-0.16653232
148	0x3eeb7147	0.4598486
149	0x3f07110f	0.52760404
150	0xbed96cca	-0.42465812
151	0x3e59d519	0.21272697
152	0x3e0fad52	0.1403096
153	0x3f367c83	0.7128374
154	0x3e45a0ff	0.19299696
155	0xbe03e4cc	-0.12880248
156	0xbe5659d0	-0.20932698
157	0xbe4fa2ca	-0.20276943
158	0xbd731754	-0.05934842
159	0x3e03a163	0.12854533
160	0xbd6829f3	-0.05668063
161	0x3eabe528	0.3357327
162	0x3eecf390	0.46279573
163	0x3f530212	0.82425034
164	0xbcd95d4a	-0.026533742
165	0x3dc4481e	0.09584068
166	0xbeb853c4	-0.36001408
167	0xbf0eeff9	-0.5583492
168	0x3e86fc2e	0.26364273
169	0x3f070d5f	0.5275478
170	0xbe471556	-0.19441733
171	0x3e9d6453	0.30740604
172	0x3ea73d80	0.32664108
173	0x3ece85e3	0.40336522
174	0xbe68d73b	-0.22738354
175	0x3ec31f1c	0.38109672
176	0xbdf33316	-0.11874978
177	0xbf25a394	-0.64702725
178	0x3e78f6f9	0.24312963
179	0x3f144509	0.5791784
180	0xbb5ed354	-0.0034000473
181	0xbd7adae9	-0.061243925
182	0x3e40de08	0.18834698
183	0x3f62ca17	0.88589615
184	0xbe354766	-0.17703018
185	0x3e605da6	0.21910724
186	0xbe47a854	-0.19497806
187	0xbeae4b74	-0.3404194
188	0x3f2c4dd8	0.6730628
189	0x3ee2c34a	0.4428962
190	0xbe5e67b6	-0.2171925
191	0xbe0deb15	-0.13859208
192	0x3ed58475	0.4170262
193	0x3f3f9f3d	0.74852353
194	0xbd9da406	-0.076973006
195	0x3e85cc89	0.2613261
196	0xbf15c849	-0.58508736
197	0xbe767f26	-0.24071941
198	0x3f1c6faf	0.61107916
199	0x3ee90823	0.4551402
200	0xbf134d8b	-0.57540196
201	0x3dea12c7	0.11429363
202	0x3ec96e83	0.39342126
203	0x3edb943c	0.4288653
204	0xbea4b0d5	-0.32166162
205	0x3ed356f8	0.4127729
206	0xbeec468a	-0.46147567
207	0xbebcab70	-0.36849546
208	0x3f094241	0.5361672
209	0x3eb9b887	0.36273596

model/conv2d_1/Conv2D_bias f4 [21]
0	0x3d7b895c	0.061410293
1	0xbea4b7ed	-0.32171574
2	0xbebb7fbd	-0.36620894
3	0xbeaf6b5b	-0.34261593
4	0xbead54b1	-0.33853677
5	0xbea7dfc9	-0.32787922
6	0xbec863aa	-0.39138538
7	0xbeb2f8c2	-0.34955412
8	0xbeaeb29a	-0.34120637
9	0xbea291ba	-0.31751806
10	0xbeae8fe9	-0.3409417
11	0xbeca7136	-0.39539498
12	0xbea433b7	-0.32070705
13	0xbeb1d82d	-0.34735242
14	0xbec30077	-0.38086292
15	0xbe5448fd	-0.20730968
16	0xbea68a31	-0.32527307
17	0xbebd2e33	-0.3694931
18	0xbeb72aa9	-0.35774735
19	0xbeb3cc5b	-0.35116848
20	0xbea7d3a9	-0.3277867

model/depthwise_conv2d/depthwise/ReadVariableOp f4 [1, 3, 3, 5]
0	0xbf0705e8	-0.5274339
1	0xbe15c6b8	-0.14626586
2	0xbe2411d5	-0.16022427
3	0xc0a60f06	-5.189334
4	0xbecd94fc	-0.4015273
5	0xbe91842e	-0.28421158
6	0xbe01303a	-0.12616053
7	0x3ecf7877	0.40521595
8	0x4035ecd6	2.8425803
9	0x40275c43	2.6150062
10	0x3e6fad77	0.23406015
11	0x3db6fd0d	0.08934984
12	0x3df60928	0.12013465
13	0x3fff1a08	1.9929819
14	0x3f5ef0a1	0.8708592
15	0xbef2fc1c	-0.4745797
16	0xbf1cc8bf	-0.61243814
17	0x3cc1493b	0.02359449
18	0xc0d864e7	-6.762317
19	0xbfc50308	-1.539155
20	0xbe831362	-0.25600725
21	0xbce7a988	-0.028279081
22	0x3d6ba050	0.057525933
23	0xc0634e3b	-3.5516498
24	0x3f9755eb	1.1823095
25	0x3e8c2374	0.273708
26	0x3e80e00a	0.25170928
27	0xbec6198c	-0.38691366
28	0x401cc5c6	2.4495711
29	0xbf1cd18b	-0.6125724
30	0xbf01de54	-0.5072987
31	0xbeb0fbc5	-0.34567085
32	0x3eaee548	0.34159303
33	0xc08a0887	-4.313541
34	0xbf07ceb1	-0.5304976
35	0xbe8f76d6	-0.28020352
36	0xbedc5442	-0.43033034
37	0x3ec7d940	0.39032936
38	0xc0dbd54e	-6.869788
39	0x3f50cf21	0.81566054
40	0xbf23fede	-0.6406077
41	0xbeb34f98	-0.35021663
42	0x3e2679fe	0.16257474
43	0xc0e20309	-7.0628705
44	0x3e027af0	0.1274221

model/depthwise_conv2d/depthwise_bias f4 [5]
0	0x3f9fb8bc	1.2478251
1	0x3f8014e8	1.000638
2	0xbeaa37da	-0.33245736
3	0xbd14fe10	-0.036375105
4	0xbf1179aa	-0.5682627

model/depthwise_conv2d_1/depthwise/ReadVariableOp f4 [1, 3, 3, 5]
0	0xbe0ac703	-0.1355248
1	0x3f408041	0.751957
2	0xbf1320df	-0.5747203
3	0x404328d5	3.0493672
4	0xbe0894fe	-0.13338086
5	0x3e8a6547	0.27030393
6	0xbeea3847	-0.4574606
7	0xbeb8f422	-0.3612376
8	0xc0085ccf	-2.1306646
9	0x3e2319e3	0.15927844
10	0x3d578691	0.052618567
11	0x3f3d9841	0.74060446
12	0x3e150785	0.1455365
13	0xc0e6ea96	-7.216136
14	0xbd8f70dc	-0.07003948
15	0x3a99e401	0.0011740924
16	0xbf76266e	-0.9615239
17	0x3e8a0646	0.2695791
18	0x4052a80d	3.291507
19	0xbdf628f5	-0.12019531
20	0x3e38ffe8	0.1806637
21	0x3f221979	0.6332012
22	0xbebe0631	-0.371141
23	0xc0bed7a8	-5.963825
24	0xbe340251	-0.17579009
25	0x3d98313c	0.07431266
26	0xbf4858b2	-0.7826034
27	0xbf21ae7c	-0.6315687
28	0xc0c2c1a9	-6.08614
29	0x3ebfb7b4	0.37444842
30	0x3e614854	0.22000247
31	0x3ee00e92	0.43761116
32	0xbe69243f	-0.22767733
33	0xc0b05ed6	-5.5115767
34	0x3f179fb6	0.59228075
35	0x3d5b8ed4	0.05360301
36	0xbf5a23b2	-0.85210717
37	0xbe8f3133	-0.27967224
38	0xc0c7c6c0	-6.2430115
39	0x3f0ac247	0.54202694
40	0x3eefb8f0	0.46820784
41	0xbf836069	-1.0263797
42	0xbf2ac7b1	-0.66710955
43	0x402b7f9a	2.6796632
44	0x3f28b052	0.65894043

model/depthwise_conv2d_1/depthwise_bias f4 [5]
0	0xbe3c0222	-0.18360189
1	0x3f395ece	0.72410285
2	0x3f56f9a0	0.8397465
3	0xbdac2a50	-0.08406508
4	0xbec85dd4	-0.39134085
