VOC2012/Model_V0_1.tflite (tflite, 7524 bytes, 10 tensors)

model/conv2d/Conv2D/ReadVariableOp f4 [5, 1, 1, 3]
00000000: 6c4e eabe 0863 a9bd 36a7 983e 967c 0fbf
00000010: fe6d fabe 3847 38be ce3c 003f b2da 1fbf
00000020: 7eec c9be ed6c 973e 83df 58be 606b 2dbe
00000030: 5e29 39bf a886 573e e9ca 763d
-0.45762956 -0.08270842 0.29815072 -0.5604948 -0.48912042 -0.17995918 0.5009278 -0.6244308
-0.39438242 0.2957529 -0.21179013 -0.16935492 -0.72328746 0.21047461 0.060252104

model/conv2d/Conv2D_bias f4 [5]
00000000: be91 41bc 0000 0000 512a 48bc 0071 34bc
00000010: ef89 38bc
-0.011814533 0.0 -0.01221712 -0.011013269 -0.011263355

model/conv2d_1/Conv2D/ReadVariableOp f4 [21, 1, 1, 20]
00000000: 8b67 86c0 acfb 46c0 9900 55bf f673 e4be
00000010: d0e4 2140 c82d 05c0 1c2f 1440 f34e 38c0
00000020: 3052 e1bf e077 b1bf 85fb 55c0 a3c9 c43f
00000030: 0f61 2140 8767 0240 4794 72c0 71ad 933f
00000040: 48fe 3d40 6999 0c40 9e08 4440 aef5 0c40
00000050: 8e7c 3040 12d3 4c40 2dc9 623e c682 5240
00000060: bee1 233f 871e ddbf 0d47 36bf bbad c9bf
00000070: 5ad1 13bf c59b 58c0 9c37 52c0 1500 32c0
00000080: e28e b4bf 99d1 e53f 6dfb fc3f 20bb 283f
00000090: 7a8e bfbe 8180 1c40 87ad 1b40 3279 2e40
000000a0: 7abb 41bf 3e28 b83e ee80 a040 baf4 b0bf
000000b0: 6f90 b840 6168 9ec0 eda5 a8c0 a873 6140
000000c0: 3f7c a4c0 8405 dbc0 a460 47bf 94ea ae40
000000d0: 1dac 00bf bb0d 9c40 3f50 8c40 526a dec0
000000e0: dffc 8d40 57a3 a63f 1831 1540 969b 9ec0
000000f0: 7d71 71be 643d 8140 8e29 e03f 43c7 4840
00000100: 3dc1 16bf bb00 27c0 b1a5 06c0 d868 9f3f
00000110: 4a32 7d40 d63c f33f b323 8fc0 e124 52bf
00000120: 7a62 42c0 2940 86c0 e932 4dc0 d4d2 f83f
00000130: 7893 0cc0 3072 d83e 5f43 21be ef96 15c0
00000140: cb6f 6ac0 7c7b 6e40 3b95 3dbf 8528 5740
00000150: afb7 0e40 2134 51c0 cadc 44c0 eef6 8d40
00000160: 3f5b 0540 f6ba a1c0 ac13 49c0 3474 9e40
00000170: ab81 3b40 5e76 5e40 6c89 0f40 f596 1140
00000180: 9865 8fbf 5f16 bf3f 5b0e 88c0 3a84 8340
00000190: b1f5 c6bf e10e 3640 9b7f 46c0 ae01 51bf
000001a0: 30b9 39c0 645f 9abf a926 413e 0ee6 20c0
000001b0: 6286 1ac0 a839 27c0 f1d5 9e3e 7a90 71bf
000001c0: a99d 55bf abe8 0fc0 5d4e 8c3f f64f 2bc0
000001d0: 528a 29c0 d4f4 27c0 9563 cebd c368 0040
000001e0: 3b5c c93e b7af a9c0 2443 8640 327c debf
000001f0: c440 2b40 e4f7 bbbf 7398 b53e b8a8 d73f
00000200: 0bf5 1a40 f14b acc0 2456 49c0 8809 abbe
00000210: 838b 8c40 a4f7 09bf ded1 5740 9d73 6440
00000220: 6f10 3d40 a258 9dbf 16b9 81c0 887b c13f
00000230: 2aa7 8540 7683 8340 b7d6 9ebf 7657 25bf
00000240: ca06 8b3e b5cd b6bf 1ce5 f33f b321 86c0
00000250: 36ff e53f 7871 75bf d178 8540 76b8 71c0
00000260: 0c38 68c0 96bd a23f 8676 2ac0 e1c8 8840
00000270: 2ca5 96c0 87b7 d3bf 39b0 1cc0 6921 8bc0
00000280: a06d 8140 a060 3f40 63e6 93c0 3e83 2540
00000290: a8ce 22c0 724a 60c0 eb52 5640 3f01 6f40
000002a0: 39d2 7a3f dff8 80be 15e8 88c0 c14c 03c0
000002b0: 8ee4 aac0 e3ca 5b3f 6db0 7640 6ea3 543f
000002c0: 782c 6cbf b4e6 03c0 8067 4640 4065 7d40
000002d0: 4b83 e23f 9465 643f 71a7 fcbf 2886 cb3f
000002e0: 0de2 72c0 bb79 06c0 ddda b83f 47ef 8940
000002f0: f2d7 9abf c426 8c3f 0c18 3ec0 72a3 b33f
00000300: bda7 6240 24ae d53e 989a 19c0 0949 f0bf
00000310: b4c1 fabf 9714 36c0 d150 6740 9da6 8e3f
00000320: 2ed2 adbf bae8 9b40 a3c3 6cc0 9b7e 1b40
00000330: 0604 27bf 156f a6c0 a2cb 073f e9bf 68c0
00000340: 4cc0 f93f e7f1 a6c0 905e 07c0 772f 773f
00000350: a232 a6c0 8e95 13bf baf1 f4bf 1ad8 8540
00000360: f229 7740 1fd3 6f3f 3442 3240 e362 84c0
00000370: 280d 60be 7258 b840 0df7 31bf 95f4 96c0
00000380: 171e 9f3f c937 be40 8eaa 7d40 daac 5a40
00000390: f5cd 9840 2886 1f40 2ca4 f8be b096 b4c0
000003a0: 1963 3d40 a485 e2bf b3e0 c5c0 8ef8 5b40
000003b0: c147 42c0 4e47 94bf 9b23 7640 ee74 0a3f
000003c0: eaaf 773f 6f7e 05c0 5e03 183f 346c 9ebf
000003d0: c953 85bf 8c20 0540 1700 0ec0 8847 953f
000003e0: 1a8e 2d40 3005 c73f 7ad0 35c0 5d53 f53f
000003f0: 8a02 0bc0 ba3f e4bf 4f02 3bc0 734e 1d40
-4.2001395 -3.1091108 -0.83204037 -0.4461972 2.5295906 -2.0809193 2.3153753 -2.8798187
-1.7603207 -1.3864708 -3.3434765 1.5374035 2.521549 2.0375688 -3.7903001 1.1537305
2.968645 2.1968634 3.063026 2.202495 2.7576022 3.2003827 0.22147055 3.2892318
0.6401633 -1.7274941 -0.71202165 -1.5756143 -0.5774132 -3.3845074 -3.2846441 -2.781255
-1.4106104 1.7954589 1.9764229 0.6591053 -0.37413388 2.4453433 2.4324663 2.7261472
-0.7567669 0.35968202 5.0157385 -1.3824685 5.767631 -4.9502416 -5.2702546 3.522684
-5.1401668 -6.8444233 -0.77881837 5.466135 -0.50262624 4.876676 4.3847957 -6.9504786
4.437118 1.3018597 2.3311214 -4.9564924 -0.23578449 4.038744 1.7512681 3.137162
-0.5888861 -2.6094196 -2.103863 1.2453871 3.9561944 1.9002941 -4.473108 -0.8208752
-3.0372605 -4.195332 -3.2062323 1.943934 -2.1965008 0.42274618 -0.15748356 -2.3373373
-3.6630733 3.726287 -0.7405583 3.361848 2.2299612 -3.2688067 -3.075976 4.436393
2.0836942 -5.0540724 -3.1418257 4.951685 2.9297893 3.4759746 2.2427626 2.2748387
-1.1202879 1.4928702 -4.2517524 4.109891 -1.5543729 2.8446581 -3.1015384 -0.8164319
-2.901928 -1.2060361 0.18862404 -2.5140414 -2.414452 -2.612894 0.310226 -0.9436108
-0.83443695 -2.248576 1.0961415 -2.6767554 -2.6490674 -2.6243181 -0.100775875 2.0063941
0.3932818 -5.3026996 4.195696 -1.7381651 2.675828 -1.4685025 0.35467872 1.6848364
2.4212062 -5.38427 -3.1458826 -0.3340571 4.3920302 -0.53893495 3.3721843 3.5695565
2.954128 -1.2292674 -4.0538435 1.5115824 4.176656 4.1097975 -1.2409276 -0.6458658
0.27153617 -1.4281527 1.9054294 -4.1916137 1.7968509 -0.95876265 4.170998 -3.7768836
-3.6284208 1.2714107 -2.663484 4.2745214 -4.7076626 -1.6540383 -2.4482558 -4.3478284
4.044632 2.9902725 -4.6218734 2.5861354 -2.5438633 -3.5045438 3.348811 3.734451
0.97977024 -0.25189874 -4.2783303 -2.0515597 -5.3403997 0.85856456 3.8545182 0.83061874
-0.92255354 -2.060956 3.1000671 3.9593048 1.7696317 0.89217496 -1.9738599 1.5900316
-3.795047 -2.1011798 1.4441792 4.3104587 -1.2097151 1.094933 -2.9702177 1.4034255
3.541488 0.4173442 -2.4000607 -1.8772289 -1.9590364 -2.8450067 3.6143076 1.1144596
-1.3579767 4.872159 -3.6994407 2.4296024 -0.65240514 -5.20106 0.53045094 -3.6367133
1.9511809 -5.217029 -2.1151466 0.965568 -5.193681 -0.5765008 -1.9136269 4.1826296
3.8619351 0.9368152 2.7852907 -4.137071 -0.21880019 5.7607965 -0.69517595 -4.717356
1.2431058 5.9443097 3.9635348 3.4168 4.7751412 2.4925632 -0.48562753 -5.6433945
2.9591734 -1.7697034 -6.183679 3.4370456 -3.0356295 -1.158426 3.8459232 0.5408467
0.967528 -2.085842 0.5938014 -1.2376771 -1.0416194 2.0801115 -2.2187555 1.1662455
2.7117982 1.5548458 -2.8408494 1.9166065 -2.17203 -1.7831948 -2.922016 2.4579132

model/conv2d_1/Conv2D_bias f4 [21]
00000000: e493 c4bc c30c 74bd eb64 82bd e90d 143e
00000010: a7d6 f2be 7667 103f 3db9 18be d209 153e
00000020: 718f 06bd 0615 2abe deef 5f3e 0039 0fbf
00000030: a00e 1abe d59a 19be b8a4 90be f724 a93c
00000040: 41da a73e 7edb 8d3e 3752 92be 7fe9 90be
00000050: 280b c03e
-0.023996301 -0.059582483 -0.06366905 0.14458431 -0.47429392 0.5640787 -0.14914413 0.14554527
-0.03285164 -0.16609582 0.21868846 -0.5594635 -0.15044641 -0.1500047 -0.2825067 0.020647509
0.32783702 0.27706522 -0.2857835 -0.28303143 0.37508512

model/depthwise_conv2d/depthwise/ReadVariableOp f4 [1, 3, 3, 5]
00000000: 7279 d640 3228 9ac0 cd4b bc40 2db5 ed40
00000010: c528 0541 937d fa40 fdc9 0440 e22f 0cc0
00000020: 521c a7c0 c755 d640 016b 5fc0 7ee2 0440
00000030: 652c 01c1 5c86 e83f a5e7 2141 6360 95bf
00000040: 787c 17c0 0436 01c1 eb29 0ac1 d726 ba3e
00000050: 8785 9540 ae16 e5c0 7ac5 ff40 3664 f340
00000060: 8135 bcbf 5ae8 13c1 fd4c 24c1 cdb1 41c0
00000070: d962 b73f cd82 3140 cfa1 a6c0 3537 1941
00000080: 4907 403e 6e17 f2bf 53e0 b4be 3d56 c9c0
00000090: 8f38 0141 bf4b 2ec0 ad3a e8bf c970 b73f
000000a0: 11a7 3ec0 4a5f 1d40 9508 b1c0 362c 7b40
000000b0: 29b6 1241
6.702325 -4.8174067 5.884253 7.428366 8.3224535 7.827829 2.0748284 -2.1904225
-5.222207 6.697971 -3.490906 2.076324 -8.0733385 1.8166003 10.119054 -1.167004
-2.366972 -8.075687 -8.635234 0.36357757 4.6725497 -7.1590185 7.992856 7.605983
-1.4703828 -9.244226 -10.268796 -3.026477 1.4327041 2.7736084 -5.207252 9.575978
0.18752779 -1.89134 -0.35327396 -6.291777 8.076308 -2.7233732 -1.8142906 1.4331294
-2.978947 2.458941 -5.5322976 3.9245734 9.169473

model/depthwise_conv2d/depthwise_bias f4 [5]
00000000: 40c1 3cbb 0000 0000 f4b0 663d b87e 2dbd
00000010: 0077 323b
-0.002880171 0.0 0.0563211 -0.042357177 0.0027231574

model/depthwise_conv2d_1/depthwise/ReadVariableOp f4 [1, 5, 5, 5]
00000000: 6b85 a1bf e582 ab3f f3ac 1140 c3b5 37c0
00000010: ee4d bd40 8f2d 31bf ec78 9040 2d9f d9bf
00000020: 8577 613f 79fb 85bf 9af0 efbf 14b9 3e40
00000030: 7804 cd3f 1a1b 3fc0 bdfc 4b40 10b7 9a40
00000040: ac1f 11c0 f3a0 9ec0 8cf2 1cc0 57fe 0440
00000050: 675c a740 8ccf bf40 51cf 6fbf 4799 4ac0
00000060: 65f6 5740 72fe a63f 41bb b140 a4ed e33f
00000070: 1d32 ba40 680e b7c0 ab93 4ac0 bb73 ea3f
00000080: 79ea 4340 2908 cbbf 4207 8140 3c3f 76c0
00000090: 5167 1ec0 9eb5 abc0 5971 a4be 78ae cac0
000000a0: bb83 7a40 50e7 53c0 537b dd3f 9861 be40
000000b0: 2bb8 9ec0 2ccc 9640 8bc9 8240 cda6 a7bf
000000c0: 9299 55bf b09b 8abf 60d6 1740 6a81 f53f
000000d0: d317 8cc0 b25e 953f f88b 4940 43d0 943e
000000e0: 99a2 143f f2c7 47c0 1970 eabf 417c ccc0
000000f0: 89cf fa3f 7995 b83f 6383 0c40 678a b940
00000100: c047 26bf b175 473d 38e8 0840 7b8d 8ac0
00000110: cfcb a5c0 f443 b140 6494 6d40 4a57 3dc0
00000120: aae7 b13f 404e 5cc0 13a4 30bf 0033 2fc0
00000130: 9730 8bc0 a469 3cc0 ebe1 2740 4e02 1740
00000140: 832e a840 f3ff 9640 d08c 3dc0 7f57 bcc0
00000150: 4aa1 b740 3917 bfc0 112b 5740 62cb 7040
00000160: a910 c9bf 711a 9740 bc82 b1c0 daad 24c0
00000170: 77ac c9bf 9c9c df3f ff94 a13f 39fc 0ebe
00000180: 283f 1bbe a258 ca40 4673 8140 5c43 3ac0
00000190: d51c a040 9dc2 b240 643c b0c0 3934 abc0
000001a0: 0e9f adbf e46b 8240 6789 c840 28d1 753f
000001b0: 331d 9ac0 978b 60c0 fedb 05c0 a4ed 9340
000001c0: ab81 c53f ae60 953f 9414 6ec0 46fa 303f
000001d0: 8cd3 87c0 aee4 6940 9a51 bfbf ad5e 38c0
000001e0: e48d 0f3f f4ff 82bc 4714 3a3f 735a a640
000001f0: e826 bfbe
-1.2618841 1.3399321 2.276181 -2.8704689 5.915763 -0.6921014 4.514761 -1.7001702
0.88073 -1.0467368 -1.8745301 2.9800463 1.6016989 -2.9860291 3.187301 4.8348465
-2.267558 -4.957147 -2.452304 2.0780237 5.2300296 5.9940853 -0.93675715 -3.1656053
3.3744137 1.30464 5.554108 1.7806897 5.8186173 -5.7205086 -3.165263 1.8316568
3.061186 -1.5861865 4.032136 -3.8476095 -2.475056 -5.36592 -0.32117727 -6.3337975
3.9142902 -3.3109932 1.730326 5.9494133 -4.9599814 4.7124233 4.0871024 -1.3097779
-0.83437455 -1.0828762 2.3724594 1.9180119 -4.377908 1.1669524 3.149168 0.2906514
0.58060604 -3.1215787 -1.831546 -6.3901677 1.9594585 1.4420615 2.1955192 5.798145
-0.6495323 0.048696224 2.1391735 -4.3297706 -5.181129 5.539545 3.712182 -2.9584527
1.3898823 -3.442276 -0.6900036 -2.7374878 -4.3496814 -2.9439478 2.623164 2.3595157
5.2556777 4.718744 -2.9617195 -5.8856807 5.7384386 -5.971585 3.3620036 3.7624135
-1.5708209 4.7219777 -5.547209 -2.573111 -1.5755757 1.7469668 1.2623595 -0.13963403
-0.15160811 6.3233194 4.0453215 -2.9103613 5.0035195 5.5862565 -5.507372 -5.350125
-1.3564165 4.0756702 6.2667727 0.9602227 -4.8160644 -3.50852 -2.0915523 4.622759
1.5430197 1.1670129 -3.720006 0.69131887 -4.2445736 3.6545825 -1.4946778 -2.8807786
0.5607588 -0.015991189 0.7268719 5.198541 -0.3733437

model/depthwise_conv2d_1/depthwise_bias f4 [5]
00000000: 4e50 f0bc 0000 0000 e74e c53c 5f9b 6a3d
00000010: 945f 0b3c
-0.029335167 0.0 0.024085475 0.05727708 0.008506674

model/depthwise_conv2d_2/depthwise/ReadVariableOp f4 [1, 7, 7, 5]
00000000: aa21 2340 e7f7 65c0 dd67 3ac0 875d 0a3f
00000010: d468 673d dd26 b7be 5c7f b4be ddf2 393f
00000020: b65a eabe 0353 0640 4099 e1be 4280 5d40
00000030: 73db 563f c02d 3a40 b3ac bd3f e041 d83f
00000040: a5d2 71be 43a8 4cc0 732b 85c0 7c7a ac3e
00000050: e4e1 213f ad28 da3f 3dd6 5b40 b2cf 20bf
00000060: 1603 be3f 68b3 6840 f3a8 b4bf b79b 6040
00000070: 6e87 68c0 ad5f abbe 1723 45c0 74d8 73c0
00000080: e680 ba3f 69d0 93c0 5732 0c40 d274 74c0
00000090: 8fa1 f3be 651a 2140 c19d b33f 76ef a53f
000000a0: ada2 1940 40ca a7bf 3749 1640 8e9c 5d40
000000b0: 2ea9 6740 565f 1abf 1611 06bf 4d89 4540
000000c0: 3b21 3540 2e9e 91be d725 55c0 7aac 6040
000000d0: 5c91 fbbf 1f79 4140 8282 373f 361e 643f
000000e0: a5f6 76c0 b36b 39c0 35cd d93e 1c6d 35be
000000f0: 3059 6e40 bc1d 26c0 5213 1c40 7172 703f
00000100: 5bff 57c0 a6d5 8b3e db92 ddbd fc85 113f
00000110: 43f4 88c0 5a03 ea3f 2295 e8bf 3b1f 6840
00000120: 97ba 5d40 a963 b73e 8f98 b2bf a627 01c0
00000130: f147 2a40 84c6 7840 3c54 8ac0 030e 10c0
00000140: 4b7a aa3f 49ad 6840 8e89 3940 5373 4a40
00000150: d85e 32c0 d3a0 14bf c5af 8140 7f98 2940
00000160: c47e b0bf 24aa 39c0 cf85 51bf 8150 68c0
00000170: 04a6 3b40 217c 573f af4f 4cc0 e58b 96c0
00000180: e2d0 9fbf e4fc 7140 5765 553f de99 e4bf
00000190: e179 1cc0 4531 2f40 b747 65c0 8842 f1bf
000001a0: 1781 7540 9bf3 9ebf d36a b8be 887b 8e3f
000001b0: 3b0d 0640 fa96 8f3e 422f 8dc0 084a 10c0
000001c0: 264e cdbf d09d fe3a b01a bb3e 3a91 35c0
000001d0: 9c8d 3340 402b afbe ed5e 8ebe 65fb f0bf
000001e0: 860e 783e f231 55bf 9dc4 bc3e 7359 a63f
000001f0: e17b 3cc0 31c2 12c0 4985 debf f133 a93f
00000200: abbd 113f 159f 28c0 a3a5 64c0 0b36 8040
00000210: 1a7e 45c0 de67 4b40 e8c8 cdbf 14ea a33f
00000220: 2bd9 00c0 c41b 57c0 db26 7d3f 7044 3bc0
00000230: 97d5 3a3e 0db0 9a3f 7558 6fbe 14bd 55c0
00000240: a61b 6640 bf1a 47c0 4b27 b73f 4ab7 8ac0
00000250: cd80 c53e 4b5a 84c0 2418 3840 9c60 523f
00000260: a4f6 48bd c5d5 4040 34e1 71c0 3e46 0d40
00000270: 42c3 6640 69be 4540 8784 3a40 dcf0 3a3c
00000280: 70d1 8bc0 7007 d0bf a2d1 9d3a 5a0e fe3f
00000290: de91 2340 a415 74c0 0cf3 3240 852c b9bf
000002a0: 2661 edbe c7d1 8ac0 3541 4abf 849c 4cbf
000002b0: 6891 15c0 8051 3e40 effc 69c0 dc97 91c0
000002c0: 1887 51c0 2740 b23f 4452 193f ce61 6e40
000002d0: 5258 a5be bae9 203e fa8b 43c0 74d9 64c0
000002e0: 6b9f 3b40 e724 79c0 4f7f 9040 7f17 11bf
000002f0: cf81 c3bf bdd7 3ec0 50f2 13c0 82c0 f0bf
00000300: a478 903e ed0e a8be 7d8b 32c0 2ef8 40bf
00000310: 486c 2b40 0041 82c0 1329 8dc0 1e14 5c3f
00000320: 13a4 b83f 5b4b 2d3f 62cd 11c0 fa6c 543f
00000330: 5490 00bc 050e fb3f 006b 453f e878 f7bf
00000340: 40be c0bd f267 c5bf 69f9 0cc0 5e2d 6abf
00000350: 8232 72bf ed14 eebe e676 8ac0 03a7 8340
00000360: 6a5c 1140 c9fa a0bf 0ab1 dfbf 6a80 0140
00000370: 81ef e13f d241 7c40 ed79 84bf 92c2 f33f
00000380: d5a1 693f b043 8440 a732 52c0 808b 35bf
00000390: 82f3 bfbe bfc2 7b3e 5c7c 8640 612d 8ec0
000003a0: 4314 1a3f 0f51 c7bf 083b f73f d011 4c40
000003b0: 181e 5e40 2942 7bbf 4c0a 1f40 ee08 5e40
000003c0: 2c77 05bf 90cc 09be 0759 0440 aaa9 81c0
000003d0: 75de 7a3f
2.5489297 -3.5932558 -2.9125893 0.5404896 0.056496456 -0.35771838 -0.35253417 0.72636205
-0.45772332 2.0988166 -0.44062233 3.4609532 0.839286 2.9090424 1.4818329 1.6895103
-0.23615511 -3.1977699 -4.161554 0.33687198 0.63235307 1.7043663 3.434951 -0.6281692
1.4844692 3.63595 -1.4114059 3.509504 -3.633266 -0.33471432 -3.0802667 -3.8100863
1.4570587 -4.6191907 2.1905725 -3.8196301 -0.47584197 2.517236 1.4032518 1.2963703
2.400554 -1.3108597 2.3482187 3.4626803 3.619701 -0.6030172 -0.5236982 3.0865052
2.8301532 -0.28440994 -3.3304346 3.5105271 -1.9653735 3.0230176 0.71683514 0.891086
-3.858804 -2.8971984 0.42539373 -0.17717403 3.7241936 -2.5955648 2.4386792 0.93924624
-3.3749607 0.27311438 -0.10819026 0.5684507 -4.279817 1.8282273 -1.8170512 3.6269062
3.4645135 0.35818222 -1.3952807 -2.018045 2.660641 3.8871164 -4.3227825 -2.2508552
1.3318571 3.6355765 2.8990207 3.1632888 -2.7870388 -0.580579 4.0527062 2.6499326
-1.3788686 -2.9010096 -0.818448 -3.6299136 2.9320078 0.8417378 -3.1923635 -4.704577
-1.2485621 3.7810602 0.8335776 -1.7859457 -2.444939 2.7373822 -3.5825021 -1.8848429
3.836004 -1.2418092 -0.36019 1.1131449 2.0945575 0.28044873 -4.412019 -2.2545185
-1.6039474 0.0019425694 0.36543798 -2.836989 2.8055182 -0.34212685 -0.27806798 -1.882672
0.2422429 -0.83279335 0.36868754 1.2996048 -2.945061 -2.2931025 -1.7384425 1.3218976
0.56930035 -2.6347096 -3.5726097 4.006597 -3.0858216 3.1782146 -1.6076937 1.280581
-2.013255 -3.3610697 0.98887414 -2.926052 0.1824554 1.2084976 -0.23373587 -3.3396654
3.5954375 -3.1110075 1.4308866 -4.334874 0.3857483 -4.136022 2.8764734 0.82178664
-0.04906334 3.0130475 -3.7793703 2.2074122 3.6056676 3.0897467 2.9143388 0.011409964
-4.369316 -1.625227 0.0012040625 1.984813 2.555778 -3.8138208 2.7960844 -1.4466711
-0.4636318 -4.3381076 -0.7900575 -0.79926324 -2.337 2.9737244 -3.6560628 -4.5497875
-3.2738705 1.3925828 0.5989115 3.7247195 -0.32293946 0.1571416 -3.0554185 -3.5757723
2.931605 -3.8928773 4.5155406 -0.5667648 -1.527399 -2.9819176 -2.3116646 -1.8808749
0.28217041 -0.32823887 -2.7897637 -0.7537869 2.678484 -4.0704346 -4.411264 0.85968196
1.4425071 0.6769311 -2.2781606 0.82978785 -0.0078469105 1.9613653 0.77116394 -1.9333773
-0.09411287 -1.5422347 -2.2027228 -0.91475475 -0.9460832 -0.4650034 -4.327014 4.114137
2.2712655 -1.2576534 -1.7475903 2.0234628 1.7651216 3.9415174 -1.0349709 1.9043753
0.9126256 4.1332626 -3.2843416 -0.70915985 -0.3749047 0.24586008 4.2026806 -4.4430394
0.60187167 -1.5571612 1.931489 3.1885872 3.4705868 -0.9814783 2.4850035 3.469295
-0.52134967 -0.1345694 2.0679338 -4.051961 0.9799569

model/depthwise_conv2d_2/depthwise_bias f4 [5]
00000000: 6881 063d 0000 0000 de7a 1dbd 7070 04bc
00000010: 29d6 a03b
0.032838255 0.0 -0.038447253 -0.008083448 0.0049083424
