VOC2012/Model_V0_1.tflite (tflite, 858832 bytes, 224 tensors)

model/conv2d/Conv2D/ReadVariableOp f4 [8, 1, 1, 3]
0.59709495 -0.21847145 0.14946862 -0.696125 0.28874132 -0.5868384 0.4930653 -0.09342079
0.20974305 0.71659714 0.09985245 -0.6097209 0.26351172 -4.0374536e-05 -0.2599508 0.12446567
-0.037583455 0.20541754 -0.3201861 -0.70581794 -0.5706256 -0.31622538 0.25579506 -0.08260497
00000000: 37db 183f fbb6 5fbe 4d0e 193e 3f35 32bf
00000010: e7d5 933e 0b3b 16bf 0e73 fc3e 6653 bfbd
00000020: e2c6 563e e972 373f 717f cc3d ab16 1cbf
00000030: 02eb 863e d457 29b8 4518 85be dbe7 fe3d
00000040: 1cf1 19bd fa58 523e 6fef a3be 7cb0 34bf
00000050: 8514 12bf 4be8 a1be 92f7 823e cb2c a9bd

model/conv2d/Conv2D_bias f4 [8]
-0.003044032 -0.0042709247 -0.0068129865 0.011143807 0.011925438 0.01444736 0.0008723688 -0.005094595
00000000: 627e 47bb 1df3 8bbb 793f dfbb 8494 363c
00000010: ea62 433c 9fb4 6c3c aeaf 643a 8ff0 a6bb

model/conv2d_1/Conv2D/ReadVariableOp f4 [16, 1, 1, 8]
-1.1200775 -0.42346084 -0.82209575 1.1956927 0.2501236 0.10866334 -1.1108024 0.073696055
1.5572655 -0.98820364 -0.45874703 -0.66745824 -0.38267717 1.7005172 1.4690942 -0.053094137
-1.112555 -0.40769127 1.4465958 -0.004242684 0.35148644 -1.0129466 -0.23777808 -0.5877687
0.7401585 -1.4640541 -1.6066796 0.1715236 1.0842392 0.8297751 1.4463768 1.3244921
1.2616961 0.31737998 -1.312995 -1.1425632 -0.12580965 -0.37131825 -0.5884394 -0.1548008
0.9905654 2.5732026 -0.103089176 -0.118932486 0.009406683 0.8842113 -2.942483 -3.0036542
1.1506435 -0.7042031 -0.38938618 0.5213185 0.7685847 -1.1421812 0.9756835 -1.0959297
-0.8131829 0.08541886 -0.23636426 -0.10891639 0.08053847 0.23184702 0.83627087 0.50028586
0.3281518 -0.26152542 0.80687594 0.019120619 -1.4985058 -1.1740977 -0.3625344 0.95192015
-0.58218294 0.78927356 -0.008922612 -0.080976896 -1.5699409 0.54939854 0.72643167 -1.5011917
0.4405018 1.1912253 1.7257246 -0.17075768 -1.8171201 0.6336622 -0.20288879 0.10256203
1.3255045 0.09000612 -0.84174603 1.7999038 -1.1093215 -0.49579185 0.6101936 0.2368231
0.23691915 -1.3794769 0.33033696 -0.12883456 1.4629471 1.569465 -0.62341 -1.5932362
0.80016494 1.155528 -0.9866049 -0.80642 0.2641767 -0.27121398 0.50292444 0.9253923
-0.8148376 -0.23794805 -1.255214 1.4163818 -0.28865126 -0.3331178 -0.49488857 -1.4459319
-1.5162766 0.071956076 1.2761335 -0.39386216 0.2636185 -1.3094832 -1.1184171 0.06477955
00000000: b35e 8fbf dccf d8be de74 52bf 750c 993f
00000010: 3310 803e e38a de3d c62e 8ebf f5ed 963d
00000020: 7a54 c73f eafa 7cbf e4e0 eabe 8bde 2abf
00000030: 43ee c3be 8caa d93f 470b bc3f 3d79 59bd
00000040: 3468 8ebf e9bc d0be 0d2a b93f 3706 8bbb
00000050: 08f6 b33e 3ca8 81bf 197c 73be 0278 16bf
00000060: 077b 3d3f 2066 bbbf ada7 cdbf e2a3 2f3e
00000070: 5ac8 8a3f 246c 543f e022 b93f f588 a93f
00000080: 427f a13f a17f a23e 3810 a8bf 833f 92bf
00000090: 3fd4 00be 6d1d bebe f7a3 16bf 1a84 1ebe
000000a0: b295 7d3f 5aaf 2440 6b20 d3bd e092 f3bd
000000b0: 7d1e 1a3c ac5b 623f a451 3cc0 df3b 40c0
000000c0: 4948 933f a846 34bf a05d c7be 2175 053f
000000d0: f8c1 443f fe32 92bf 65c6 793f 6d47 8cbf
000000e0: c12c 50bf 15f0 ae3d 7909 72be 8e0f dfbd
000000f0: 5af1 a43d 4e69 6d3e d915 563f bc12 003f
00000100: 8303 a83e a9e6 85be 6c8f 4e3f d8a2 9c3c
00000110: 0acf bfbf d548 96bf 1c9e b9be 0ab1 733f
00000120: f109 15bf d50d 4a3f 2630 12bc 37d7 a5bd
00000130: d3f3 c8bf 62a5 0c3f 6df7 393f 0d27 c0bf
00000140: 7489 e13e 127a 983f 8be4 dc3f 1adb 2ebe
00000150: 6497 e8bf b037 223f 14c2 4fbe 0b0c d23d
00000160: 22aa a93f 2155 b83d ab7c 57bf 3f63 e63f
00000170: 3ffe 8dbf 6ed8 fdbe a635 1c3f c181 723e
00000180: ef9a 723e b392 b0bf ed21 a93e 35ed 03be
00000190: da41 bb3f 3be4 c83f cc97 1fbf 2aef cbbf
000001a0: 9cd7 4c3f 57e8 933f 2492 7cbf 8b71 4ebf
000001b0: 2b42 873e 8fdc 8abe a8bf 003f 83e6 6c3f
000001c0: 3299 50bf a7a8 73be daaa a0bf 004c b53f
000001d0: 19ca 93be 6b8e aabe 0962 fdbe 4c14 b9bf
000001e0: 5a15 c2bf b55d 933d 5858 a33f 4da8 c9be
000001f0: 01f9 863e 259d a7bf 4b28 8fbf 24ab 843d

model/conv2d_1/Conv2D_bias f4 [16]
0.99226123 -1.0697126 0.70199627 -0.4614202 0.40192413 0.06670627 -0.036483087 -0.14991172
0.24945202 -0.16743086 -1.1093904 -0.7119801 0.295037 -0.6522512 1.0896267 1.1432686
00000000: d504 7e3f 58ec 88bf 07b6 333f 453f ecbe
00000010: 00c9 cd3e 4c9d 883d 4a6f 15bd 7582 19be
00000020: 5a70 7f3e ff72 2bbe 8100 8ebf 5444 36bf
00000030: 170f 973e eff9 26bf e378 8b3f a056 923f

model/conv2d_10/Conv2D/ReadVariableOp f4 [32, 1, 1, 8]
-0.16222811 0.9158892 0.36063343 -0.074580096 0.91745144 -0.17762248 0.08558119 0.95791006
0.08220993 -0.6083196 0.5012258 0.7517591 0.077109255 -0.5983865 0.67868537 0.7512141
0.6356099 -0.48191673 0.54982114 0.5357813 -0.38976085 -0.6775858 0.6096692 -0.7280232
-0.0027360877 -0.54472893 -0.6777628 0.35722512 -1.2618612 -0.50608027 0.4429595 -0.05996076
-0.7339679 -1.0157807 -0.64946973 0.2945052 0.29728717 0.29687247 -0.71756464 0.026400326
-0.028235352 0.02122922 -0.6815903 -0.7712449 0.46319178 0.24497417 1.0556318 0.71480274
-0.645093 0.33974084 0.54788196 0.62151444 -0.74122834 0.5281821 0.54850894 0.21094109
-0.12381648 0.7664568 0.92538226 -0.89048713 0.60004663 -0.2898385 -0.25646195 -0.043315414
0.10704513 0.74587935 -0.4081097 0.7249164 0.3702083 0.6568949 -0.1403472 0.4453557
0.5048552 -0.037416574 -0.18339893 -0.98336285 -0.7990373 -0.31774104 -0.38966218 -0.30162156
0.2517874 -0.21314208 0.1255654 -0.77656835 -0.66385216 0.41112667 0.14553082 -0.8113651
-0.8952765 -0.71154356 0.8767982 0.6058554 0.36537462 0.035855733 0.20155893 0.39080372
0.60421765 0.38411626 0.05502888 0.4602444 -0.40291303 -0.6188397 -0.9494936 -0.86806446
0.4768688 0.45045233 -0.5895051 0.7102198 0.25831842 -0.63539904 0.71559227 0.1638801
-0.20038223 -0.6991357 -0.0815913 -0.767918 0.6368595 0.20589042 0.89198774 -0.70254683
0.19373943 -0.6274677 -0.45234847 -0.270267 -0.3197432 0.69028133 -0.7677678 -0.8824403
-0.43537986 0.19604655 -0.44312415 -0.7952689 -0.44615704 0.44097885 0.8769548 0.5135666
0.90090317 -0.29122058 -0.3832172 -0.9711858 -0.36691493 -0.09849223 0.8563801 0.28186452
-0.60111773 0.57525235 0.94953895 0.68837196 0.13836913 0.09179192 -0.7298587 0.34661138
0.18300007 -0.32990864 -0.14074834 0.12511212 0.6340536 0.717223 0.70803434 0.83186036
-0.7995039 -0.40993986 0.6933557 0.7192444 -0.6763747 0.3959665 -0.6648565 -0.07604435
-0.070842825 0.33230808 1.1213938 0.06628518 0.20473884 -0.26203316 -1.1738598 0.08858849
0.77802134 -0.011409161 0.3785095 0.50867784 0.68541914 -0.5732907 -0.6834901 0.30540422
0.10467239 -0.55901 -0.39246705 0.8868475 0.63882345 -0.24751745 -0.64298373 -0.88554823
-0.2384374 0.46825984 0.72798413 -0.7190169 0.914758 0.3852554 -0.18982333 0.90593034
-0.14166497 0.4443229 0.7837119 0.8534049 0.20436679 0.73109853 0.4261496 0.11185837
-0.70771766 0.46819967 0.40401644 0.5540968 -0.63967973 0.26570207 0.18220162 0.7643232
0.61888415 -0.5311751 -0.59098715 0.551361 -0.84597915 -0.19491291 0.71144795 -0.55881
0.33405328 0.2559531 -1.2965479 0.44503835 -0.42061368 0.16986106 -1.1894436 -0.11048895
0.10725509 0.34246826 0.030545784 0.32959542 0.22586077 0.26064247 -1.4112812 -0.86534965
0.6901784 -0.5461769 0.001451505 -0.565227 0.5383429 0.7576001 -0.73333937 0.5885071
0.6150357 0.68252647 -0.1347409 -0.91803265 -0.7315497 -0.03769059 -1.0203693 0.36354792
00000000: 201f 26be b777 6a3f f2a4 b83e 73bd 98bd
00000010: 19de 6a3f abe2 35be 3145 af3d 9839 753f
00000020: ae5d a83d d5ba 1bbf 5650 003f 4973 403f
00000030: 75eb 9d3d dc2f 19bf 53be 2d3f 914f 403f
00000040: 55b7 223f cabd f6be 14c1 0c3f f728 093f
00000050: bc8e c7be 4376 2dbf 4813 1c3f ba5f 3abf
00000060: ef4f 33bb 5b73 0bbf dd81 2dbf 36e6 b63e
00000070: ab84 a1bf 7a8e 01bf 96cb e23e 6a99 75bd
00000080: 52e5 3bbf 1a05 82bf a643 26bf 63c9 963e
00000090: 0636 983e abff 973e 51b2 37bf 7f45 d83c
000000a0: d34d e7bc e7e8 ad3c b47c 2ebf 4e70 45bf
000000b0: 7927 ed3e 82da 7a3e f11e 873f 50fd 363f
000000c0: d124 25bf 83f2 ad3e fe41 0c3f 921b 1f3f
000000d0: 24c1 3dbf f136 073f 156b 0c3f f100 583e
000000e0: 7f93 fdbd 8336 443f dae5 6c3f f7f6 63bf
000000f0: a89c 193f b665 94be fb4e 83be 816b 31bd
00000100: 7a3a db3d f3f1 3e3f c1f3 d0be 1f94 393f
00000110: f18b bd3e 442a 283f 2db7 0fbe aa05 e43e
00000120: 313e 013f 1f42 19bd eecc 3bbe abbd 7bbf
00000130: b58d 4cbf f4ae a2be cd81 c7be 246e 9abe
00000140: 47ea 803e eb41 5abe 3794 003e 2fcd 46bf
00000150: 37f2 29bf 327f d23e 0806 153e a0b5 4fbf
00000160: d730 65bf b827 36bf d975 603f 5719 1b3f
00000170: 6212 bb3e 76dd 123d 7765 4e3e 6d17 c83e
00000180: 02ae 1a3f e3aa c43e f665 613d 27a5 eb3e
00000190: 9e4a cebe 476c 1ebf 0312 73bf 7939 5ebf
000001a0: 2628 f43e b0a1 e63e cee9 16bf f7d0 353f
000001b0: 5042 843e 83a9 22bf 0e31 373f 2fd0 273e
000001c0: 0031 4dbe 8ffa 32bf 5719 a7bd 4696 44bf
000001d0: 3909 233f f0d4 523e 4f59 643f 1cda 33bf
000001e0: a163 463e b9a1 20bf 389a e7be 7060 8abe
000001f0: 61b5 a3be 47b6 303f 6e8c 44bf 9ce7 61bf
00000200: 1cea debe 6dc0 483e 2be1 e2be be96 4bbf
00000210: b26e e4be fbc7 e13e 1c80 603f 1a79 033f
00000220: 97a1 663f dd1a 95be 0b35 c4be a29f 78bf
00000230: 46dc bbbe 4bb6 c9bd ba3b 5b3f 8c50 903e
00000240: dae2 19bf bd43 133f fc14 733f 2539 303f
00000250: a3b0 0d3e 67fd bb3d 05d8 3abf 0c77 b13e
00000260: 5f64 3b3e c9e9 a8be 5520 10be 641d 003e
00000270: 5651 223f ed9b 373f bd41 353f cdf4 543f
00000280: 4aac 4cbf a3e3 d1be c27f 313f 6720 383f
00000290: e426 2dbf 1fbc ca3e 0934 2abf 24bd 9bbd
000002a0: 0b16 91bd 4924 aa3e d589 8f3f 86c0 873d
000002b0: 0fa7 513e 3629 86be 0a41 96bf e26d b53d
000002c0: 682c 473f 7ded 3abc ffcb c13e b638 023f
000002d0: a177 2f3f 2ec3 12bf 35f9 2ebf f15d 9c3e
000002e0: 7a5e d63d 481b 0fbf 71f1 c8be 7008 633f
000002f0: ef89 233f 3775 7dbe 959a 24bf 4ab3 62bf
00000300: ef28 74be c1bf ef3e 2b5d 3a3f 7e11 38bf
00000310: 952d 6a3f 3240 c53e 0c61 42be 0deb 673f
00000320: 9f10 11be 4b7e e33e 58a1 483f be78 5a3f
00000330: 8745 513e 4629 3b3f 4830 da3e 0016 e53d
00000340: fc2c 35bf deb7 ef3e 3edb ce3e 4ad9 0d3f
00000350: 0dc2 23bf 1a0a 883e 1093 3a3e afaa 433f
00000360: 316f 1e3f 17fb 07bf ef4a 17bf ff25 0d3f
00000370: 1792 58bf 4097 47be 7421 363f 2c0e 0fbf
00000380: 0809 ab3e 490c 833e 48f5 a5bf 11dc e33e
00000390: ad5a d7be 0ff0 2d3e b03f 98bf 0848 e2bd
000003a0: 8ea8 db3d 0058 af3e 273b fa3c bbc0 a83e
000003b0: 0c48 673e ee72 853e dda4 b4bf 8e87 5dbf
000003c0: 88af 303f 40d2 0bbf 6d40 be3a b7b2 10bf
000003d0: d7d0 093f 15f2 413f 21bc 3bbf 67a8 163f
000003e0: fb72 1d3f 0eba 2e3f 85f9 09be 3004 6bbf
000003f0: d746 3bbf 7361 1abd 769b 82bf f422 ba3e

model/conv2d_10/Conv2D_bias f4 [32]
-1.0921127 -0.6482178 -0.028468238 0.8716774 0.8377875 -0.37531376 -0.49487787 -0.28609565
-0.93217933 0.9312669 0.6030649 -0.333346 0.4763373 -0.59056735 0.2869362 0.94766253
0.048502475 0.012580782 -0.564557 -1.0164936 0.3183814 -0.13502987 -0.5635489 0.40240288
-0.8770051 -1.2640467 -0.46027538 0.33084396 0.6997715 0.3655768 -0.27755132 0.43542197
00000000: 59ca 8bbf 9af1 25bf 3936 e9bc 4026 5f3f
00000010: 3e79 563f 2029 c0be a260 fdbe 217b 92be
00000020: 4ea3 6ebf 8267 6e3f 7662 1a3f 54ac aabe
00000030: 7ce2 f33e 6c2f 17bf 4de9 923e 039a 723f
00000040: 88aa 463d a01f 4e3c cf86 10bf 761c 82bf
00000050: e302 a33e 4545 0abe be44 10bf c007 ce3e
00000060: 6883 60bf 48cc a1bf 37a9 ebbe 6164 a93e
00000070: 3a24 333f e22c bb3e 351b 8ebe a1ef de3e

model/conv2d_11/Conv2D/ReadVariableOp f4 [32, 1, 1, 48]
-0.0039876592 0.24443525 -0.37382478 -0.25102 -0.17913225 0.02529459 0.2145819 -0.00094393257
-0.01950162 -0.1377587 0.003446164 -0.015547647 -0.22225565 0.04803865 -0.035870824 -0.32770228
-0.3109298 -0.37517053 0.10242665 0.092712566 -0.07124094 -0.25932625 -0.18503112 0.10915507
0.15670486 -0.35998142 0.30731475 0.2520608 0.37362126 0.067609824 0.18842494 0.2775872
-0.03682564 0.03747666 0.19891582 0.27582672 -0.040876232 -0.28608382 -0.17044792 -0.056430828
-0.03222943 -0.117843494 0.2154936 -0.23943809 -0.014038189 -0.36778 -0.2496134 -0.19156346
-0.13744506 0.28337696 0.1324609 0.058332663 -0.13474922 -0.14592548 0.28401902 0.026662882
0.14878316 -0.19476525 -0.10333937 -0.1626113 0.09486477 0.26392865 0.081324756 -0.23663184
-0.27972445 0.006412348 0.14667629 -0.30911905 -0.12116339 -0.19658704 0.022671076 -0.19757661
-0.063682936 -0.21328862 -0.1589336 -0.17002451 -0.32807624 0.08479455 0.113383144 -0.26002598
-0.31393966 -0.085332625 0.2023247 -0.108480625 -0.31853595 -0.14023547 -0.18489589 0.21741347
0.20550472 -0.24468872 -0.12719789 0.31189147 0.19608556 -0.10155344 -0.0718494 -0.1884894
0.27314484 -0.33925492 0.27610108 0.26344147 0.2939575 0.018225996 -0.2538397 0.2462166
-0.054010164 0.033035822 0.17227969 -0.070165135 -0.056904204 0.28416348 -0.008924207 0.06630961
0.34956735 0.32628936 0.07472651 -0.13958843 -0.15372309 -0.007713493 0.25969258 -0.20169212
-0.30721527 -0.08277009 0.19075757 -0.117739275 0.34796968 0.1909708 -0.20714918 0.30028296
0.061188195 -0.101151705 -0.31095123 -0.057558656 -0.33098644 -0.3474187 -0.30485147 -0.29985163
0.14487417 0.022326913 -0.08331885 -0.18449175 0.15086533 0.17101444 0.2034541 -0.31172237
0.16625176 0.22207482 0.1315319 0.062322956 0.23327382 0.23689866 -0.002710266 0.0788973
-0.16973515 0.06616874 0.18625234 0.17825027 -0.017538942 0.07402246 -0.037745096 -0.096071355
-0.06314831 0.04159146 -0.058541566 -0.013634153 0.12106037 0.23961651 -0.11082121 0.20832433
0.12063208 0.20134556 0.19461155 0.2115729 0.027864123 -0.012469663 -0.17201842 -0.23118563
-0.1853536 -0.18939745 0.14754184 0.012203566 -0.013907848 -0.05137761 -0.12768203 0.086572014
-0.24483511 0.10822859 0.05416762 -0.048105307 0.116584726 0.12772073 0.15910715 -0.0076728784
-0.093076676 -0.22509281 -0.0136272395 -0.1626926 -0.08904582 -0.13518584 -0.01574676 -0.23002823
-0.10113284 0.070933774 -0.0019045813 0.21481058 0.21045035 -0.2130506 0.04680561 0.143684
0.21753848 -0.1800139 -0.038722895 -0.083313614 0.18847026 -0.0034755652 -0.018615121 -0.028368065
-0.15838921 -0.1687207 -0.15911002 0.21544111 0.15292017 -0.14504696 -0.19271874 -0.24066788
-0.17195271 0.09517624 0.040581327 -0.24588458 -0.05647227 0.17806388 0.19709483 -0.19109866
-0.15740345 -0.21131179 0.21222986 -0.14214763 -0.14015533 0.0041772183 -0.006200414 -0.115102015
-0.15916187 -0.14588395 -0.16940981 -0.1573307 -0.16768196 0.040060725 -0.012277362 0.20384361
-0.38256574 0.22454177 -0.31186628 -0.103031166 0.0069085844 -0.3775844 0.1259405 0.09292023
00000000: e9aa 82bb 3c4d 7a3e f665 bfbe b285 80be
00000010: 726e 37be 9a36 cf3c 5cbb 5b3e 3e72 77ba
00000020: ddc1 9fbc 9e10 0dbe 0ad9 613b 8fbb 7ebc
00000030: fc96 63be 2dc4 443d 49ed 12bd 98c8 a7be
00000040: 3132 9fbe 5a16 c0be 10c5 d13d 16e0 bd3d
00000050: c5e6 91bd 69c6 84be cc78 3dbe b18c df3d
00000060: 3d77 203e 7c4f b8be 5c58 9d3e 1d0e 813e
00000070: 494b bf3e 0577 8a3d 78f2 403e e91f 8e3e
00000080: 7bd6 16bd 2081 193d 97b0 4b3e 2939 8d3e
00000090: d66d 27bd 9479 92be e689 2ebe 0324 67bd
000000a0: 0203 04bd ee57 f1bd 5baa 5c3e 422f 75be
000000b0: 6f00 66bc a94d bcbe a89a 7fbe 3629 44be
000000c0: 66be 0cbe c916 913e d5a3 073e 3bee 6e3d
000000d0: b3fb 09be 7d6d 15be f16a 913e 1e6c da3c
000000e0: 9d5a 183e 8b70 47be 97a3 d3bd 9483 26be
000000f0: 7648 c23d a821 873e 988d a63d 9e4f 72be
00000100: 0b38 8fbe ac1e d23b 4f32 163e da44 9ebe
00000110: 8324 f8bd 1d4e 49be b1b8 b93c 8651 4abe
00000120: 336c 82bd 5568 5abe 7dbf 22be e81a 2ebe
00000130: 9cf9 a7be c4a8 ad3d 6c35 e83d 2022 85be
00000140: b3bc a0be dfc2 aebd 352e 4f3e 172b debd
00000150: 2517 a3be e399 0fbe 5955 3dbe a3a1 5e3e
00000160: d46f 523e ae8f 7abe 2a40 02be 3db0 9f3e
00000170: a7ca 483e 40fb cfbd c725 93bd 5e03 41be
00000180: a4d9 8b3e d2b2 adbe 1f5d 8d3e cde1 863e
00000190: 9981 963e af4e 953c 47f7 81be 3420 7c3e
000001a0: c339 5dbd 9250 073d 166a 303e bdb2 8fbd
000001b0: 6214 69bd e07d 913e d636 12bc 55cd 873d
000001c0: 7efa b23e 660f a73e 360a 993d 45f0 0ebe
000001d0: 9669 1dbe 78c1 fcbb 6df6 843e 6188 4ebe
000001e0: 524b 9dbe 5d83 a9bd f455 433e 4a21 f1bd
000001f0: 1529 b23e d98d 433e ea1e 54be b0be 993e
00000200: 79a0 7a3d a028 cfbd 0035 9fbe a0c2 6bbd
00000210: 0e77 a9be dde0 b1be 7e15 9cbe 2786 99be
00000220: e559 143e eee6 b63c 13a3 aabd 68eb 3cbe
00000230: 717c 1a3e 691e 2f3e 4656 503e 139a 9fbe
00000240: e73d 2a3e 9567 633e 4cb0 063e 5b46 7f3d
00000250: 55df 6e3e 9095 723e b89e 31bb e894 a13d
00000260: 0dcf 2dbe 7a83 873d efb8 3e3e 3d87 363e
00000270: d4ad 8fbc 1699 973d 9a9a 1abd 0fc1 c4bd
00000280: e753 81bd cf5b 2a3d 48c9 6fbd c861 5fbc
00000290: 80ee f73d 085e 753e 3bf6 e2bd f952 553e
000002a0: f40d f73d 882d 4e3e 4048 473e 91a6 583e
000002b0: 4d43 e43c 8f4d 4cbc 9925 30be edbb 6cbe
000002c0: 56cd 3dbe 68f1 41be 3515 173e 77f1 473c
000002d0: bedd 63bc 5471 52bd 14bf 02be ab4c b13d
000002e0: 0eb6 7abe f3a6 dd3d dede 5d3d 120a 45bd
000002f0: f9c3 ee3d 39c9 023e fcec 223e c56c fbbb
00000300: fc9e bebd bb7e 66be c944 5fbc e498 26be
00000310: a85d b6bd 286e 0abe 59ff 80bc 858c 6bbe
00000320: bc1e cfbd ba45 913d 25a3 f9ba 4ef7 5b3e
00000330: 4c80 573e f029 5abe 3db7 3f3d e621 133e
00000340: 68c2 5e3e 9055 38be e69b 1ebd 54a0 aabd
00000350: 59fe 403e 4fc6 63bb bd7e 98bc 2564 e8bc
00000360: c830 22be 1fc5 2cbe bded 22be 989c 5c3e
00000370: 1b97 1c3e 3187 14be 1058 45be a471 76be
00000380: 5f14 30be c3eb c23d 9b38 263d 2bc9 7bbe
00000390: 784f 67bd 6156 363e 3ad3 493e 5eaf 43be
000003a0: 5f2e 21be 1e62 58be c952 593e 268f 11be
000003b0: e184 0fbe 0ce1 883b d82c cbbb 9bba ebbd
000003c0: 54fb 22be 9a62 15be c479 2dbe 4d1b 21be
000003d0: d2b4 2bbe b716 243d fd26 49bc 61bc 503e
000003e0: a8df c3be 47ee 653e f0ac 9fbe 0102 d3bd
000003f0: 6861 e23b be52 c1be 8cf6 003e f64c be3d

model/conv2d_11/Conv2D_bias f4 [32]
1.4916583 2.001776 -0.28343114 -1.7308778 1.7000185 -0.7329643 -1.7013384 0.841943
-0.20720606 0.77269226 0.5979257 -0.7186894 1.7263116 0.46561047 -1.2668695 -0.8258906
1.4006636 -0.05533146 0.7294718 0.03124671 1.3667231 -0.9628422 0.3987986 1.4345133
-1.6890445 -1.3975611 -1.4997827 -0.12492685 0.1483523 1.1459516 -0.22967188 0.9134593
00000000: a9ee be3f 191d 0040 e31d 91be 678d ddbf
00000010: 359a d93f 8ca3 3bbf 75c5 d9bf 9489 573f
00000020: d32d 54be 29cf 453f a911 193f 07fc 37bf
00000030: c7f7 dc3f 7f64 ee3e c828 a2bf 916d 53bf
00000040: f248 b33f 3ea3 62bd aabe 3a3f 1af9 ff3c
00000050: c8f0 ae3f d47c 76bf 552f cc3e 229e b73f
00000060: 9c32 d8bf 48e3 b2bf e1f8 bfbf a6d9 ffbd
00000070: aae9 173e 8bae 923f 1b2f 6bbe 78d8 693f

model/conv2d_12/Conv2D/ReadVariableOp f4 [8, 1, 1, 32]
-0.38951007 -0.19828899 0.0037033956 0.12663026 -0.37682265 -0.36787763 -0.3243564 -0.16117537
-0.033588145 -0.13231625 0.19624694 -0.07918514 0.32812524 -0.23219906 -0.074536495 -0.28050923
0.25447047 -0.2687618 0.30659854 0.32210633 0.04555778 -0.07332748 0.22761004 0.35910174
0.0037415272 0.2746498 -0.29655623 0.26289415 -0.19661905 -0.1880312 -0.1566515 -0.33489105
0.14457062 0.19597083 -0.17137735 -0.081769526 -0.0070199757 0.11271031 -0.2517254 0.049311925
-0.1677902 -0.37173137 0.10607812 -0.10395029 -0.37484133 -0.26365632 -0.3015514 0.29369974
-0.07300025 -0.07473031 -0.22485939 -0.07640378 0.004054946 0.24155432 0.11910218 -0.033064514
0.08161704 0.038745098 -0.034786966 -0.30881378 0.33260158 -0.21977364 -0.37767813 0.26669866
0.052850533 0.14185657 0.18121864 0.17002453 -0.24868292 0.32945716 0.30458936 0.20516284
-0.008426858 0.02233272 -0.204995 -0.041136205 -0.13503587 -0.23028523 -0.3806837 -0.37358868
-0.17620745 -0.0699768 0.055764716 0.35210848 -0.28102678 0.31676397 0.06831842 -0.3145307
-0.05449487 -0.20042406 0.3427595 -0.21533695 0.047162503 0.10284453 0.15166703 -0.031208051
-0.3000683 0.34595537 0.39444885 0.3792474 -0.09402138 -0.24766007 0.07779908 -0.24912558
0.37179536 -0.29715952 -0.368995 -0.36997038 -0.056497697 -0.22021456 0.24888803 -0.275662
-0.16465068 0.13420478 -0.19322585 -0.19386022 0.03337787 -0.3622229 -0.0027637584 -0.10419897
-0.10388273 0.32469597 0.3808706 0.38291088 -0.2588554 0.16816688 0.34843865 0.121111594
-0.4015202 0.06734393 -0.042276617 0.19963227 0.1100312 0.19698383 -0.22441506 -0.14497101
-0.30134645 -0.15666084 0.11862544 -0.28342122 -0.36082712 -0.17767905 -0.37204823 0.06012901
0.10413284 -0.16583689 0.20494524 -0.3536345 -0.19347113 0.33109105 -0.38697788 -0.25250652
0.3575066 0.25170606 -0.20185341 0.14111368 0.32709113 -0.17305811 -0.25697863 0.015539868
0.2933416 0.034863092 -0.21535116 0.07578571 -0.21959858 0.27505603 0.110412136 -0.07198659
0.030168625 0.34685802 -0.29435548 0.04591369 -0.07750744 0.18699948 -0.3557569 -0.31257132
0.2925398 0.026969697 0.056805138 -0.37249723 0.100037046 0.22566856 0.015223065 0.029301343
0.086515985 0.29251188 -0.3643396 -0.13798027 -0.25404355 -0.097854055 -0.04060975 -0.28479618
-0.15931775 -0.07519764 -0.12894396 -0.31074494 0.32678127 0.3282154 -0.30136994 -0.35475945
-0.13238387 -0.19658767 -0.08602536 -0.32703435 -0.17726228 -0.19825417 0.16768211 -0.13135664
-0.002245236 0.26442125 0.025861792 -0.3690022 -0.38381255 0.2163737 -0.29706347 -0.11410007
-0.31500223 0.32219058 0.28883216 -0.20742457 0.17819814 0.16256353 0.29671657 -0.23703243
-0.07705806 0.15401098 -0.23433352 0.107816316 0.23590471 0.045773614 -0.13531044 -0.19786717
0.100485384 -0.18620965 -0.31856552 0.28677595 0.25933284 -0.3351706 -0.30513054 -0.19485034
0.2574163 -0.14299342 -0.30574387 -0.093017235 0.0387261 0.3683682 0.20397112 -0.21128651
-0.36088812 -0.047931306 0.067631245 -0.30830866 0.10275338 -0.08812885 0.24908172 -0.32854688
00000000: dd6d c7be 450c 4bbe abb4 723b 5dab 013e
00000010: e6ee c0be 755a bcbe 0b12 a6be 280b 25be
00000020: b993 09bd e97d 07be f5f4 483e d22b a2bd
00000030: 0800 a83e 97c5 6dbe 97a6 98bd e89e 8fbe
00000040: f449 823e 269b 89be 7cfa 9c3e 1feb a43e
00000050: cb9a 3a3d b82c 96bd 9b12 693e 2fdc b73e
00000060: 6934 753b e69e 8c3e 38d6 97be 109a 863e
00000070: 8156 49be 408b 40be 4069 20be d776 abbe
00000080: 520a 143e 94ac 483e 8b7d 2fbe c876 a7bd
00000090: d307 e6bb aad4 e63d 27e2 80be 4dfb 493d
000000a0: 32d1 2bbe 9353 bebe 7c3f d93d e4e3 d4bd
000000b0: 34eb bfbe f6fd 86be f264 9abe d05f 963e
000000c0: 2881 95bd 340c 99bd 8a41 66be 9679 9cbd
000000d0: 5adf 843b 045a 773e d8eb f33d a86e 07bd
000000e0: d626 a73d 2eb3 1e3d c77c 0ebd d71c 9ebe
000000f0: c14a aa3e 570c 61be 075f c1be ba8c 883e
00000100: cd79 583d d942 113e 6191 393e e91a 2e3e
00000110: bca6 7ebe 9cae a83e 23f3 9b3e 3516 523e
00000120: ce10 0abc 1cf3 b63c 36ea 51be 707e 28bd
00000130: d846 0abe e4cf 6bbe f9e8 c2be 0447 bfbe
00000140: ba6f 34be ff4f 8fbd 8b69 643d 9047 b43e
00000150: bee2 8fbe e32e a23e 87ea 8b3d 2b0a a1be
00000160: 0336 5fbd f73b 4dbe 2c7e af3e 4a81 5cbe
00000170: 782d 413d 27a0 d23d 9a4e 1b3e 07a8 ffbc
00000180: 8da2 99be 1021 b13e 33f5 c93e b72c c23e
00000190: 488e c0bd 9a9a 7dbe 2055 9f3d c71a 7fbe
000001a0: f65b be3e 4b25 98be eaec bcbe c26c bdbe
000001b0: 216a 67bd ed7f 61be 81dc 7e3e 9223 8dbe
000001c0: 309a 28be fa6c 093e ffdc 45be 4b83 46be
000001d0: 3cb7 083d 4875 b9be 2c20 35bb 4566 d5bd
000001e0: 78c0 d4bd 8d3e a63e 7901 c33e e50c c43e
000001f0: b288 84be f033 2c3e 8d66 b23e 5b09 f83d
00000200: 0e94 cdbe 9deb 893d 3f2a 2dbd 676c 4c3e
00000210: 0a58 e13d 21b6 493e 10cd 65be 4873 14be
00000220: 154a 9abe b36b 20be e5f1 f23d 961c 91be
00000230: 55be b8be 7ff1 35be 1b7d bebe d649 763d
00000240: 9943 d53d 25d1 29be 2add 513e 950f b5be
00000250: 4c1d 46be c484 a93e f721 c6be 8948 81be
00000260: 1b0b b73e 9edf 803e a9b2 4ebe 1b80 103e
00000270: 7d78 a73e 2536 31be b492 83be ee9a 7e3c
00000280: df30 963e 9acc 0e3d 0485 5cbe 8a35 9b3d
00000290: 73de 60be 25d4 8c3e c21f e23d b56d 93bd
000002a0: 3124 f73c 6097 b13e c3b5 96be fe0f 3c3d
000002b0: 38bc 9ebd cb7c 3f3e c525 b6be 5909 a0be
000002c0: c7c7 953e 8eef dc3c 81ac 683d f5b7 bebe
000002d0: 39e0 cc3d a915 673e 2a6a 793c 5f09 f03c
000002e0: 4b2f b13d 1ec4 953e b88a babe b34a 0dbe
000002f0: ff11 82be b567 c8bd 6956 26bd ced0 91be
00000300: 3124 23be 3801 9abd e309 04be f619 9fbe
00000310: e04f a73e d90b a83e 294d 9abe 08a3 b5be
00000320: a38f 07be 474e 49be 102e b0bd 0c71 a7be
00000330: 3e84 35be 2403 4bbe dcb4 2b3e 5b82 06be
00000340: cf24 13bb 3962 873e 1cdc d33c dbed bcbe
00000350: 1483 c4be 1191 5d3e b418 98be 4cad e9bd
00000360: f947 a1be 2af6 a43e cfe1 933e 1b67 54be
00000370: 9379 363e 0e77 263e 3ceb 973e a1b8 72be
00000380: 9ed0 9dbd 0eb5 1d3e 20f5 6fbe cdce dc3d
00000390: 0191 713e 1d7d 3b3d d28e 0abe b19d 4abe
000003a0: 48cb cd3d bead 3ebe 051b a3be 4cd4 923e
000003b0: 46c7 843e 7b9b abbe 123a 9cbe d986 47be
000003c0: 12cc 833e de6c 12be 768a 9cbe d27f bebd
000003d0: 429f 1e3d c29a bc3e cedd 503e 7e5b 58be
000003e0: 54c6 b8be 9e53 44bd 4082 8a3d a2da 9dbe
000003f0: 5d70 d23d e67c b4bd 470f 7f3e 4c37 a8be

model/conv2d_12/Conv2D_bias f4 [8]
-0.006445202 -0.011308623 -0.013060203 -0.012869658 0.0058365124 0.0008009619 -0.015387726 -0.0039282558
00000000: 4632 d3bb cd47 39bc 76fa 55bc 42db 52bc
00000010: 3740 bf3b a5f7 513a cd1c 7cbc 99b8 80bb

model/conv2d_13/Conv2D/ReadVariableOp f4 [32, 1, 1, 8]
-0.72116673 0.34368432 -0.40236002 -0.4304005 -0.50580496 0.15514003 0.0691713 0.72257453
-0.94484687 -0.94694716 -0.5904931 0.09826282 -0.50834775 -0.8115543 -0.19585243 0.32783198
0.033146977 -0.34285328 0.5777062 0.81115687 0.45208934 0.59000933 -0.9158603 -0.38571385
-0.86049086 0.75858694 0.25163272 0.17288403 0.7537584 0.8247916 0.73541915 0.39839312
0.7850103 -0.92319 0.33250105 -0.62762123 0.37509778 -0.81767803 -0.39418364 0.064929165
-0.8973193 -0.053267654 -0.6354013 0.1224097 -0.5530702 -0.12791431 0.8215772 0.60578007
-0.7057902 0.15909491 0.67431706 -0.52103406 -0.55721235 0.26769495 -0.018027956 0.5246437
0.3114702 -1.0701672 -0.1629116 -0.4152652 -0.9918552 0.014484375 -0.44832867 1.0613954
-0.6902267 -0.16594073 0.6802459 -0.38916174 0.43159854 -0.70098096 0.50128835 -0.7508651
0.32059595 -1.0365667 1.169955 -0.22204554 -1.0935081 -0.3116086 0.7773775 -0.03242293
1.0522244 0.07681459 0.03634027 -0.95342267 0.6376451 0.42951074 -0.41173464 -0.32732123
0.27918682 -0.8989678 -0.7832513 0.784069 -0.35501868 0.032651294 -0.15342498 -0.16708261
0.7440225 0.66740507 0.039113354 0.3884881 0.7091242 0.6213949 -0.46317372 0.6040481
-0.14280759 0.65921575 -0.7939331 -0.81157464 -0.61648506 0.41420096 0.08954629 0.17899321
0.47030297 -0.9815711 0.4142992 -0.39655614 -0.17046873 -0.6599511 1.1816562 -0.07083244
-0.65247893 0.09463247 0.32763383 -0.6671428 0.82599187 0.73485583 0.34522885 0.69296604
0.23170023 0.17245628 -0.0851179 0.38492426 -0.7766617 0.67792696 -0.8415775 0.7946974
0.45587626 0.15756157 -0.56750894 0.77009445 -0.5205578 0.015662747 1.2526131 0.08079472
0.48354515 -0.5372791 -0.6942069 0.69039047 -0.7287692 0.12155281 0.60658723 -0.44993007
0.98624384 0.8049056 0.104347825 0.8380962 -0.39668187 -0.18541709 0.47610328 -0.654138
0.36687762 0.041944265 0.6429419 -0.9622148 0.26060382 -0.85886043 -0.6078414 0.030362671
-1.0376443 0.48678946 -0.23126037 0.26370856 -0.45588678 -0.048138943 -0.6546745 -0.5009705
0.15377654 -0.23935995 -0.91578776 -0.33241382 -0.82051605 0.8226336 0.48979452 -0.7079487
-0.11880087 0.31793264 0.28005674 -0.7572122 -0.7339855 0.54721117 -0.5982726 0.46011513
-0.05413422 -0.86818415 -0.61461973 -1.0927076 0.45211366 -0.21363756 -0.09349448 -0.32475168
0.9059838 -0.26707885 0.20847593 0.23328051 -0.14371885 0.76959187 0.32131755 -0.9405379
0.861506 -0.8462158 0.78799367 0.2914616 -0.8531991 -0.3921436 -0.35285744 0.5928532
0.28705105 0.8502268 0.86718905 0.6762928 0.32428733 0.2177306 -0.4682738 -0.8915686
-0.39513248 0.44828734 -0.5573424 0.778997 -0.6093758 0.8290412 -0.52812546 0.31893066
-0.08286186 0.8135323 -0.5745702 0.558017 -0.9088489 -0.60783243 -0.74415845 0.10053157
0.75881606 -0.80333376 -0.4288726 -0.5402783 -0.5429754 -0.22362609 -0.94786865 0.98757607
-0.28069672 0.49128988 0.8204231 -0.66882837 0.37996113 -0.53828627 -0.38955113 -0.6012523
00000000: 629e 38bf 64f7 af3e 2202 cebe 745d dcbe
00000010: 6f7c 01bf 07dd 1e3e afa9 8d3d a5fa 383f
00000020: 7ce1 71bf 216b 72bf 8e2a 17bf 043e c93d
00000030: 1423 02bf 06c2 4fbf 8a8d 48be 98d9 a73e
00000040: 20c5 073d 778a afbe 8ee4 133f faa7 4f3f
00000050: 4178 e73e da0a 173f d275 6abf 497c c5be
00000060: 2149 5cbf c132 423f 01d6 803e 8308 313e
00000070: 4ff6 403f 8b25 533f 6e44 3c3f 2ffa cb3e
00000080: 6ff6 483f 2e56 6cbf 943d aa3e c9ab 20bf
00000090: d10c c03e 5953 51bf 70d2 c9be 95f9 843d
000000a0: b8b6 65bf 2f2f 5abd a9a9 22bf f0b1 fa3d
000000b0: 0296 0dbf f8fb 02be e252 523f 6714 1b3f
000000c0: abae 34bf c7e9 223e 0ba0 2c3f 7d62 05bf
000000d0: 78a5 0ebf 500f 893e 5daf 93bc 0d4f 063f
000000e0: 0679 9f3e 3dfb 88bf 4cd2 26be a49d d4be
000000f0: 39ea 7dbf df4f 6d3c 568b e5be cedb 873f
00000100: b2b2 30bf 5eec 29be 9824 2e3f 3540 c7be
00000110: 7cfa dc3e 7d73 33bf 6f54 003f b238 40bf
00000120: 2725 a43e 38ae 84bf 16c1 953f e85f 63be
00000130: 13f8 8bbf 2a8b 9fbe 3602 473f e8cd 04bd
00000140: 4aaf 863f f850 9d3d 89d9 143d 8213 74bf
00000150: b63c 233f d5e8 db3e e2ce d2be a696 a7be
00000160: 93f1 8e3e c122 66bf 2883 48bf bfb8 483f
00000170: 02c5 b5be 5dbd 053d 701b 1dbe b417 2bbe
00000180: 4278 3e3f 0fdb 2a3f 5335 203d eae7 c63e
00000190: 2a89 353f bc13 1f3f 1b25 edbe e5a2 1a3f
000001a0: 273c 12be 5dc2 283f 333f 4bbf 5bc3 4fbf
000001b0: f7d1 1dbf 2612 d43e 0c64 b73d ff49 373e
000001c0: 8dcb f03e 3e48 7bbf 061f d43e 6809 cbbe
000001d0: 5b8f 2ebe 8ef2 28bf 8340 973f 9910 91bd
000001e0: dc08 27bf abce c13d 9fbf a73e dfc9 2abf
000001f0: 3474 533f 831f 3c3f d6c1 b03e 3966 313f
00000200: d342 6d3e 6198 303e 4b52 aebd cb14 c53e
00000210: 4dd3 46bf 9f8c 2d3f 9f71 57bf 4a71 4b3f
00000220: 9d68 e93e d257 213e 4448 11bf e924 453f
00000230: 4743 05bf 294f 803c a055 a03f b477 a53d
00000240: 3b93 f73e 208b 09bf 8bb7 31bf 6ebd 303f
00000250: 9e90 3abf aef0 f83d 4d49 1b3f 3c5d e6be
00000260: 7a7a 7c3f 4b0e 4e3f 50b4 d53d 798d 563f
00000270: e319 cbbe fadd 3dbe cfc3 f33e 9775 27bf
00000280: 62d7 bb3e c0cd 2b3d d797 243f b653 76bf
00000290: dd6d 853e 47de 5bbf 7e9b 1bbf 23bb f83c
000002a0: 87d1 84bf 783c f93e 85cf 6cbe cf04 873e
000002b0: fe69 e9be 572d 45bd bf98 27bf 9a3f 00bf
000002c0: 9977 1d3e c61a 75be 1171 6abf 2532 aabe
000002d0: 570d 52bf 1e98 523f 59c6 fa3e 203c 35bf
000002e0: df4d f3bd 11c8 a23e 9963 8f3e a9d8 41bf
000002f0: 79e6 3bbf 0816 0c3f 6528 19bf 3694 eb3e
00000300: d8bb 5dbd 5141 5ebf b857 1dbf d8dd 8bbf
00000310: 717b e73e cec3 5abe 097a bfbd da45 a6be
00000320: 8eee 673f 8fbe 88be b77a 553e 16e1 6e3e
00000330: 092b 13be f903 453f bc83 a43e 18c7 70bf
00000340: a88b 5c3f 99a1 58bf f4b9 493f 743a 953e
00000350: 426b 5abf 0cc7 c8be bba9 b4be 3ac5 173f
00000360: 5bf8 923e 77a8 593f 1a00 5e3f 8621 2d3f
00000370: fd08 a63e c5f4 5e3e 95c1 efbe d73d 64bf
00000380: ce4e cabe eb85 e53e fead 0ebf 596c 473f
00000390: 0d00 1cbf 0b3c 543f 3b33 07bf e14a a33e
000003a0: 7bb3 a9bd a743 503f 0817 13bf 34da 0e3f
000003b0: 52aa 68bf e89a 1bbf 2b81 3ebf 7fe3 cd3d
000003c0: c541 423f 48a7 4dbf 3095 dbbe ae4f 0abf
000003d0: 7000 0bbf 3dfe 64be 85a7 72bf c9d1 7c3f
000003e0: 7bb7 8fbe 598a fb3e 4007 523f 5638 2bbf
000003f0: 448a c23e 21cd 09bf 3f73 c7be aceb 19bf

model/conv2d_13/Conv2D_bias f4 [32]
0.27542272 1.3342236 -0.30506164 -1.1370559 0.4313404 0.28406224 0.049400575 0.63725764
0.40961316 0.17899816 -0.20266858 0.50048685 -1.2579768 0.37397137 0.09130519 -0.63231874
-0.19464155 -0.60105467 0.23335545 -0.7367973 0.38239327 0.81001306 0.60555744 0.2255913
1.0838842 -0.37367272 -0.039805245 -0.71623987 -0.09787274 0.52449507 0.65075403 0.2724212
00000000: 3504 8d3e d7c7 aa3f 0a31 9cbe 0c8b 91bf
00000010: a6d8 dc3e 9b70 913e 4258 4a3d 5123 233f
00000020: d1b8 d13e 4b4b 373e 5a88 4fbe e81f 003f
00000030: 6205 a1bf 2d79 bf3e 37fe ba3d a4df 21bf
00000040: 1d50 47be b8de 19bf bbf4 6e3e bf9e 3cbf
00000050: 0dc9 c33e 045d 4f3f d005 1b3f 6801 673e
00000060: b8bc 8a3f 0852 bfbe d30a 23bd 7f5b 37bf
00000070: 8171 c8bd 4f45 063f d197 263f cb7a 8b3e

model/conv2d_14/Conv2D/ReadVariableOp f4 [32, 1, 1, 64]
0.07316148 0.30399907 0.32618606 -0.2650849 0.38320437 0.2588908 -0.11619485 0.2326007
-0.09870548 0.012355079 0.3726547 -0.00072591624 0.3562801 0.289047 0.3291202 0.15703407
-0.03073102 0.3025798 -0.22344296 0.20513834 0.30376303 0.29867086 -0.07852959 -0.048955914
-0.27634442 0.14918114 0.23751856 -0.329642 0.15257557 -0.33168653 -0.37626404 -0.3228788
-0.3966868 -0.38860938 -0.030923866 -0.22875024 0.23083417 -0.150151 0.27143037 0.048738077
-0.025340166 0.0023944355 0.2526758 -0.31297767 0.40392017 -0.38985693 0.028453512 -0.31415793
0.28168398 0.157359 0.16639997 0.12963344 -0.06044729 -0.028725969 0.033830155 -0.13340575
-0.25073126 -0.16527487 0.18243065 -0.13988873 0.09501272 0.11152298 0.1827839 0.30819473
0.092954814 -0.114427276 -0.02265365 0.28207502 -0.09962408 -0.15426587 0.18264423 0.045565464
0.06437529 -0.096506834 -0.1504714 -0.11966043 -0.20472142 0.10777918 0.28718588 0.29763442
0.26794305 -0.3038978 0.009446921 0.13858336 -0.08713095 0.34080875 0.12155895 -0.1433872
0.20947921 -0.22964175 -0.18152699 0.066176824 -0.21656105 -0.28514194 -0.17185177 -0.28723195
0.052820016 -0.051743343 0.24161355 -0.27542233 0.14563188 0.028334724 -0.11109092 -0.05000756
0.36122838 -0.15939619 -0.08392672 0.25784248 0.23028193 -0.28984413 -0.047857456 -0.22582604
-0.2243695 0.119898915 -0.1473413 0.103475325 -0.10548783 0.21062462 -0.20678183 0.09599835
-0.075751625 -0.05542911 -0.05060751 -0.11669636 0.29571405 0.005682448 -0.076734975 0.29828948
-0.23272939 -0.25399342 0.25979865 0.2390045 -0.1216943 0.12133402 -0.14860843 0.011775183
-0.13883233 0.28768614 -0.27256814 0.22553131 -0.053386055 -0.26274535 0.18456598 0.108466186
0.061782837 -0.35348287 -0.16198184 0.0372766 0.28244588 0.17804895 0.095301546 0.2937212
-0.053688854 0.07125612 0.3330599 -0.10178358 0.16321357 -0.120451845 0.21128851 -0.057723355
-0.04804452 -0.20511816 0.07025311 0.027798668 -0.18271594 -0.34441057 -0.19661145 -0.025522554
-0.16549031 0.33866805 0.2584302 0.15641752 0.07738343 -0.026704289 -0.33408085 -0.29713506
0.20632707 -0.3316835 -0.2892316 -0.16374925 -0.032953277 0.075459145 0.19562289 0.06957695
0.06509694 -0.12178345 -0.3079597 -0.18111356 0.20019071 -0.012648301 -0.32974216 0.2875846
-0.34198204 -0.2850334 -0.43902427 0.28120434 -0.20929295 -0.15969412 -0.38741452 -0.30615872
-0.145 0.06261187 -0.3746525 -0.18835716 0.18341322 -0.46977732 -0.3970317 0.3083129
-0.1776907 0.5006764 -0.364872 0.23162514 0.14762318 -0.37473345 -0.036351826 0.16780664
-0.33216035 0.5026547 0.06788959 0.11336785 -0.3518356 0.25705048 0.39922738 0.039582547
-0.34348124 0.021145292 0.49898836 -0.42478752 -0.1591845 0.30683562 -0.34089458 0.0014596744
0.41247222 0.2639673 0.18365552 0.06941269 0.3917327 0.44387156 -0.22316693 0.37739176
0.28468567 -0.33983046 -0.17898425 -0.17423083 -0.116318285 0.30598375 0.09634613 0.15771988
0.16562437 0.3691422 -0.039376892 -0.09146727 0.013109975 0.48418775 -0.078958616 0.28757682
00000000: b0d5 953d c4a5 9b3e dc01 a73e 35b9 87be
00000010: 5d33 c43e 568d 843e 91f7 edbd e12e 6e3e
00000020: 1926 cabd f56c 4a3c 99cc be3e 6a4b 3eba
00000030: 586a b63e f8fd 933e 7182 a83e 8acd 203e
00000040: 9fbf fbbc bdeb 9a3e 3bce 64be c90f 523e
00000050: d486 9b3e 63eb 983e 1fd4 a0bd ff85 48bd
00000060: 047d 8dbe f1c2 183e 1138 733e d6c6 a8be
00000070: c53c 1c3e d1d2 a9be aea5 c0be 5f50 a5be
00000080: 881a cbbe cff7 c6be 0c54 fdbc 813d 6abe
00000090: cb5f 6c3e 2fc1 19be ecf8 8a3e 94a1 473d
000000a0: 2e96 cfbc f6eb 1c3b b95e 813e 9c3e a0be
000000b0: a0ce ce3e 549b c7be 5717 e93c 4fd9 a0be
000000c0: e238 903e b822 213e c164 2a3e a1be 043e
000000d0: 9497 77bd b952 ebbc 7d91 0a3d 849b 08be
000000e0: d95f 80be d13d 29be 1acf 3a3e fe3e 0fbe
000000f0: 0796 c23d 2966 e43d b42b 3b3e b3cb 9d3e
00000100: 185f be3d d958 eabd 2694 b9bc 236c 903e
00000110: b607 ccbd dff7 1dbe 1707 3b3e daa2 3a3d
00000120: 31d7 833d 60a5 c5bd 2d15 1abe 8710 f5bd
00000130: 7ea2 51be 55bb dc3d 070a 933e 8a63 983e
00000140: d52f 893e 7e98 9bbe 42c7 1a3c cce8 0d3e
00000150: b671 b2bd 7c7e ae3e e6f3 f83d 18d4 12be
00000160: b881 563e 3527 6bbe 36e2 39be b787 873d
00000170: 2ec2 5dbe 20fe 91be e9f9 2fbe 1110 93be
00000180: cd59 583d d4f0 53bd 8b69 773e 2804 8dbe
00000190: 8620 153e 391e e83c a383 e3bd bad4 4cbd
000001a0: edf2 b83e c138 23be c6e1 abbd ee03 843e
000001b0: 07cf 6b3e 7366 94be 2e06 44bd f13e 67be
000001c0: 1ec1 65be 908d f53d a3e0 16be dfea d33d
000001d0: 010a d8bd fbad 573e 9ebe 53be c89a c43d
000001e0: ab23 9bbd a209 63bd d249 4fbd 80fe eebd
000001f0: d567 973e d433 ba3b 3a27 9dbd 66b9 983e
00000200: 9d50 6ebe 6d0b 82be 5404 853e 98bd 743e
00000210: dc3a f9bd f87d f83d cf2c 18be b2ec 403c
00000220: 102a 0ebe 994b 933e 0d8e 8bbe aef1 663e
00000230: 56ab 5abd 8f86 86be ddfe 3c3e 8523 de3d
00000240: 0010 7d3d b5fb b4be 91de 25be 59af 183d
00000250: bf9c 903e 7752 363e 752d c33d a062 963e
00000260: d8e8 5bbd bbee 913d d486 aa3e e973 d0bd
00000270: 7521 273e 75af f6bd 045c 583e 536f 6cbd
00000280: 55ca 44bd 7f0a 52be dde0 8f3d 08ba e33c
00000290: e319 3bbe 9556 b0be 8354 49be ad14 d1bc
000002a0: 4b76 29be e665 ad3e f750 843e ea2b 203e
000002b0: 347b 9e3d f4c2 dabc a50c abbe 1622 98be
000002c0: 6747 533e 6bd2 a9be 2a16 94be e2ad 27be
000002d0: 04fa 06bd 538a 9a3d 5e51 483e 5c7e 8e3d
000002e0: 8b51 853d 9a69 f9bd e5ac 9dbe d575 39be
000002f0: cbfe 4c3e d23a 4fbc f7d3 a8be 4a3e 933e
00000300: 4518 afbe e6ef 91be cac7 e0be 04fa 8f3e
00000310: e450 56be db86 23be 325b c6be d6c0 9cbe
00000320: e17a 14be a73a 803d 74d2 bfbe b3e0 40be
00000330: add0 3b3e a786 f0be bd47 cbbe 30db 9d3e
00000340: 8df4 35be 542c 003f 81d0 babe 242f 6d3e
00000350: 882a 173e 10dd bfbe a7e5 14bd 81d5 2b3e
00000360: ec10 aabe faad 003f b309 8b3d 672d e83d
00000370: cc23 b4be 1f9c 833e 8867 cc3e 4f21 223d
00000380: c6dc afbe e438 ad3c 677b ff3e c07d d9be
00000390: 4301 23be 8f19 9d3e bc89 aebe 8c52 bf3a
000003a0: 8f2f d33e b926 873e 3110 3c3e 3e28 8e3d
000003b0: 3091 c83e 2243 e33e df85 64be 7e39 c13e
000003c0: 52c2 913e 42fe adbe a647 37be 9169 32be
000003d0: 4838 eebd e7a9 9c3e 1f51 c53d 5281 213e
000003e0: 6f99 293e 3500 bd3e aa49 21bd 3153 bbbd
000003f0: 38cb 563c 75e7 f73e 0eb5 a1bd 453d 933e

model/conv2d_14/Conv2D_bias f4 [32]
-0.76326793 0.10209305 0.28620568 -0.24543454 -0.47082993 -0.35765073 -0.64544284 -0.53266704
-0.12561281 0.3655968 -0.6224597 0.12403579 0.3048847 -0.8462351 0.0069567654 -0.46488902
0.5312261 0.62430376 0.26516372 -0.6033652 -0.5255972 -0.79413337 0.3120749 0.43054295
-0.36851224 0.20237584 -0.04176894 -1.0583808 0.05853246 -0.19785854 0.64833164 0.023191186
00000000: 8765 43bf 2916 d13d 8d89 923e 3153 7bbe
00000010: 9f10 f1be ff1d b7be be3b 25bf de5c 08bf
00000020: a5a0 00be 812f bb3e 8559 1fbf 7a06 fe3d
00000030: d919 9c3e dda2 58bf 94f5 e33b ef05 eebe
00000040: 6ffe 073f 5fd2 1f3f 8ac3 873e 2476 1abf
00000050: 8a8d 06bf 534c 4bbf 48c8 9f3e 2070 dc3e
00000060: a3ad bcbe 9d3b 4f3e e815 2bbd 0679 87bf
00000070: bcbf 6f3d 6e9b 4abe 10f9 253f 71fb bd3c

model/conv2d_15/Conv2D/ReadVariableOp f4 [8, 1, 1, 32]
-0.1676799 -0.05858015 -0.32610914 -0.059574638 -0.336341 0.11023832 0.093854666 0.19376478
-0.07135195 -0.32515293 -0.19934091 -0.3825328 0.18557827 0.30605465 -0.14761578 -0.2841387
-0.0241574 0.28605822 0.33237302 0.34872136 0.24301581 0.24303636 -0.2621265 -0.36771417
0.25670746 -0.25041667 -0.18042114 -0.00981373 -0.020018565 -0.15895198 -0.25281397 0.18566734
0.06636436 0.13574767 0.14517494 0.2999985 -0.38366362 -0.091507465 -0.045224495 -0.15195543
0.2146377 -0.0002588688 0.27754313 -0.16654699 -0.113333255 0.08186484 0.33225864 -0.0364063
0.321329 -0.3497104 -0.057686903 -0.011488844 0.37378353 -0.27994207 0.19524878 -0.3256824
0.004601307 0.19359599 -0.09778672 -0.35467616 0.33043242 -0.4011595 0.1800538 -0.33015978
-0.12814865 0.34575313 -0.20108916 0.39041576 0.052504238 0.06336742 0.1421942 -0.1541795
0.2516319 0.34645727 -0.08331809 -0.21295927 0.20588537 0.12414107 -0.07273885 0.279749
0.37743092 0.30729663 -0.37353605 0.34189248 -0.24211039 0.0210292 0.34416562 -0.32254148
0.13818412 -0.06672873 0.08636311 -0.11927524 0.046526324 -0.21174245 0.19383718 0.2218824
-0.07864576 0.28786883 -0.050017804 -0.118852384 0.014070066 0.09561692 -0.33526516 -0.34850153
-0.008277724 0.002689904 0.27025467 0.2349862 -0.029513706 0.163278 0.18901516 -0.23307809
-0.15715504 0.28685728 0.06638286 -0.29169497 -0.0021340407 -0.32097092 -0.25796095 0.07458874
-0.2227645 0.26168638 -0.23862645 -0.18436955 0.36862764 0.22270124 -0.17835793 -0.19897437
0.3456782 0.23433764 0.1798734 0.11005129 -0.14813945 -0.38617566 -0.011641306 -0.041481312
-0.06315749 -0.23267585 0.051695928 -0.016471377 0.1325006 0.22947401 0.33056363 0.37005955
-0.088120304 -0.31012622 -0.10959512 0.3098247 -0.10038405 -0.07227208 -0.27958167 0.14999186
-0.21666533 0.25608703 0.24837779 -0.38022903 0.21465291 -0.13102317 0.15782978 0.30067667
-0.047322467 0.100055225 0.20421988 -0.13362207 0.3763327 -0.1817684 0.22264296 0.024171352
0.26527923 0.24822807 0.35405728 -0.20789985 -0.04487877 -0.044972148 -0.18567875 0.21452188
0.31449878 -0.061628588 -0.31139657 -0.21645622 0.16343278 0.36084956 -0.3529575 0.25504357
-0.3061803 -0.06962382 0.09296795 -0.36825168 -0.23680195 0.34431463 -0.034372695 -0.22381037
-0.09504024 -0.0036330181 0.12724285 -0.1978248 0.21426918 -0.15208516 0.3289862 0.100680724
0.3271561 0.05907677 -0.09785278 0.1294741 -0.05077642 -0.10162978 -0.015157345 0.23783037
0.12647107 -0.016977819 0.22111215 0.17447998 0.33186227 0.3391863 -0.38755858 0.058068965
0.27696905 0.1945904 -0.02574033 0.03102583 -0.310527 -0.063339934 0.32139814 0.08273792
-0.25815734 0.3812699 -0.3461325 0.020170623 -0.2831688 0.31065276 0.39272347 0.22196059
0.09370497 0.31363088 -0.32337174 0.05611145 -0.261414 -0.0911083 -0.32334343 -0.11017691
-0.25886706 0.13664189 0.048771165 0.33118746 0.28052106 -0.37237886 -0.027391097 0.12093424
0.16135694 0.22120126 -0.36997104 0.26746166 0.015589443 0.27532712 0.29990655 -0.038267937
00000000: 48b4 2bbe bdf1 6fbd c7f7 a6be 8904 74bd
00000010: e334 acbe a1c4 e13d e036 c03d 466a 463e
00000020: f920 92bd 727a a6be 0620 4cbe 57db c3be
00000030: 3b08 3e3e 32b3 9c3e 9728 17be a17a 91be
00000040: bde5 c5bc 3976 923e cc2c aa3e 9b8b b23e
00000050: 23d9 783e 86de 783e 7235 86be 0845 bcbe
00000060: 296f 833e 9d36 80be 52c0 38be c4c9 20bc
00000070: f9fd a3bc 4fc4 22be d570 81be 941f 3e3e
00000080: 0aea 873d 7001 0b3e bda8 143e 6799 993e
00000090: 8f6f c4be 4468 bbbd 523d 39bd 349a 1bbe
000000a0: fcc9 5b3e c8b8 87b9 221a 8e3e 4b8b 2abe
000000b0: 441b e8bd c1a8 a73d ce1d aa3e c61e 15bd
000000c0: 3c85 a43e 3e0d b3be 1a49 6cbd b43b 3cbc
000000d0: 8e60 bf3e 9154 8fbe 4cef 473e d8bf a6be
000000e0: 90c6 963b 073e 463e 6744 c8bd 1d98 b5be
000000f0: 702e a93e c764 cdbe 0660 383e b40a a9be
00000100: 6639 03be 8e06 b13e 51ea 4dbe 93e4 c73e
00000110: af0e 573d c7c6 813d 5b9b 113e 3be1 1dbe
00000120: e5d5 803e d962 b13e ada2 aabd ff11 5abe
00000130: 9dd3 523e ac3d fe3d 1bf8 94bd 433b 8f3e
00000140: a03e c13e fc55 9d3e 1e40 bfbe 880c af3e
00000150: c9eb 77be 6e45 ac3c 7a36 b03e 2824 a5be
00000160: 2380 0d3e 13a9 88bd 24df b03d 9446 f4bd
00000170: 6392 3e3d 03d3 58be 417d 463e 2435 633e
00000180: 0711 a1bd 8b63 933e 78df 4cbd e168 f3bd
00000190: 2286 663c ced2 c33d e0a7 abbe cb6e b2be
000001a0: 4a9f 07bc 1a49 303b d25e 8a3e 39a0 703e
000001b0: bac6 f1bc 5932 273e 318d 413e 06ac 6ebe
000001c0: 40ed 20be f5de 923e bdf3 873d 0b59 95be
000001d0: 43db 0bbb 4d56 a4be 7513 84be fbc1 983d
000001e0: 611c 64be c2fb 853e 7e5a 74be 5fcb 3cbe
000001f0: c3bc bc3e cb0b 643e 76a3 36be f0bf 4bbe
00000200: bcfc b03e 35f6 6f3e bc30 383e 9262 e13d
00000210: deb1 17be d1b8 c5be 2dbb 3ebc 4fe8 29bd
00000220: b758 81bd 9442 6ebe 1cbf 533d fbee 86bc
00000230: 3dae 073e 3cfb 6a3e a33f a93e 7278 bd3e
00000240: 6b78 b4bd ddc8 9ebe 6873 e0bd 58a1 9e3e
00000250: 2796 cdbd 6203 94bd 5425 8fbe 7797 193e
00000260: 84dd 5dbe d71d 833e bf56 7e3e 61ad c2be
00000270: f9cd 5b3e f02a 06be 219e 213e 4bf2 993e
00000280: 34d5 41bd c1e9 cc3d 041f 513e 39d4 08be
00000290: aeae c03e 7f21 3abe 84fc 633e 0003 c63c
000002a0: aed2 873e 802f 7e3e ff46 b53e b3e3 54be
000002b0: cdd2 37bd b734 38bd 9222 3ebe a0ab 5b3e
000002c0: fc05 a13e 426e 7cbd 5f6f 9fbe b3a6 5dbe
000002d0: ec5a 273e 46c1 b83e d8b6 b4be 1295 823e
000002e0: aac3 9cbe ef96 8ebd fb65 be3d 7c8b bcbe
000002f0: 367c 72be 024a b03e 62ca 0cbd 8c2e 65be
00000300: 75a4 c2bd ee17 6ebb f34b 023e 9692 4abe
00000310: 6169 5b3e 36bc 1bbe e170 a83e b231 ce3d
00000320: 0181 a73e 7cfa 713d 0a67 c8bd dc94 043e
00000330: effa 4fbd 4623 d0bd 8356 78bc ce89 733e
00000340: a281 013e 1115 8bbc 396b 623e e1aa 323e
00000350: dae9 a93e d4a9 ad3e 146e c6be b9d9 6d3d
00000360: e3ce 8d3e b542 473e 62dd d2bc e229 fe3c
00000370: 65fd 9ebe 5eb8 81bd 4c8e a43e 8072 a93d
00000380: 332d 84be cf35 c33e 4738 b1be dd3c a53c
00000390: 80fb 90be e10d 9f3e 0d13 c93e a349 633e
000003a0: 64e8 bf3d 3a94 a03e fb90 a5be 1fd5 653d
000003b0: 0ed8 85be fd96 babd 458d a5be 6fa4 e1bd
000003c0: 398a 84be daeb 0b3e 46c4 473d 6791 a93e
000003d0: 75a0 8f3e 71a8 bebe 4b63 e0bc 5fac f73d
000003e0: c13a 253e 9582 623e d86c bdbe bcf0 883e
000003f0: dd6a 7f3c adf7 8c3e 5a8d 993e d7be 1cbd

model/conv2d_15/Conv2D_bias f4 [8]
0.0032056372 -0.00935052 -0.0044585927 -0.0018360588 0.0024475143 0.0005826468 -0.010333238 0.005155427
00000000: ab15 523b ec32 19bc 6319 92bb e9a7 f0ba
00000010: 7a66 203b c4bc 183a be4c 29bc dbee a83b
