VOC2012/Model_V0_1.tflite (tflite, 7524 bytes, 10 tensors)

model/conv2d/Conv2D/ReadVariableOp f4 [5, 1, 1, 3]
-0.18799552 0.19435452 -0.19089949 -0.795225 -0.36109155 -0.7378683 -0.55473185 -0.079131305
-0.8084752 -0.26347667 0.50834394 -0.392662 0.55481875 -0.51607114 -0.36702234
00000000: e681 40be df04 473e 287b 43be de93 4bbf
00000010: fee0 b8be f0e4 3cbf e802 0ebf 980f a2bd
00000020: 3bf8 4ebf 6ae6 86be d422 023f fe0a c9be
00000030: 9a08 0e3f 3d1d 04bf 5aea bbbe

model/conv2d/Conv2D_bias f4 [5]
-0.05035952 0.0 0.0 -0.12591323 -0.17339881
00000000: c945 4ebd 0000 0000 0000 0000 66ef 00be
00000010: 758f 31be

model/conv2d_1/Conv2D/ReadVariableOp f4 [21, 1, 1, 20]
-7.497426 10.662764 -2.669085 -12.579958 -15.279813 3.6253934 -2.8662567 3.27076
8.473583 -8.796553 4.097247 -7.5338593 -10.662649 3.9800742 -14.157866 10.7329035
-0.8490985 -0.74955326 5.2028875 6.674621 6.760755 -8.514417 0.5221515 -7.2490764
-10.564435 -3.389868 7.2867975 2.3696382 -2.277691 9.159168 -1.992048 -8.616146
-3.315419 -3.3713815 -13.416554 -7.9048886 4.4260983 2.1871188 -8.142638 8.039648
0.7986799 -10.385633 2.3430538 3.999096 3.043363 -4.724855 -8.044 6.9098134
2.5524933 3.4366548 -3.364007 3.7818549 8.896728 2.5636065 -9.00985 -8.922611
9.522525 -9.548746 1.0516791 -7.2967505 -2.7679636 -6.623506 -6.349618 1.024018
-0.4356287 2.9913623 6.616265 -9.038174 -3.1291623 -5.813507 8.877533 4.8990345
-1.9742571 -10.192914 5.890846 -4.958459 2.3953698 0.45088604 -2.451349 -6.033359
8.812023 10.35725 10.585003 2.697022 -8.20664 -0.010170642 -2.939847 -9.9760895
0.6798279 -10.322593 3.3025389 -5.220094 5.7359943 4.2103806 1.985229 -0.27814782
-10.870791 2.5191457 0.09240587 0.77638835 -4.456249 -8.795813 -2.6808891 -1.9034634
-4.4506845 -6.652991 3.611937 -2.3311222 -3.6582353 8.6983795 -0.53642637 -3.1785862
8.477704 6.5670214 -11.186775 8.12319 -3.1974356 1.4311396 -1.4058343 -12.337755
2.4202466 -3.74551 4.055239 3.3654714 -1.310999 -8.083959 7.645507 -2.1510382
2.3134575 -5.1231728 -7.874019 -8.32601 -0.6445632 2.7255747 -9.218039 6.982406
-10.866193 0.229549 2.5295062 3.6443594 5.5864897 -0.123259 -1.9480357 -4.6388745
-2.856266 1.7891786 -9.161651 5.272375 5.7813797 6.9361844 7.1137366 1.6907817
0.22610109 3.2079115 5.418914 -10.607164 5.9040794 5.8556867 6.8698773 7.768924
-11.894431 6.1352086 6.9614944 4.3787756 -2.3032982 -0.5711276 9.5237875 -7.630835
2.629918 7.0296335 4.000639 3.0928164 -4.427103 -9.44384 -12.866637 7.1481247
3.8454344 2.0460427 2.2713726 7.4705358 -6.2990265 -3.462131 10.597396 -8.19529
6.080691 9.3384285 5.170833 -4.569367 -4.730732 5.9042845 2.1956925 -4.146256
-4.209433 -7.84192 2.246854 -3.619883 6.9670444 -10.063184 -3.087513 7.6344724
7.0486264 -1.3131211 3.994341 7.1668286 1.1845437 6.1724615 -8.055346 -10.5363
5.8537827 1.8789715 -2.7368488 -1.8715916 -10.752627 2.5563908 -4.436131 2.1664958
7.1831837 0.4397406 5.47732 -11.093572 -1.8940499 -7.2501707 -9.093787 -6.2966785
1.1601653 -3.9512827 -3.1620204 5.888546 -1.6853354 5.796038 -10.501119 4.0485344
-6.705109 -0.54495704 5.2523537 -7.073803 -4.7606215 6.7770944 6.894019 -6.4807057
4.298382 -5.6905074 -3.8215652 -10.651711 -3.0368137 -7.885339 -0.044185225 1.7402378
-3.1782537 7.7150645 -9.393361 0.13105185 -3.6538668 -11.223139 -7.920382 -4.829537
00000000: eaea efc0 ae9a 2a41 4ad2 2ac0 8247 49c1
00000010: 1d7a 74c1 7206 6840 c070 37c0 2254 5140
00000020: cc93 0741 aebe 0cc1 a61c 8340 6015 f1c0
00000030: 369a 2ac1 89b9 7e40 9e86 62c1 f9b9 2b41
00000040: 855e 59bf b9e2 3fbf 0e7e a640 7f96 d540
00000050: 1b58 d840 0d3b 08c1 b9ab 053f 6ff8 e7c0
00000060: ed07 29c1 99f3 58c0 722d e940 27a8 1740
00000070: b0c5 11c0 f48b 1241 6efb febf bcdb 09c1
00000080: d32f 54c0 b7c4 57c0 35aa 56c1 d9f4 fcc0
00000090: 99a2 8d40 c1f9 0b40 3f48 02c1 66a2 0041
000000a0: 4976 4c3f 8e2b 26c1 98f4 1540 30f1 7f40
000000b0: 76c6 4240 0332 97c0 39b4 00c1 311d dd40
000000c0: 0d5c 2340 27f2 5b40 e44b 57c0 e909 7240
000000d0: ff58 0e41 2112 2440 5828 10c1 04c3 0ec1
000000e0: 435c 1841 aac7 18c1 6c9d 863f fb7e e9c0
000000f0: 5126 31c0 c3f3 d3c0 1230 cbc0 0613 833f
00000100: ba0a dfbe 7b72 3f40 71b8 d340 5c9c 10c1
00000110: 3244 48c0 4008 bac0 600a 0e41 e4c4 9c40
00000120: 75b4 fcbf 2d16 23c1 cf81 bc40 b2ab 9ec0
00000130: bd4d 1940 89da e63e e7e2 1cc0 4711 c1c0
00000140: 0cfe 0c41 4cb7 2541 2c5c 2941 029c 2c40
00000150: 664e 03c1 c4a2 26bc 7426 3cc0 109e 1fc1
00000160: 3409 2e3f 5729 25c1 cc5c 5340 030b a7c0
00000170: 448d b740 70bb 8640 fc1b fe3f 6469 8ebe
00000180: c3ee 2dc1 af39 2140 4a3f bd3d 63c1 463f
00000190: 9899 8ec0 a6bb 0cc1 b093 2bc0 b0a4 f3bf
000001a0: 026c 8ec0 4de5 d4c0 fa29 6740 1b31 15c0
000001b0: 8720 6ac0 902c 0b41 3d53 09bf f56d 4bc0
000001c0: ada4 0741 0a25 d240 08fd 32c1 96f8 0141
000001d0: c9a2 4cc0 952f b73f 61f2 b3bf 7267 45c1
000001e0: 52e5 1a40 70b6 6fc0 85c4 8140 e263 5740
000001f0: d1ce a7bf e557 01c1 fea7 f440 9caa 09c0
00000200: b00f 1440 08f1 a3c0 f7f7 fbc0 5637 05c1
00000210: 1802 25bf d16f 2e40 167d 13c1 df6f df40
00000220: eddb 2dc1 e50e 6b3e 6ee3 2140 2f3d 6940
00000230: 86c4 b240 376f fcbd 3c59 f9bf a971 94c0
00000240: 10cd 36c0 ce03 e53f 1f96 12c1 4cb7 a840
00000250: 1001 b940 39f5 dd40 bba3 e340 896b d83f
00000260: 0b87 673e 6c4e 4d40 be67 ad40 f2b6 29c1
00000270: 38ee bc40 c961 bb40 09d6 db40 079b f840
00000280: 974f 3ec1 a153 c440 90c4 de40 ee1e 8c40
00000290: 3d69 13c0 6b35 12bf 6f61 1841 cd2f f4c0
000002a0: 9450 2840 c2f2 e040 3c05 8040 b4f0 4540
000002b0: d4aa 8dc0 f819 17c1 bfdd 4dc1 70bd e440
000002c0: 991b 7640 5df2 0240 2b5e 1140 a10e ef40
000002d0: a091 c9c0 8e93 5dc0 ef8e 2941 e81f 03c1
000002e0: 0595 c240 346a 1541 7777 a540 4138 92c0
000002f0: 2862 97c0 e6ef bc40 3a86 0c40 21ae 84c0
00000300: adb3 86c0 02f1 fac0 75cc 0f40 2aac 67c0
00000310: 07f2 de40 cd02 21c1 d099 45c0 994d f440
00000320: 598e e140 5a14 a8bf 48a3 7f40 a956 e540
00000330: 219f 973f ce84 c540 b2e2 00c1 af94 28c1
00000340: 3052 bb40 2382 f03f 8828 2fc0 5090 efbf
00000350: c30a 2cc1 e89b 2340 c9f4 8dc0 dea7 0a40
00000360: a4dc e540 ae25 e13e 3546 af40 457f 31c1
00000370: 3a70 f2bf 6601 e8c0 2780 11c1 647e c9c0
00000380: 4c80 943f d1e1 7cc0 8b5e 4ac0 f86e bc40
00000390: 12b9 d7bf 2579 b940 9504 28c1 988d 8140
000003a0: 4190 d6c0 4e82 0bbf 4813 a840 985c e2c0
000003b0: 0357 98c0 f5dd d840 ce9b dc40 f161 cfc0
000003c0: 588c 8940 a318 b6c0 8694 74c0 696d 2ac1
000003d0: 285b 42c0 b254 fcc0 91fb 34bd 1dc0 de3f
000003e0: 8268 4bc0 cfe1 f640 354b 16c1 7532 063e
000003f0: f4d8 69c0 fa91 33c1 c573 fdc0 918b 9ac0

model/conv2d_1/Conv2D_bias f4 [21]
0.40804273 -0.09956974 -0.10618983 -0.112578265 -0.10094401 -0.101862654 -0.11026799 -0.09028971
-0.09867967 -0.1012172 -0.11973204 -0.11379078 -0.09429833 -0.099842176 -0.10797408 -0.065466106
-0.098614916 -0.09927793 -0.11012782 -0.10880435 -0.0954314
00000000: faea d03e 38eb cbbd 0e7a d9bd 6f8f e6bd
00000010: bcbb cebd 5e9d d0bd 2fd4 e1bd d0e9 b8bd
00000020: 9118 cabd f74a cfbd 1236 f5bd 240b e9bd
00000030: 7c1f c1bd 0e7a ccbd 8421 ddbd 1813 86bd
00000040: 9ef6 c9bd 3a52 cbbd b28a e1bd d1d4 debd
00000050: 8a71 c3bd

model/depthwise_conv2d/depthwise/ReadVariableOp f4 [1, 3, 3, 5]
-0.48643082 -3.0271297 -2.098475 -6.0956078 -3.2739184 1.7565329 -2.062848 -5.0104117
-0.4102396 -5.8418455 -10.571047 -6.990024 -0.5019516 -5.1708865 1.4958214 -7.5087137
-7.0010567 8.244233 -7.214621 -0.23417278 3.8192132 8.868031 -6.239662 2.570908
6.1403074 0.5000248 -2.6893046 -10.009976 4.3801894 -2.3558402 7.7422314 0.5607245
-5.9827905 8.409668 2.9093409 3.6205873 -4.065617 4.0903816 -6.560155 -10.04031
-6.7551823 6.649651 0.74806964 -6.482974 1.0451989
00000000: 760d f9be 7ebc 41c0 6a4d 06c0 380f c3c0
00000010: e187 51c0 12d6 e03f b405 04c0 4b55 a0c0
00000020: ed0a d2be 66f0 bac0 0223 29c1 47ae dfc0
00000030: e67f 00bf e777 a5c0 1377 bf3f 6247 f0c0
00000040: a808 e0c0 61e8 0341 2dde e6c0 fdca 6fbe
00000050: fd6d 7440 74e3 0d41 50ab c7c0 c289 2440
00000060: 667d c440 a001 003f 911d 2cc0 dd28 20c1
00000070: 832a 8c40 16c6 16c0 5cc0 f740 a48b 0f3f
00000080: 0573 bfc0 008e 0641 a432 3a40 b4b7 6740
00000090: 8919 82c0 68e4 8240 caec d1c0 1ca5 20c1
000000a0: 742a d8c0 f1c9 d440 7e81 3f3f 8674 cfc0
000000b0: 14c9 853f

model/depthwise_conv2d/depthwise_bias f4 [5]
-0.075976685 0.0 0.0 -0.10869201 -0.122301735
00000000: aa99 9bbd 0000 0000 0000 0000 eb99 debd
00000010: 5579 fabd

model/depthwise_conv2d_1/depthwise/ReadVariableOp f4 [1, 5, 5, 5]
-3.8748338 3.1548145 0.9634912 -6.1334424 -0.6784222 -4.5347 -0.6743276 -3.7833824
0.35634375 2.5501704 1.5110536 3.706307 2.807238 3.3223867 -3.7032151 4.2801037
1.5836766 3.4484878 -1.624115 -1.3722833 -1.7647839 -0.78560245 -5.025039 3.1778157
-0.3607244 0.8893465 -5.67418 3.707828 -6.278798 2.182571 3.7503703 -4.9549823
-2.8235612 -1.0011789 1.133986 0.735558 2.6403031 1.6586593 2.78833 -1.4044652
3.1795652 -1.5368066 4.9802246 1.5013939 -5.9437246 -1.1575372 -0.3912799 5.051546
-3.7544887 -1.2115793 -4.981672 -0.36155325 1.9530393 -2.985815 0.069455706 2.3701715
6.2095585 -0.5313899 2.640139 -0.6728789 -3.093472 -4.087218 2.5957327 3.4403172
4.47276 -2.4123688 5.1935234 6.265197 -3.637013 -6.001081 1.2616507 2.7489524
0.7189037 -0.9781214 -1.3873705 -2.3174846 2.4218473 3.816072 0.48550862 -3.997691
-3.0940504 2.9914365 1.4713538 -0.38399374 -2.3535619 -4.723626 3.6738298 -1.9235067
-3.834448 -2.6993663 -0.78316236 0.6550459 1.2949743 1.1806366 -0.96887964 -2.4747891
5.2911725 0.24590692 -6.6015544 1.745416 -5.818991 4.121438 -6.25594 -0.81160694
-3.1768887 -5.0633273 -0.99748665 -4.842094 -3.943312 -6.353214 4.701012 2.7800508
-4.0397863 3.6493192 4.837399 -5.794381 -1.6020489 4.381534 1.5302749 -3.0850012
-2.0985796 -1.4228613 4.1860003 1.4956995 4.7415147
00000000: 47fd 77c0 7be8 4940 5ca7 763f 2945 c4c0
00000010: 14ad 2dbf 431c 91c0 bca0 2cbf f022 72c0
00000020: b072 b63e fe35 2340 346a c13f 2234 6d40
00000030: caa9 3340 fca1 5440 7a01 6dc0 9cf6 8840
00000040: eab5 ca3f 06b4 5c40 00e3 cfbf fba6 afbf
00000050: 70e4 e1bf 3e1d 49bf 1fcd a0c0 5561 4b40
00000060: deb0 b8be 36ac 633f e292 b5c0 0e4d 6d40
00000070: eaeb c8c0 3eaf 0b40 1106 7040 378f 9ec0
00000080: 3ab5 34c0 a126 80bf 7426 913f 874d 3c3f
00000090: bafa 2840 f34e d43f 0074 3240 84c5 b3bf
000000a0: ff7d 4b40 14b6 c4bf 005e 9f40 ad2d c03f
000000b0: fe32 bec0 2e2a 94bf d755 c8be 44a6 a140
000000c0: 8b49 70c0 0815 9bbf db69 9fc0 821d b9be
000000d0: 31fd f93f 9817 3fc0 cb3e 8e3d e4b0 1740
000000e0: b4b4 c640 2b09 08bf 0af8 2840 cb41 2cbf
000000f0: 72fb 45c0 7dca 82c0 7c20 2640 282e 5c40
00000100: da20 8f40 4064 1ac0 5831 a640 7e7c c840
00000110: d2c4 68c0 db08 c0c0 c57d a13f d6ee 2f40
00000120: 130a 383f 2a66 7abf 5b95 b1bf ab51 14c0
00000130: 8cff 1a40 863a 7440 9694 f83e 2bda 7fc0
00000140: ec04 46c0 b273 3f40 5255 bc3f d49a c4be
00000150: c2a0 16c0 f227 97c0 0720 6b40 7835 f6bf
00000160: 9967 75c0 6bc2 2cc0 547d 48bf 17b1 273f
00000170: b8c1 a53f 1a1f 973f 7f08 78bf f262 1ec0
00000180: 4951 a940 06cf 7b3e ef3f d3c0 cb69 df3f
00000190: 2d35 bac0 d2e2 8340 a930 c8c0 79c5 4fbf
000001a0: 2552 4bc0 c706 a2c0 495b 7fbf 6ff2 9ac0
000001b0: 395f 7cc0 874d cbc0 b16e 9640 5aec 3140
000001c0: ee45 81c0 728e 6940 f9cb 9a40 926b b9c0
000001d0: f00f cdbf 8735 8c40 0ce0 c33f a970 45c0
000001e0: 214f 06c0 5220 b6bf b7f3 8540 1573 bf3f
000001f0: 7dba 9740

model/depthwise_conv2d_1/depthwise_bias f4 [5]
-0.020430654 0.0 0.0 -0.14570391 -0.13478626
00000000: 305e a7bc 0000 0000 0000 0000 6833 15be
00000010: 6905 0abe

model/depthwise_conv2d_2/depthwise/ReadVariableOp f4 [1, 7, 7, 5]
-3.1635652 3.400958 -0.8799397 -1.3471493 -0.2145728 1.0453379 4.0277696 3.9233954
0.99015903 0.04086191 -0.16035871 4.1021004 -1.7813939 -3.9461462 -1.4211942 2.0305688
1.132629 -2.9491622 2.5110323 -1.2403415 -4.0174117 3.4165015 2.9011745 1.1345593
-4.0574174 0.13756138 0.9136069 -2.800944 -2.9577322 1.9447131 -0.901839 -2.4441261
2.5415099 -4.009297 -0.03256952 1.0993512 1.3559619 1.0369176 2.0266695 0.7661675
-3.0010598 -4.2808986 -3.60037 -0.37901992 -2.6586318 1.5945119 -2.6236806 -0.3924438
1.9217448 -1.9133102 0.09473246 4.280576 -4.008224 0.9666381 1.3657006 0.687033
3.9934585 -4.4020233 -3.6614947 -3.804508 3.0115821 -2.333211 2.6283658 2.7265604
-2.3230126 -2.4569075 0.6097686 4.5149403 -0.38245863 -2.7575848 -3.193021 -0.98052144
-2.9458706 0.70382303 -1.6397947 1.5305879 1.8290939 -0.1808122 -1.7992784 -3.3410368
1.8883662 -0.70378476 -3.3787355 -1.6972063 1.2224028 -3.64218 -3.9527068 3.8930857
-0.87113404 1.1198963 -3.3132572 -4.262266 3.881558 -0.076344214 -1.459108 1.7341126
1.2834201 -2.1402097 -2.133352 -3.4291382 0.6224622 1.9674515 -2.6340332 -1.32878
-2.83334 -0.89429516 1.5970724 2.5698607 1.0737685 -3.8597472 -0.44841936 3.5289836
-3.5156295 -3.9703274 -3.2794113 2.7833257 -0.42228264 1.0180076 -1.3791833 -2.466542
-2.3228493 1.5162946 3.0639145 1.6459783 -0.02943514 2.7838461 -4.1420603 3.512527
-0.78059435 -0.7661992 1.3918374 4.507572 -3.4438398 -0.27777973 -1.9855216 -2.9489856
3.8628063 -2.330555 0.00070553337 -4.019213 -1.5318211 3.0537028 -0.4815225 2.6477025
1.6411321 1.9820248 2.8102162 3.7248476 -4.0493665 -3.296315 -2.275385 1.1436871
-3.9297523 -2.4987812 -2.9795666 -3.5780728 -0.6692441 -2.3480315 -0.5105249 0.8828364
-0.1285877 -3.947105 -4.420562 -3.3949924 0.5825204 -0.17003182 -3.6611702 4.33942
1.8789228 -2.6298091 -4.0285077 1.0518136 2.1634152 1.9957397 2.5970166 -2.1398637
-4.271205 4.1109734 1.0234529 -1.6610283 -3.3309898 -1.1176986 2.2424135 -2.3225405
1.9623257 0.12644504 -4.34648 -3.851412 -0.9913804 -0.9870257 -3.3108196 -3.752055
1.3442498 2.7697823 -2.6821156 3.3654673 3.4628541 3.0248165 -3.587165 1.036249
-3.9632893 -0.06868445 -2.0736578 -1.8141977 -3.3376908 0.5095122 -0.2922336 -0.79893905
0.37158498 0.14427954 3.0166109 -2.9639943 2.4527855 2.289591 -1.0669037 -1.7957495
-1.1819144 0.8326223 -3.3192394 -1.9705606 -0.47797295 -3.7721758 3.3146694 -1.7863569
1.660061 -2.1031468 3.2337584 -0.90583557 -3.0145295 2.479432 -3.1734517 1.7079216
-1.0673265 -0.84845674 -0.14218089 -1.829076 3.1042993 -0.05296374 -0.12560368 -1.3590091
-3.8455076 2.5098014 4.327037 3.2247229 -1.6863933
00000000: da77 4ac0 4ca9 5940 ba43 61bf 636f acbf
00000010: f9b8 5bbe a2cd 853f 7de3 8040 e918 7b40
00000020: 107b 7d3f d15e 273d 1335 24be 6844 8340
00000030: b704 e4bf a98d 7cc0 b1e9 b5bf d7f4 0140
00000040: fdf9 903f 13bf 3cc0 c1b4 2040 83c3 9ebf
00000050: a38e 80c0 f6a7 5a40 d8ac 3940 3d39 913f
00000060: 5dd6 81c0 e4dc 0c3e 24e2 693f ab42 33c0
00000070: 7c4b 3dc0 5cec f83f ecde 66bf 906c 1cc0
00000080: 19a8 2240 294c 80c0 9e67 05bd 8ab7 8c3f
00000090: 2990 ad3f b7b9 843f f4b4 0140 8e23 443f
000000a0: 5d11 40c0 1ffd 88c0 766c 66c0 e60e c2be
000000b0: 0627 2ac0 f718 cc3f 62ea 27c0 65ee c8be
000000c0: bcfb f53f 59e7 f4bf 1803 c23d 7bfa 8840
000000d0: 5f43 80c0 9875 773f 47cf ae3f 65e1 2f3f
000000e0: d394 7f40 60dd 8cc0 ee55 6ac0 0f7d 73c0
000000f0: c3bd 4040 5453 15c0 2537 2840 f77f 2e40
00000100: 3dac 14c0 f93d 1dc0 cc19 1c3f 647a 9040
00000110: 9ed1 c3be 457c 30c0 755a 4cc0 7403 7bbf
00000120: 2589 3cc0 bf2d 343f cbe4 d1bf 4eea c33f
00000130: c01f ea3f d526 39be c14e e6bf 8cd3 55c0
00000140: fcb5 f13f 3d2b 34bf 343d 58c0 0e3e d9bf
00000150: b277 9c3f 7a19 69c0 26f9 7cc0 5128 7940
00000160: a402 5fbf c358 8f3f 680c 54c0 7c64 88c0
00000170: 726b 7840 5b5a 9cbd 0dc4 babf 67f7 dd3f
00000180: 1c47 a43f 32f9 08c0 d788 08c0 0077 5bc0
00000190: af59 1f3f 73d5 fb3f 0094 28c0 7715 aabf
000001a0: 7155 35c0 87f0 64bf de6c cc3f 9978 2440
000001b0: 3f71 893f 1906 77c0 3997 e5be deda 6140
000001c0: 1300 61c0 d819 7ec0 e0e1 51c0 0222 3240
000001d0: 6e35 d8be 134e 823f 1489 b0bf d3db 1dc0
000001e0: 90a9 14c0 f115 c23f 2d17 4440 6baf d23f
000001f0: f621 f1bc 892a 3240 c28b 84c0 3ecd 6040
00000200: 08d5 47bf a125 44bf ba27 b23f 083e 9040
00000210: df67 5cc0 2539 8ebe 9225 febf 2ebc 3cc0
00000220: 3838 7740 d027 15c0 8bf3 383a 659d 80c0
00000230: b712 c4bf de6f 4340 1e8a f6be f573 2940
00000240: 9e10 d23f fdb2 fd3f 95da 3340 e763 6e40
00000250: 6994 81c0 d3f6 52c0 e89f 11c0 5764 923f
00000260: 1081 7bc0 08ec 1fc0 38b1 3ec0 25ff 64c0
00000270: 9553 2bbf 2646 16c0 c3b1 02bf 9101 623f
00000280: 7eac 03be 5e9d 7cc0 3e75 8dc0 8e47 59c0
00000290: 0f20 153f d21c 2ebe 9d50 6ac0 87dc 8a40
000002a0: 8b80 f03f cb4e 28c0 89e9 80c0 d4a1 863f
000002b0: 6575 0a40 6674 ff3f 8535 2640 87f3 08c0
000002c0: b6ad 88c0 188d 8340 8100 833f 939c d4bf
000002d0: f02e 55c0 bf10 8fbf b483 0f40 81a4 14c0
000002e0: 7d2d fb3f cf7a 013e 5d16 8bc0 897d 76c0
000002f0: 1bcb 7dbf b7ad 7cbf 78e4 53c0 ab21 70c0
00000300: 6110 ac3f 1d44 3140 c8a7 2bc0 d163 5740
00000310: 679f 5d40 9896 4140 1d94 65c0 cfa3 843f
00000320: 88a6 7dc0 6faa 8cbd cfb6 04c0 a137 e8bf
00000330: ba9c 55c0 646f 023f a49f 95be 4587 4cbf
00000340: 6340 be3e 04be 133e 2710 4140 15b2 3dc0
00000350: 70fa 1c40 a988 1240 4d90 88bf 1fdb e5bf
00000360: f948 97bf bc26 553f 6b6e 54c0 543b fcbf
00000370: dfb8 f4be 546b 71c0 8b23 5440 58a7 e4bf
00000380: e17c d43f f599 06c0 e6f5 4e40 d7e4 67bf
00000390: 0dee 40c0 04af 1e40 d519 4bc0 2d9d da3f
000003a0: 289e 88bf 7634 59bf de97 11be 2a1f eabf
000003b0: d7ac 4640 82f0 58bd 409e 00be 03f4 adbf
000003c0: cc1c 76c0 96a0 2040 1677 8a40 dc61 4e40
000003d0: bcdb d7bf

model/depthwise_conv2d_2/depthwise_bias f4 [5]
-0.02537483 0.0 0.0 -0.1400554 -0.125889
00000000: e0de cfbc 0000 0000 0000 0000 af6a 0fbe
00000010: 0ce9 00be
