VOC2012/Model_V0_1.tflite (tflite, 3932 bytes, 8 tensors)

model/conv2d/Conv2D/ReadVariableOp f4 [2, 1, 1, 3]
0	0xbef93358	-0.48671985
1	0xbf5b4d2d	-0.85664636
2	0x3f81b283	1.0132602
3	0xbf7c1d1f	-0.98481935
4	0xbf178620	-0.59189034
5	0x3ea8d8b3	0.32977828

model/conv2d/Conv2D_bias f4 [2]
0	0xbcc0e5da	-0.023547102
1	0xbb915ff5	-0.004436488

model/conv2d_1/Conv2D/ReadVariableOp f4 [21, 1, 1, 4]
0	0x3f31e396	0.69487894
1	0xc04bef57	-3.1864831
2	0x403b5276	2.926908
3	0xc07d0de3	-3.9539726
4	0xbf371802	-0.7152101
5	0xbfad1ca4	-1.3524365
6	0x40343336	2.8156257
7	0xbd57adc6	-0.052655958
8	0x3ea4ec36	0.32211465
9	0xc0168563	-2.3518913
10	0x403aee7b	2.9208057
11	0x401d77a3	2.460427
12	0xbe401900	-0.18759537
13	0xbec50e0f	-0.38487288
14	0xc03ba193	-2.9317367
15	0x40120407	2.2814958
16	0x3ee05c2f	0.4382033
17	0xc00ce7db	-2.2016513
18	0x403bec99	2.9363158
19	0xc0273d1d	-2.613105
20	0x406f2db7	3.7371652
21	0xc06de284	-3.7169504
22	0xc020d9db	-2.5132968
23	0x40538b0d	3.305362
24	0x3fc09501	1.5045472
25	0xbf43df41	-0.76512533
26	0x404166d6	3.0219016
27	0x407c2741	3.9398959
28	0xc12fbc76	-10.983511
29	0x3f993c03	1.1971439
30	0x3f42f13e	0.76149356
31	0xc07bee08	-3.9364033
32	0x3ec86490	0.39139223
33	0xc0627ca4	-3.5388575
34	0xc022954f	-2.540363
35	0xbf07d8d8	-0.5306525
36	0x40bf35cf	5.9753184
37	0x40aa2d96	5.3180647
38	0x401b2007	2.4238298
39	0xc1077bc8	-8.46772
40	0x403d3ef3	2.956967
41	0x3e4c2cee	0.19939014
42	0xc0294f8a	-2.6454797
43	0xbf411776	-0.75426424
44	0xbcdb387e	-0.026760336
45	0xbfd26650	-1.6437473
46	0x403b58ff	2.927307
47	0xbf05248c	-0.5200889
48	0x3fa8216b	1.3135198
49	0x4041049a	3.0159059
50	0x40201f7f	2.5019224
51	0xc0196788	-2.396944
52	0xc0994030	-4.7890854
53	0xc064c5d4	-3.5745745
54	0x4016a79c	2.35398
55	0xc0130230	-2.2970085
56	0x407cbb44	3.9489298
57	0xc005d092	-2.0908551
58	0xc0074302	-2.1134648
59	0x40c4d3ec	6.1508694
60	0xc00b2927	-2.1743867
61	0x4082bad8	4.085308
62	0xc03e211e	-2.9707713
63	0xbe89e6e1	-0.2693396
64	0xc0a1bc2a	-5.0542192
65	0x3f957821	1.1677285
66	0x400ccf5e	2.2001567
67	0x405188e7	3.2739809
68	0xbfb30be7	-1.3988007
69	0xc0707be0	-3.7575607
70	0x402dd55d	2.7161477
71	0x4003f934	2.0620852
72	0xc03dc9dd	-2.9654458
73	0x405e8c30	3.4773064
74	0x4029a76a	2.6508431
75	0xbe6dd7f7	-0.23226915
76	0xbd048276	-0.03235098
77	0xc06ef1d7	-3.7335107
78	0xc0395671	-2.895901
79	0xbfb81f8e	-1.438463
80	0xbfa59619	-1.2936431
81	0x40308c05	2.758546
82	0xc042043b	-3.0315082
83	0xbed3ec8e	-0.41391414

model/conv2d_1/Conv2D_bias f4 [21]
0	0xbe9874c6	-0.2977659
1	0xbe934360	-0.2876234
2	0xbeb4ef06	-0.3533861
3	0x3e8cd8eb	0.27509245
4	0xbeb974d0	-0.36221933
5	0x3cc9b21d	0.024621064
6	0xbed86383	-0.4226342
7	0x3ef257d3	0.4733263
8	0x3e4ef16f	0.20209287
9	0xbf17efdf	-0.5935039
10	0x3d9b7205	0.07590107
11	0xbea99eff	-0.33129117
12	0xbeb9405a	-0.3618191
13	0xbcdcffc4	-0.026977427
14	0xbcb6c374	-0.022309996
15	0x3ed6bebf	0.41942403
16	0xba375300	-0.0006993264
17	0xbe776bdd	-0.2416224
18	0xbe1fee7b	-0.15618317
19	0x3e851969	0.2599595
20	0x3eafb0be	0.3431453

model/depthwise_conv2d/depthwise/ReadVariableOp f4 [1, 3, 3, 2]
0	0xc0221c1b	-2.5329654
1	0xbfd1f8ee	-1.6404092
2	0xc0f9a829	-7.8017774
3	0xc14b2f9a	-12.699121
4	0xc0977b64	-4.7338123
5	0x3fa9e5e3	1.3273281
6	0xc0b1bf6d	-5.5546174
7	0xc1327d66	-11.155615
8	0x403ba193	2.9317367
9	0x40670648	3.6097584
10	0xc0a23252	-5.0686426
11	0x3ec15640	0.37761116
12	0x3ed77c0c	0.42086828
13	0x401a0359	2.4064543
14	0xc08b4e4c	-4.3533077
15	0xc0d23afb	-6.5697
16	0x40adaa3b	5.42703
17	0x4165547b	14.333125

model/depthwise_conv2d/depthwise_bias f4 [2]
0	0x3db2ec3e	0.08736466
1	0xbc0c9890	-0.008581296

model/depthwise_conv2d_1/depthwise/ReadVariableOp f4 [1, 3, 3, 2]
0	0x40165114	2.3486986
1	0xc142ef48	-12.183418
2	0xc03fa0a4	-2.9941797
3	0xc1650959	-14.314782
4	0xc07e29f1	-3.97131
5	0x40b38820	5.610367
6	0xc0a58e66	-5.1736326
7	0xc156e843	-13.4317045
8	0xc10732c0	-8.44989
9	0x3fcf45b9	1.6193153
10	0xc066d6e4	-3.606866
11	0xc11e8442	-9.9072895
12	0xc00fecee	-2.248836
13	0x41310938	11.064751
14	0xc0a64a63	-5.1965804
15	0x41024439	8.141656
16	0x40875548	4.2291603
17	0xc096e869	-4.7158704

model/depthwise_conv2d_1/depthwise_bias f4 [2]
0	0x3f9b27b7	1.2121495
1	0xbc73e820	-0.014886886
