VOC2012/Model_V0_1.tflite (tflite, 3056 bytes, 5 tensors)

model/conv2d/Conv2D/ReadVariableOp f4 [1, 1, 1, 3]
0	0xbf72bb76	-0.9481729
1	0xbf37149d	-0.7151583
2	0xbe18c500	-0.149189

model/conv2d_1/Conv2D/ReadVariableOp f4 [21, 1, 1, 2]
0	0xc0d45371	-6.6351857
1	0x4003d588	2.059908
2	0xc15d9c64	-13.850681
3	0xc06ef514	-3.7337084
4	0x4117855a	9.470057
5	0x415e41e4	13.891087
6	0xc0b2d7cf	-5.588844
7	0x40580a0a	3.3756127
8	0xc17f54e7	-15.958228
9	0xc17243aa	-15.14152
10	0xc15a3b8c	-13.639538
11	0xc130621d	-11.023953
12	0x410640eb	8.390849
13	0x415a6059	13.648522
14	0xc17414ef	-15.255111
15	0xc0e1bf7c	-7.0546246
16	0xc04b73f1	-3.1789515
17	0xbffed775	-1.9909502
18	0x40fffec6	7.9998503
19	0xc12d2289	-10.820931
20	0xbead921d	-0.33900538
21	0xc0ccd295	-6.400706
22	0x3fb1248f	1.3839282
23	0xc1105e10	-9.0229645
24	0xc1590d26	-13.56571
25	0x40e02230	7.0041733
26	0xc084f424	-4.1548023
27	0x4016d57e	2.3567805
28	0xc1258a26	-10.346228
29	0xc0d73b74	-6.7260075
30	0xc00bc1da	-2.1837068
31	0xc0310236	-2.76576
32	0x3e41592f	0.18881677
33	0xc14538ac	-12.326336
34	0xc1681ddb	-14.507289
35	0x415bb8c7	13.732612
36	0x413bb395	11.731343
37	0xbede4172	-0.43409306
38	0x414d2351	12.821122
39	0xc16109d0	-14.064896
40	0xc1792f78	-15.574089
41	0xc176f833	-15.4355955

model/conv2d_1/Conv2D_bias f4 [21]
0	0x3f874e90	1.057085
1	0xbedf5211	-0.436173
2	0xbefbeaaa	-0.49202472
3	0xbea2bcb0	-0.31784582
4	0xbefa23d0	-0.48855448
5	0xbec4ad88	-0.38413644
6	0xbf065421	-0.5247212
7	0xbe79c1b0	-0.24390292
8	0xbe85bea0	-0.26121998
9	0xbe28d2fc	-0.16486734
10	0xbf11ebae	-0.57000244
11	0xbeebb948	-0.46039796
12	0xbe9968a1	-0.29962638
13	0xbf0cbec4	-0.54978585
14	0xbef04bd4	-0.46932852
15	0x3eeae4a2	0.45877558
16	0xbed6c8e7	-0.4195015
17	0xbf07e13b	-0.5307805
18	0xbed9bbdd	-0.4252614
19	0xbef26ade	-0.47347158
20	0xbedc5023	-0.4302989

model/depthwise_conv2d/depthwise/ReadVariableOp f4 [1, 3, 3, 1]
0	0xc103c540	-8.235657
1	0xc02a6809	-2.6625998
2	0x4135ab30	11.354294
3	0x418528aa	16.644855
4	0xc11e2cb4	-9.885914
5	0x416c25f9	14.759271
6	0x41089d5e	8.53842
7	0x41219507	10.098884
8	0xc1812658	-16.143723

model/depthwise_conv2d_1/depthwise/ReadVariableOp f4 [1, 3, 3, 1]
0	0x4188445e	17.033382
1	0xc093f115	-4.623179
2	0xc06153e1	-3.5207446
3	0xc1130ef0	-9.191147
4	0xbda40129	-0.08008034
5	0xc186282f	-16.76962
6	0xc1324e53	-11.144122
7	0xc13f853e	-11.97003
8	0xc188d623	-17.104559
