VOC2012/Model_V0_1.tflite (tflite, 25680 bytes, 40 tensors)

model/conv2d/Conv2D/ReadVariableOp f4 [4, 1, 1, 3]
00000000: b989 1c40 6154 523f a0e7 b63e 6251 1241
00000010: 8bbf ecc0 65e4 bf3e 22b0 09c0 465d d4bf
00000020: fb89 513e 9769 c13e d4fd 1440 2650 5d3f
2.445906 0.8216 0.3572359 9.144869 -7.3983817 0.3747894 -2.1513753 -1.6590965
0.20462792 0.3777587 2.3279924 0.8645042

model/conv2d/Conv2D_bias f4 [4]
00000000: 6d07 8ebf 7407 53bf 8c5f 8e3f 4cd5 85bf
-1.1096016 -0.8243325 1.1122909 -1.0455718

model/conv2d_1/Conv2D/ReadVariableOp f4 [8, 1, 1, 4]
00000000: 1d80 39bf 33cc 80bf 12e5 8d3f f598 a63e
00000010: 6059 883e 47d4 1bbf 9dfd 713e 6f59 8e3f
00000020: 37a8 6ebf 3335 993f 615a fe3d 07fa 09be
00000030: 64fb 1c3f 21a0 33bf 9646 e7be 8499 803f
00000040: 683b 383f ef7a 71be b6dd 833e f8d9 6a3f
00000050: 6c9a a63d a125 19bf ee62 febe f16e 67bf
00000060: 7886 2b3f 6e71 253f a63d 6ebf fb54 3a3f
00000070: 40a7 393f b026 453f 73d3 10be f7b7 8bbf
-0.7246111 -1.0062317 1.1085532 0.32538572 0.26630688 -0.60870785 0.23631902 1.1121043
-0.93225425 1.196936 0.12419582 -0.13474284 0.6132109 -0.7016621 -0.4517104 1.0046849
0.71965647 -0.23582052 0.2575509 0.91738844 0.081349224 -0.5982304 -0.49684852 -0.9040366
0.6700206 0.64626205 -0.9306282 0.7278592 0.7252083 0.7701216 -0.14143161 -1.0915517

model/conv2d_1/Conv2D_bias f4 [8]
00000000: 4e52 4bbd 446e d7be 55a2 17be f752 fcbd
00000010: 7208 1dbf ee98 413f a88d 9dbe 800a 7539
-0.04963904 -0.42076313 -0.14808019 -0.12320512 -0.6134101 0.7562398 -0.30772138 0.00023368932

model/conv2d_10/Conv2D/ReadVariableOp f4 [5, 1, 1, 2]
00000000: 6742 adbf 49a6 c23e 49fc 9dbf 29bb 3b3f
00000010: c588 103e 8a2e 953f 119a d7be c025 89bf
00000020: eed9 9fbf deb3 423f
-1.3535889 0.3801749 -1.2342616 0.7333246 0.14114673 1.1654828 -0.4210973 -1.0714645
-1.2488382 0.76055706

model/conv2d_10/Conv2D_bias f4 [5]
00000000: 6a48 9b3e 0d1d 153e 1237 ebbe 2e85 043f
00000010: aef8 123e
0.30328685 0.14561863 -0.45940453 0.51765716 0.14352676

model/conv2d_11/Conv2D/ReadVariableOp f4 [3, 1, 1, 72]
00000000: 5a1e 483e ddfd 8b3e b3a3 06be eeeb 3abe
00000010: b37e 41be 4e85 b5bc 073c 4d3e 7af1 6c3e
00000020: 04eb 14be 97ea 6c3e 0f5a 9f39 584a 05be
00000030: 12c0 2d3e 2440 4bbe 2553 ea3d 10d7 a3be
00000040: 1e2d 3d3e bc7c 34be 7b0e 9a3e 2195 c63d
00000050: 5a8e 96bd 32dc 7abe 7823 b4bd d1d8 bebd
00000060: 1f5d 763e 14cd d53d 6f05 01be fd36 84be
00000070: 0b87 4739 a24d 4c3e 8f1d a13e f726 82bc
00000080: 20c4 fb3c 884f a9be f8f5 afbd 4ec6 663e
00000090: bd93 a2be b09f 88be b5a9 47be fe80 a93e
000000a0: 1f59 74bd 9209 993e 82bf 563e ed17 63bd
000000b0: f120 e5bd b6eb 623e 7d93 de3d 6014 583e
000000c0: 2ddc 62bd fedc 89be 45f2 9d3d eb27 21be
000000d0: eeee 76be 0b0e 3abe 9ca7 2e3e 9a79 a13e
000000e0: d20e 8fbe 99ed e33d 3cb0 87be 8fbb 1f3e
000000f0: e8d2 9fbe 01c2 143e a22c 9ebe 79e2 a5be
00000100: 19ba 9abe 139f 7bbc 56c7 693e b5df 1dbe
00000110: d718 93bd 951d 57bd fee6 833d 36b7 033e
00000120: bc6c 27be 80e7 d4bc 4061 273e 954d 20be
00000130: 84ce 3b3e f5dc 873e 5f2a 223e b057 0a3e
00000140: 08cd e53d e986 993e 8836 e03d 2e6c 4a3e
00000150: b9a9 533d dc38 c83d 57a5 9abe d558 84be
00000160: cc45 683b 6615 8bbe d7b3 ffbd be5f 9d3e
00000170: 1e41 b23e dc3e 3c3e 1c74 bb3e 3d6c 773e
00000180: 6641 adbe efb8 45be 5e50 aabc 2397 ba3e
00000190: 3b23 c1bd b7ec b1be 1cfd 7ebe 6024 85bd
000001a0: 02c2 27bd ae2c 9b3d 3a0b 903e 95ef c53d
000001b0: de08 113e b3e6 fbbd 40de b63d 8b32 b9bd
000001c0: ac77 7e3e 0e35 d0bc 12af 3e3e 74ee 803d
000001d0: 1b0d 8c3e c756 b93d 9370 35bd c80b 99be
000001e0: 9a4c 603d 5467 313e 2610 aebe 1518 ab3e
000001f0: f56e 4d3e 0cf1 243e 716c a23e c5c4 24bb
00000200: ff64 123e 4387 e4bd 9765 df3d 9bbe 013d
00000210: 3ea0 51be c505 afbe 5427 9a3e e321 4e3d
00000220: 8ccf 89be 8629 c9bc b65f 1b3d 5098 a7be
00000230: 1e10 adbd 6a9c e03d 5df2 3d3e f438 a03e
00000240: 82eb 5d3e 168e 793e 5098 5fbb 8557 40be
00000250: d70d 74be 03ae 32be 2bf8 9e3e 8a0c 573e
00000260: 0d95 5c3e f46b 9a3e 2448 64bd a4e1 66be
00000270: 2ef6 7fbe e233 3a3e b2c8 a93d 3f52 833e
00000280: 587f d6bd edf9 76be b1ba 4e3e de30 883e
00000290: ee0e 713e 100c 22be 1ef7 45bd 4545 13bd
000002a0: f352 a2be 56bf 01bd 826d f13d cc25 67bd
000002b0: c6aa 8a3e cda0 15be e796 0c3e 1326 41be
000002c0: 58f8 b9bd b8e2 1ebe ec88 20be 1844 41bd
000002d0: 1b3c 6fbd 9f88 843e 658f dfbd a128 e83d
000002e0: 6ef2 80be b10a 0abd 88e5 4fbe 2662 b73c
000002f0: 1268 8b3e 472f 99be 707a 603e 95c0 4c3e
00000300: f62f 1a3d 3b5b ef3c faa1 803c be39 df3d
00000310: 0b04 033e e8dd 8bbd 6fdc 69bd 902b dfbd
00000320: 2d30 abbe 2d51 423e ec4c dfbd ed14 f1bc
00000330: 9d91 f4bd cd96 2abe d76a a4be 30f6 b03e
00000340: 0b7b 80be d3ad 4abe b5cd 92be adaf 27be
00000350: 114c f6bd 821e 86bd ac74 bb3d 60ec 8ebe
0.19542828 0.2734212 -0.13148384 -0.18254063 -0.18895988 -0.022158291 0.2004243 0.23138991
-0.14542776 0.23136364 0.00030393942 -0.13016641 0.169678 -0.19848686 0.1144164 -0.32000017
0.18474242 -0.17625707 0.30089173 0.09696413 -0.0735137 -0.2449806 -0.087958276 -0.09318698
0.2405896 0.10439506 -0.12599729 -0.25823203 0.00019028426 0.1995149 0.31467864 -0.01588772
0.030733168 -0.3306849 -0.08591837 0.22536585 -0.3175334 -0.26684332 -0.19498332 0.33106226
-0.059655305 0.29890114 0.20971492 -0.05544274 -0.11187924 0.22160229 0.10867975 0.21101522
-0.055385757 -0.26926416 0.07712225 -0.15737884 -0.24114582 -0.1816942 0.17056125 0.31538087
-0.27940995 0.111293025 -0.26501644 0.15598892 -0.31215596 0.14527132 -0.30893427 -0.32399347
-0.30220106 -0.0153577505 0.22829947 -0.15417369 -0.07182472 -0.052518446 0.06440543 0.12862858
-0.16350073 -0.025989294 0.16345692 -0.15654595 0.18340498 0.26535764 0.15836476 0.13510013
0.11220747 0.2998574 0.10947901 0.1976783 0.051675532 0.0977647 -0.3020427 -0.25849023
0.0035441993 -0.27164763 -0.124854736 0.30737108 0.34815305 0.18383354 0.36612022 0.24162383
-0.33838958 -0.19308828 -0.020790275 0.36443433 -0.09430548 -0.34750912 -0.24901241 -0.065010786
-0.040956505 0.07576881 0.28133565 0.09664837 0.14163539 -0.12299862 0.089291096 -0.090428434
0.24850339 -0.025415923 0.18621472 0.06295481 0.2735375 0.090497546 -0.044296812 -0.298918
0.054760553 0.17324573 -0.33996695 0.3341681 0.20061858 0.16107577 0.3172336 -0.0025141698
0.1429634 -0.111586116 0.109080486 0.031675916 -0.20471284 -0.3418409 0.3010813 0.050325286
-0.26916158 -0.024555933 0.037933074 -0.32733393 -0.0845034 0.109673336 0.18549486 0.31293452
0.2167187 0.24370608 -0.0034117885 -0.18783386 -0.23833404 -0.17449193 0.31048712 0.21000877
0.21541233 0.30160487 -0.05573286 -0.22547013 -0.24996254 0.18183854 0.08290233 0.25648686
-0.10473508 -0.24118777 0.20188405 0.26599783 0.23540851 -0.15824914 -0.048331372 -0.035954732
-0.3170391 -0.031676613 0.11788465 -0.05643253 0.27083415 -0.14612122 0.1372944 -0.1886218
-0.09080571 -0.15516174 -0.15677232 -0.04718408 -0.05840693 0.25885484 -0.10916022 0.11335874
-0.2518496 -0.033701602 -0.20302403 0.022385668 0.27227837 -0.29918882 0.21921706 0.19995339
0.037643395 0.029218307 0.015702236 0.10899685 0.12794511 -0.06829435 -0.057094987 -0.10896981
-0.33435193 0.18976279 -0.109033436 -0.029428924 -0.11941836 -0.16659088 -0.32112762 0.34562826
-0.25093874 -0.19792871 -0.28672567 -0.16375609 -0.12026227 -0.06548788 0.09153113 -0.27914715

model/conv2d_11/Conv2D_bias f4 [3]
00000000: 48fe a33e 5685 6fbf 5646 bb3e
0.3202994 -0.9356283 0.365771

model/conv2d_12/Conv2D/ReadVariableOp f4 [5, 1, 1, 8]
00000000: d413 9c3e a735 d8be 50c0 3c3f 90aa 94be
00000010: ec29 ee3e 5642 1b3f 8395 063f cb1c f53e
00000020: 3b91 9fbf 9d58 99be 9474 a13f e8ee 33bf
00000030: a883 03be c2fa afbe 0a15 26bf 374d 9c3f
00000040: 7a1b ed3e effc 033f 2c7f 083f 7027 c73e
00000050: bdc2 a83e fabb 8b3c a19f b63e 482b 0c3f
00000060: 8ec7 8a3e 211f cb3e 17ca 0abf 0ba8 1abf
00000070: 1ba8 933d 1f01 2c3f 50a1 11bf 0425 8d3e
00000080: c101 533d 491c b0bd 9237 063f b1ef f2be
00000090: ab22 dbbe 62c9 09bf ac45 edbe e3d6 69be
0.30483878 -0.42228433 0.73730946 -0.2903638 0.4651636 0.60648096 0.52571887 0.4787353
-1.2466196 -0.2995042 1.2613702 -0.70286417 -0.12843192 -0.34371 -0.64875853 1.2211064
0.46310025 0.5155782 0.5331905 0.38897276 0.32961074 0.017057408 0.35668662 0.5475354
0.27105373 0.39672187 -0.54214615 -0.60412663 0.07209798 0.6718921 -0.5688677 0.27567303
0.051515345 -0.08599145 0.52428544 -0.47448495 -0.42799887 -0.5382291 -0.46342218 -0.22835879

model/conv2d_12/Conv2D_bias f4 [5]
00000000: c5db 47bf a4ce 953e 0b87 85bf 9a7e 293c
00000010: 187c db3e
-0.78069717 0.29259217 -1.0431837 0.010345126 0.42868114

model/conv2d_2/Conv2D/ReadVariableOp f4 [4, 1, 1, 3]
00000000: 10e8 823f 5e69 3c40 a118 9abe 31ea 45bf
00000010: 05de 84bf c7c1 e6bf 8460 fa40 5954 58c1
00000020: b911 ad40 0814 b63f df5b 4fbf 51e3 4040
1.022707 2.943931 -0.30096915 -0.7731047 -1.0380255 -1.8027886 7.8242817 -13.520593
5.4084134 1.4224863 -0.8099956 3.0138743

model/conv2d_2/Conv2D_bias f4 [4]
00000000: adda 8abf 8912 873f 5611 c3bd bc5a 8bbf
-1.0847985 1.0552531 -0.09524791 -1.0887065

model/conv2d_3/Conv2D/ReadVariableOp f4 [12, 1, 1, 12]
00000000: 5279 8e3e ae96 fdbe 6518 16bf 407a eb3d
00000010: 217b 8d3e b809 f73e b6f3 4d3e 17a3 1a3f
00000020: dde8 62be 831d 8c3d 2829 24be 80e7 433e
00000030: feba 29bf 542b 36bf 2e58 013f f438 613e
00000040: 60f7 00be fb06 7c39 ebfb edbd cd15 b93e
00000050: d893 10bf 13a0 7f3e 10d9 013f 8ef0 183f
00000060: e33d 17bf 2fca f43e 6fe7 1cbe 851c 553e
00000070: f858 21bf 03f5 27bf 6187 8cbc 55e4 04be
00000080: b567 553e 8be1 063f c764 2c3d ee07 b6be
00000090: e370 09be 38fc 013f 10d2 323e 9812 debe
000000a0: 8c9d 4f3f a35b dcbe 0aba 783f a8c7 6e3f
000000b0: 8ab0 b13d 19c1 a13e 335a e7be f965 b93e
000000c0: 2270 e53e 1a4b dcbe 37f1 f33d 5bdf 8cbe
000000d0: 7bbf cf3e 0551 01bf e179 b83e 1b68 b93e
000000e0: 3433 d63c 8b57 b7be 2e95 383e 9572 e83e
000000f0: 151d 933e a867 753e cd3e 533f 4f3c 2cbf
00000100: 9cce 18be a6d6 c4be fec5 ce3e 2afd 3f3f
00000110: a0d0 90be aad4 ce3e f5b8 95be 6429 bdbe
00000120: 1c73 3b3f 0cfd 0abf 1208 25bf 731b c3bd
00000130: 5596 a8be 58f3 f13d 09d7 263f 1bed 423e
00000140: e4fa 523f 5281 f23e 2d4e 2d3f 37d0 07bf
00000150: 9b9f e23e 509d ebbe 70a6 8fbe d346 fc3e
00000160: f11d 21bf 781e 143f 4b32 c43e 056c 5c3e
00000170: 215f 57be c7fe 13bf b2e7 933e acaf c03e
00000180: 20a8 babe 598a bfbe d474 0e3f d257 e5be
00000190: 002b b1be 1c2e f93d 15d9 c13d 6442 94be
000001a0: 654b a9be 31df db3d 4b35 66bd 59ef c43e
000001b0: 0447 adbe 9107 8c3e 0ed5 0f3f 039b 05bf
000001c0: 72f1 e6be 85bc 86be fdd6 55be be7d ff3e
000001d0: 290c 503e f87d bfbe 6b4e fd3e 306a 333f
000001e0: 460a c4be 4489 4cbf 9386 45bf fb0d d7be
000001f0: 1da5 463e eb5f f13e 49f6 3a3f 65c0 cdbb
00000200: c0dc 34bf 48bc 2d3f e8fc 10bf e3c9 4d3e
00000210: 577f 63be 1041 81be 4796 52bf 5180 9bbe
00000220: d713 043e ad12 58be 9e99 d1bd 45af 353f
00000230: 833b 08bf a74c fb3e 9780 cb3e ca79 40be
0.27826935 -0.49529022 -0.58630973 0.11497927 0.27633002 0.48249602 0.201125 0.60405105
-0.22159143 0.068415664 -0.16031325 0.19131279 -0.6630095 -0.71159863 0.50525177 0.21994382
-0.12594366 0.00024035193 -0.11620315 0.36149445 -0.5647559 0.24963407 0.50721836 0.5974206
-0.59078807 0.47810504 -0.1532266 0.2081166 -0.6302638 -0.65608233 -0.017154397 -0.12977727
0.20840342 0.526879 0.042088296 -0.35552925 -0.13421969 0.5077548 0.17462945 -0.4337356
0.8109977 -0.43038663 0.97158873 0.932734 0.0867625 0.31592634 -0.45186004 0.3621061
0.44812113 -0.43026048 0.119112425 -0.27514157 0.40575776 -0.5051425 0.36030486 0.3621224
0.026147462 -0.35808977 0.18025658 0.4539992 0.28733125 0.23965323 0.825177 -0.67279524
-0.14922565 -0.38445014 0.4038543 0.7499567 -0.28284168 0.40396625 -0.29242674 -0.3694564
0.7322252 -0.5429237 -0.6446544 -0.0952672 -0.32927194 0.11813992 0.6517187 0.19035761
0.8241408 0.4736429 0.6769741 -0.53052086 0.44262394 -0.46018457 -0.2805667 0.49272785
-0.6293631 0.5785899 0.3831962 0.21525581 -0.21032383 -0.57810634 0.28887707 0.37634027
-0.36456394 -0.37410238 0.55647016 -0.44793564 -0.3460312 0.12166998 0.09465233 -0.28956902
-0.33065334 0.1073593 -0.056203168 0.38463858 -0.33843243 0.27349523 0.5618447 -0.52189654
-0.45106083 -0.26315704 -0.20882793 0.4990062 0.20317139 -0.37400794 0.4947389 0.70083904
-0.38289088 -0.7989695 -0.7715847 -0.42002854 0.19398923 0.47143492 0.7303205 -0.0062790387
-0.7064934 0.6786542 -0.56635904 0.20096545 -0.22216545 -0.2524495 -0.82260555 -0.30371335
0.12898193 -0.21100874 -0.10234378 0.70970565 -0.5321581 0.4908192 0.39746544 -0.18796459

model/conv2d_3/Conv2D_bias f4 [12]
00000000: a447 85be d8bb 8a3d c962 b33e 5110 74bf
00000010: 669f 47be 1688 70be 7b72 e7be 9498 f5bd
00000020: fd3d e93e 8ee0 92bd c3df 053f 5fe0 a33e
-0.2603122 0.067741096 0.35036305 -0.95337397 -0.194944 -0.23489413 -0.4520453 -0.119919926
0.45555106 -0.07171737 0.5229456 0.3200712

model/conv2d_4/Conv2D/ReadVariableOp f4 [16, 1, 1, 12]
00000000: a5c4 3e3b 7bfc adbd 9025 d73d a9f3 203e
00000010: 45b5 c93d 65cc 603f 76ff 5f3f f9cf d0be
00000020: 0fb8 07bf aadf 893e 5778 803d 4f6b 6a3f
00000030: 1143 a73e 2ad9 eb3e 6868 da3e 01e7 a93e
00000040: f131 383f 5587 a23d a914 c93e 261d 253d
00000050: 1c04 01bf 3df3 19bf 5fdb 2c3e de2c 0bbf
00000060: b4dd a53e be7e f1be c6a6 d33e 26ba d5be
00000070: 187c 3d3e 5f9b 423e 8ee6 d03e 0221 293e
00000080: 9a0b c9be d413 37bf 3aef 32bf 69c0 cf3d
00000090: be8b d9be 9710 13be 44cc f4be 27dc 15bf
000000a0: 61ff 01bf f1cf 943e 73f3 08be 7cf3 043f
000000b0: e448 913e b041 c4be 9d81 15bf 7cd1 df3e
000000c0: 073e b13e f827 d7be 9f99 e63e 70cb 273f
000000d0: 5a03 253d ce19 f53e a972 0ebe a417 a13e
000000e0: 9f47 103f 3a06 69be 166b 8c3e c928 f73d
000000f0: e44f 05bf 9899 173f 0844 d3bd aa73 12bf
00000100: a908 f2be 99e2 d9be 5f30 9d3e 4ab0 143f
00000110: 9ed3 9d3e db09 7a3e 7e08 debe e8ef c6be
00000120: b878 9f3e f49e 0b3f 09b5 a63e 0b7e 263e
00000130: 4e33 ecbd 6bee 87be edcd 19bf 7b69 16bf
00000140: eca4 f6be 984d ac3e ba83 47bf f379 513e
00000150: e74e efbe ec60 403f 4732 96be 5a78 063f
00000160: d288 2bbc c7e3 d93c ca13 313f 819a 203e
00000170: a2ba 273e 84a2 edbe bd6b 2ebf 70ae 383e
00000180: 02b1 5a3f dab2 923e 95e2 613e 1b73 14bf
00000190: e4e4 333e 1e29 113f ac57 61bf 7744 cfbe
000001a0: 3b97 03bf d9cd 14bd 488c fdbe a68a d83e
000001b0: 34cd fd3d f2e0 ad3e aa4a d2be cd2c 87bd
000001c0: 5fa9 26bf 00e7 1b3f 7caa 003d 64cb 26be
000001d0: 0d9d f53e ccdb 4d3f a224 b4be f21d babe
000001e0: 13c0 61be 73cf 403f 3a21 803e 6639 353f
000001f0: 4449 b2be 952f 08bf 8bc8 08bf 7022 cebc
00000200: 0491 a03e 75c9 aebe 38d1 df3e 1411 d5be
00000210: cb63 01bf da3c 1abf 0536 cc3d 8092 b03d
00000220: b400 9abe 21ef e33e 8509 4c3f 885c 46bf
00000230: 0813 393f 9dfe 123e d87f 0b3f 642b 323f
00000240: 79c5 063e d84d 95be 5f14 89be f292 b53e
00000250: 82ce 9a3d 64a8 51bf c221 38bf bc56 583f
00000260: 67fe 163f e811 7f3c ce3b d83e 2332 1abf
00000270: 2678 bfbe 9383 fa3e a14f a9be c33e fbbe
00000280: 24d0 4fbe b77e eebe e30e 58be 9ba6 c43d
00000290: db57 c23e b413 913d acc0 873e 2696 ce3e
000002a0: ce39 a5be 8a0c 183f 4823 843e 8843 65bd
000002b0: eb64 2bbf f9cd 03bf 1afc 563f 6c71 34bf
000002c0: 2ae3 703e a333 0cbf ad49 48bf 50a3 4bbf
000002d0: 3c71 553e 2bc2 67bf 7446 9b3d 2051 e0be
000002e0: 8b41 483c 0c98 d73e d3cc 003f 54aa 403e
000002f0: 5c2c b6bd cf4e 103f a24c 0ebf e7e8 d63e
0.0029108908 -0.084954225 0.10505211 0.15717949 0.098490275 0.8781188 0.8749918 -0.4078367
-0.53015226 0.26928455 0.06272953 0.9156999 0.32668355 0.4606412 0.4265778 0.33184054
0.71951205 0.07935969 0.39273575 0.040311 -0.50396895 -0.6013678 0.16880558 -0.54365337
0.3239571 -0.4716701 0.41338176 -0.41743582 0.1850437 0.19004582 0.408009 0.16516498
-0.39266664 -0.7151463 -0.6989628 0.10144121 -0.42489427 -0.14361797 -0.47812092 -0.5853905
-0.507803 0.29064897 -0.13374119 0.5193403 0.28375924 -0.38331366 -0.584009 0.4371451
0.34617636 -0.4202268 0.4503908 0.65544796 0.0402864 0.4787125 -0.13910927 0.3146335
0.56359285 -0.22756281 0.2742545 0.12068326 -0.5207503 0.5921874 -0.1031571 -0.5720774
-0.47272232 -0.42555693 0.30700967 0.58081496 0.30825514 0.24417822 -0.43365854 -0.3885491
0.3114679 0.5453942 0.32559994 0.16259019 -0.11533223 -0.26549086 -0.6007984 -0.587547
-0.481727 0.3365295 -0.77935374 0.20456676 -0.46739885 0.7514789 -0.29335234 0.5252739
-0.010469632 0.02659787 0.6917082 0.15683939 0.16379789 -0.46413052 -0.68133146 0.18035293
0.8542634 0.28652078 0.2205909 -0.57988137 0.17567784 0.56703365 -0.880244 -0.40481922
-0.51402634 -0.036329124 -0.4952109 0.4229328 0.12392655 0.33960682 -0.4107259 -0.06600342
-0.6510219 0.60899353 0.031412587 -0.16288525 0.47971383 0.8041351 -0.351842 -0.3635097
-0.22045927 0.7531654 0.2502535 0.7079071 -0.34821522 -0.53197604 -0.53431004 -0.025162905
0.31360638 -0.34138075 0.4371431 -0.41614592 -0.50542897 -0.602491 0.09971241 0.08621693
-0.3007866 0.44518378 0.79702026 -0.7748494 0.72294664 0.1435494 0.5449195 0.6959746
0.13161267 -0.29160953 -0.26773354 0.35463673 0.075589195 -0.8189757 -0.7192651 0.84507346
0.5898194 0.015568234 0.42233127 -0.6023275 -0.37396353 0.48928508 -0.33068565 -0.4907132
-0.20294243 -0.4658105 -0.21099429 0.0960209 0.37957653 0.07083836 0.26514184 0.4034893
-0.32270664 0.59394133 0.25808167 -0.055972606 -0.66950864 -0.51486164 0.83978426 -0.7048557
0.23524156 -0.5476629 -0.7823742 -0.7954607 0.20843977 -0.9053065 0.07581797 -0.43811893
0.012222658 0.4210819 0.50312537 0.18814975 -0.0889518 0.5637025 -0.5558568 0.41974565

model/conv2d_4/Conv2D_bias f4 [16]
00000000: e25b 57bf 624f f9be 84e6 4e3e dfee 0b3f
00000010: 0a94 5ebf f821 be3e a800 b53e 6f79 25be
00000020: 2b70 a43d aacc 98bd baf3 cf3c 51bf e6be
00000030: 17c9 133e d1fc 2f3e d52a 573f 8c30 17be
-0.8412458 -0.48693377 0.20205122 0.54661363 -0.8694464 0.3713529 0.35352063 -0.16159604
0.08029207 -0.074609116 0.025384773 -0.45067838 0.14432178 0.17186286 0.8404973 -0.14764613

model/conv2d_5/Conv2D/ReadVariableOp f4 [4, 1, 1, 12]
00000000: 2066 17bf b4c4 993e 7b12 f8be ab34 2c3f
00000010: 187f 0abd 5364 ea3e 32c7 dc3e 678d ca3e
00000020: bb83 c63d 8c3f 3dbf d7fe 3a3f 126c a4bd
00000030: 2fba 023e 3697 49bf b3c5 883e d025 59be
00000040: 57ce 223f 960c 44bf 72e3 493f d0c1 dcbe
00000050: ce19 293f 0e6c 12be 17de 3e3f 6b95 44bf
00000060: 2b72 ae3d 2f98 ecbe 0aa8 c93e 4894 383e
00000070: 0255 cd3e d0d1 e9be 88e4 20be 667c 823b
00000080: 3ab1 84be 2da1 e8be b4e7 f53e 6b78 8d3d
00000090: 50e1 cabd d4e1 67bf 5a0b 33be fd17 e0be
000000a0: df9c 3d3f 63c5 7ebd ac07 813e 5697 87be
000000b0: a35c 1d3f aa34 2dbe 4094 0c3f 1178 5dbf
-0.59140205 0.30032885 -0.484516 0.67267865 -0.033812612 0.45779666 0.43120724 0.39561006
0.09693094 -0.7392509 0.73045105 -0.08028425 0.12766336 -0.78746355 0.26713333 -0.2120583
0.635961 -0.76581705 0.7886268 -0.43116617 0.66055 -0.14299032 0.7455763 -0.76790494
0.085178696 -0.46209857 0.39386016 0.18025315 0.40103918 -0.45667887 -0.15712178 0.0039821146
-0.25916463 -0.45435467 0.48028338 0.069077335 -0.09906256 -0.9057896 -0.17484799 -0.43768302
0.7406749 -0.06219996 0.25201166 -0.26482648 0.6146948 -0.16914621 0.5491371 -0.8651133

model/conv2d_5/Conv2D_bias f4 [4]
00000000: cdd9 dabe e09c 3e3c c423 e13d 907d 933e
-0.42744294 0.011634082 0.1099315 0.28806734

model/conv2d_6/Conv2D/ReadVariableOp f4 [24, 1, 1, 20]
00000000: 5d13 a9be 0cbb df3e bd0b c2be 6320 10bf
00000010: 133e 0e3f 89cd 80be 487a eabe 0068 ac3e
00000020: 9a79 2fbf 5de6 d63e 6933 553e fb07 093f
00000030: 5079 8dbd dbf0 d53e 6d39 97bd 8344 fdbe
00000040: 1a26 413e da57 84bb 3663 16bf 6f8f 303f
00000050: 2f44 35bf dc00 d9be 458a 5b3d 5ff4 d03e
00000060: dfb6 403e 1612 f43e 0d57 19bf 3c6d 9e3e
00000070: ce29 0d3d 9ed9 1dbf 41ec 14bf 8424 9bbe
00000080: 95f1 993e 8223 82be a0c8 85be 22c4 7ebd
00000090: e187 fc3e ccaf 513e 7cf7 10bf 1c12 673e
000000a0: d617 5ebe 8dc3 d7bd d7ea a83e 3f00 503e
000000b0: ea28 85bd 2367 03bf a83c b8bb 47c4 2dbe
000000c0: d610 bf3d 7231 00bf a2a0 f4be 3d09 e93e
000000d0: d5f0 33be de9f 27be 8920 bbbe 0d8d 07bf
000000e0: c646 f2be c4cd ab3e 0a3e ec3d 9666 ae3e
000000f0: 4e82 da3e a4aa 143f cef6 263f c3c4 21be
00000100: 5276 333f 282b d4be d564 1d3f e0d3 11be
00000110: 2d03 d6be 263a 04bc a30f 94be 2006 f43e
00000120: dcc0 c93e f0a8 c93e 29d2 b2be fd15 cd3e
00000130: 5a69 d83e f8f8 63be a306 3a3e 3812 00bf
00000140: 5c9f 65be 51c4 04bf 9eca adbe 09e2 103f
00000150: a652 6b3d 3d8a 3dbf 44d1 d4be 42d7 fb3e
00000160: 76d1 28bf 41ea e5be 3c09 393e cf41 3e3f
00000170: 0300 143f 12b8 32bf fd7a 20be b555 adbe
00000180: b155 bcbe 8ca8 e6bd 26b5 693e 8cbc 473e
00000190: 0b27 82be f8ae eb3e 6ae6 a7ba 3c3f c6be
000001a0: f317 903e 8d71 90bc 8fed be3e 63af 17be
000001b0: 7ee6 d8be 9f21 d7be 96bb 023e f40b febe
000001c0: 330e 4fbe d2ee 133f 444d 75bd a2ba ac3e
000001d0: 8cc6 29bf 107f 14bf b369 e23e f091 043e
000001e0: 4377 2d3f 0205 153f 272a 443f 8afa c83a
000001f0: cc83 823e 3d02 edbe b897 f93e c160 dc3e
00000200: 7794 25bf c1f4 173f d98e e6be cd61 2cbf
00000210: 801f 473f 46fe 5ebf 6c40 c73d 4b7e 4bbe
00000220: cb11 853e 5bc0 71bd d640 a5be f61f 32bf
00000230: 3286 96be 9034 90bd fecc 86bd b438 763e
00000240: 8b14 bc3e dd4b 153e 01d3 5ebb f200 fb3c
00000250: f90c 483e 4464 cfbe f3ef 963e 4fe9 1dbd
00000260: 0928 113f e04f 0d3f 9472 033f 9e09 15be
00000270: 6dc7 73be bd9f c33e bb66 05bf 84a1 e6be
00000280: a869 3d3f d473 d63e 8a45 bfbd dc4a 373f
00000290: 056f 2cbf a35d 323f 98c2 da3e 5b93 393d
000002a0: 7d76 d63e bbc6 a5be 615a 9b3e e7f2 acbe
000002b0: d88b 273e eb63 603d 145e f73d 3312 103e
000002c0: 3b37 abbe 40ae 09bf af67 853e 8ff8 d7bd
000002d0: 9d8f 0cbf b867 9abd c470 19bf 7319 83bd
000002e0: ae42 173f cb13 ad3e 273b c1be da64 e5be
000002f0: a0f3 14bf 8cd5 e7be 3a23 76be 06e7 713e
00000300: 47e9 333e 1ecb 8bbd 88bd a5be dcae ddbe
00000310: 2590 9fbe 4155 0bbf 53b6 c0bd 2ddb 633c
00000320: fbe8 5e3e c3fd 633e 274a 33be 00df 153f
00000330: e1d4 97be c299 c4be 03b5 43bb 11b7 8bbe
00000340: b08d 103f a0cb c1be 11da 133f bed8 afbe
00000350: fe0b e63e bda9 53bd ad08 ff3e fb31 0c3f
00000360: 9ea3 2abf 2601 06bf 4839 0c3f 1b81 063f
00000370: 1bed 203f 1a58 8abe 961b 25be f7b1 fd3e
00000380: 0388 083f ff3d 19bf fd0d 8bbe 83fa eebe
00000390: b40a 17bf fbe7 87be 4846 eabd 3db3 03bf
000003a0: c035 923e 1815 3a3e 1864 2abe b93f de3d
000003b0: cf39 ea3e 8919 183f b230 813e 1a5e e6be
000003c0: d274 16bf 2035 883e 1eaf 62be 7b5c 16bf
000003d0: e7f0 a4bb 0111 b1be ea99 d8be f708 15bf
000003e0: d835 b03e 1537 1f3e cb28 493e d018 803e
000003f0: b5af bf3e e9ff 81bd 49ba 87be 85de 16bf
-0.33022586 0.43697393 -0.3789958 -0.5629942 0.5556347 -0.2515681 -0.45796418 0.33673096
-0.68544924 0.41972628 0.20820393 0.535278 -0.06907904 0.4178532 -0.07384 -0.49466333
0.18862191 -0.004038793 -0.58745134 0.6896886 -0.70807165 -0.42383468 0.05359866 0.4081144
0.1881976 0.47670048 -0.59898454 0.30942714 0.034463696 -0.6166018 -0.58172995 -0.30301297
0.30067125 -0.25417715 -0.26129627 -0.062198766 0.49322417 0.20477217 -0.5662763 0.22565502
-0.2168878 -0.10535345 0.3299167 0.20312594 -0.06501944 -0.5132925 -0.005622465 -0.16969405
0.09329383 -0.5007545 -0.47778803 0.4551486 -0.17572339 -0.16369578 -0.3654826 -0.529496
-0.4731962 0.33555424 0.115352705 0.34062642 0.4267754 0.58072877 0.65220344 -0.15797715
0.7010242 -0.41439176 0.6148198 -0.1424098 -0.41799298 -0.008070504 -0.2891818 0.47660923
0.39404953 0.39386702 -0.34925964 0.40055838 0.42267877 -0.22262943 0.18166594 -0.500278
-0.22424072 -0.51862055 -0.33943647 0.565949 0.057451867 -0.7403906 -0.41565907 0.49187666
-0.6594461 -0.44905284 0.18069929 0.74319166 0.5781252 -0.6981212 -0.15671916 -0.33854452
-0.36784127 -0.112626165 0.22823009 0.19505519 -0.25420412 0.46031928 -0.0012809758 -0.3872012
0.28143272 -0.01763227 0.37290618 -0.14812998 -0.42363352 -0.42017838 0.12766871 -0.49618495
-0.2022026 0.57786286 -0.05988814 0.3373614 -0.66318583 -0.5800638 0.44221267 0.12946296
0.67760104 0.58210766 0.7662682 0.0015333456 0.25491178 -0.4629077 0.48748565 0.43042567
-0.64679664 0.5935784 -0.4503086 -0.6733673 0.7778244 -0.8710674 0.09729084 -0.19872396
0.25990137 -0.059021335 -0.32276028 -0.6958002 -0.29399258 -0.070412755 -0.06582068 0.24045068
0.36734423 0.14579721 -0.003400028 0.0306401 0.19536199 -0.40506184 0.29479942 -0.03855258
0.56701714 0.55200005 0.5134671 -0.1455445 -0.23806544 0.38207808 -0.5210988 -0.45045102
0.73989344 0.41885245 -0.093394354 0.715986 -0.673569 0.6967413 0.42726588 0.045306545
0.41887274 -0.32378182 0.3034239 -0.3377907 0.1636194 0.05478279 0.12078491 0.14069442
-0.33440575 -0.5378151 0.26055667 -0.10545456 -0.54906636 -0.07539314 -0.5993769 -0.064013384
0.5908612 0.33804163 -0.37740442 -0.44803506 -0.5818424 -0.4528011 -0.24036875 0.23623285
0.17569457 -0.06825851 -0.32371163 -0.4329747 -0.3116466 -0.5442696 -0.094097756 0.013907236
0.21768562 0.22264771 -0.17508756 0.58543396 -0.296546 -0.38398558 -0.002986253 -0.27288106
0.564662 -0.37850666 0.5775462 -0.3434505 0.44931024 -0.051675547 0.49811307 0.54763764
-0.6665591 -0.523455 0.54774904 0.5254075 0.62861794 -0.2702034 -0.16123804 0.4954984
0.5333254 -0.59860224 -0.2715911 -0.466755 -0.59000707 -0.26544175 -0.11439186 -0.5144537
0.28556633 0.18172109 -0.16639745 0.10851998 0.4574723 0.59413964 0.25232464 -0.4499367
-0.58772004 0.2660303 -0.22137114 -0.58734864 -0.0050336006 -0.34583285 -0.42304927 -0.58216804
0.3441608 0.15548356 0.19644468 0.2501893 0.3743874 -0.06347639 -0.26509312 -0.5893329

model/conv2d_6/Conv2D_bias f4 [24]
00000000: 8b56 3f3d 644b 213f 869e 1f3f ee32 75bf
00000010: 2c56 313f 6e68 7e3e 4b06 2fbe 57b5 b0be
00000020: e142 36bf c645 aa3f 6df4 06bf 3acd 1f3e
00000030: 4c9b 253f 5ff5 473e adb1 66bf 0948 a6be
00000040: d809 493f d401 fa3d 1479 c9bd 2a69 eebe
00000050: b61f 9e3d 56bd 5b3e 224d 9f3d 06a4 10bf
0.046713393 0.6300566 0.6235126 -0.9578084 0.6927211 0.24844524 -0.17092244 -0.3451335
-0.711958 1.3302543 -0.52716714 0.15605631 0.6469009 0.19527195 -0.9011486 -0.32476833
0.78530645 0.1220738 -0.09837547 -0.4656461 0.07720892 0.21458945 0.07778384 -0.5650028

model/conv2d_7/Conv2D/ReadVariableOp f4 [32, 1, 1, 24]
00000000: 4fbc a93e d1fd a0be 17da 92be f0fa 003f
00000010: 3993 98bd 8399 c6be c73d 1dbe 13d2 a5be
00000020: 60f8 c9bd f210 f23d 035c dfbe fadf 75be
00000030: 3182 22bf 0cf7 123f b586 d0be a861 093d
00000040: bedc e93e 49ef 003f 7996 03bf 0d39 adbe
00000050: 1583 b3be 18c9 993e 2ee8 b7be 4d03 5ebd
00000060: a155 e2bd 78c9 883e 52e6 87bd 7eb6 1abf
00000070: 58e2 683e 1e92 723e 7577 fabd a5f0 a6be
00000080: 00db 0fbe 9ce8 f83d 4a44 113f 8693 07bf
00000090: 736e 09be 67f5 e7be 4ddc 0f3f 2b4f e7bd
000000a0: d586 1b3e 9c85 efbc 68b9 4f3e 49b9 c9be
000000b0: 4783 a83d cbdd 953e c911 1e3e 77ba c23e
000000c0: 4a6c dd3e f529 6b3d d2d4 a63c 4979 693e
000000d0: e3c3 d93e 3132 f13e 60f1 7dbe 858f 1dbe
000000e0: e157 e6be fb14 b63d 9914 c8be 3c9c 9dbc
000000f0: e373 e2be f132 a8be c75a 8a3e 78b3 b1bd
00000100: f759 1bbe d322 b43e 3d63 e03e 198a e4be
00000110: f0af 303e c9ae 123e 1f22 793e 4696 f63e
00000120: 0dba d03e 1dd6 903e a243 f93e 808f d43e
00000130: 9137 afbe f1c7 d23e b577 f3be dcd7 b5bd
00000140: c345 ec3d e485 92bd 0349 0a3e 300f 93bc
00000150: edac d33e 9240 ff3d af3a a23e 44d8 c43e
00000160: f007 313d da01 d8be 7b2d d83d 96c5 083f
00000170: 0e5b 723e 8dc2 203c 2bbe e03e 4fa6 003e
00000180: c2e5 02bf bf0f f63e 74fe a73e 282d 24bf
00000190: 064d 3e3e 7cbb 09bf 43ee a8be c5fd a7bd
000001a0: 4d5d 823e d3a0 593e 659c a63e b665 f4bd
000001b0: ef88 3b3c 8a4b b6be cf5e ffbe bd4e acbe
000001c0: 01da a5be bb7d bf3e cce3 a4be 949e 2f3f
000001d0: 8aa2 203f b831 cc3d eb15 04bf 5ee1 e23d
000001e0: 2ecc 01be a659 e2bb 39ec e23d a83e 34bd
000001f0: d6c0 58be 6967 e43d 50d2 8cbd c1b9 36be
00000200: 7341 fa3e 5980 9d3e c479 003f 6dbb f0be
00000210: d151 053f cce9 fa3e fa6c dfbe 5072 033f
00000220: a213 ce3e 94f5 8bbd 1568 ab3e 3b01 583e
00000230: 4977 a5bd bfe3 913d 9eb4 11bf 3fca 133f
00000240: 4cb3 c03d 6e30 c0be a7b4 a53e e357 ad3e
00000250: ec28 e0be 9590 d43e 442c cfbe 82b0 a4be
00000260: 249c 93be d55b c23e a1ea a3be 9a39 183e
00000270: c50d 0ebe 4439 2ebe 7b07 81bd 5ed0 bc3c
00000280: 57f3 f0be fda3 5cbe 86b7 523e 8849 8b3d
00000290: 6616 cc3e a952 d7be 9985 ad3e 056b e83e
000002a0: 0b98 053e 7cd8 80bc 11a4 c8be efd2 bf3e
000002b0: f9bb 46bb c782 20bf 53f2 833e f05c ae3c
000002c0: 1842 05bf d906 68be 1f37 c5be 0791 4e3e
000002d0: d932 d23e eb95 15bd bb18 813e eb76 ff3e
000002e0: df38 73be e651 dfbe 771c 003f c9f2 0b3e
000002f0: 4203 bc3e 6a87 0f3e ab34 21bf c16a eb3e
00000300: 7e49 f9be ecfe e9bd 495c a7bd 85f1 cabe
00000310: 2fdb e1be 2e43 c4be 67d8 e43e c2d8 0bbe
00000320: 3a4e f8be 155f af3e 86a4 503e d1d0 b1be
00000330: 9764 09bf a783 f2be 1d5e 99be 7b75 423d
00000340: 8c43 90be f546 963e a97d 34bd 950f cebe
00000350: b271 e7be f592 df3d 2197 a63e 2a04 953e
00000360: c89a 863e 2003 4bbd ca12 c23d b225 f63e
00000370: 5550 68bd d6dc 02bc fe72 333e 4698 823e
00000380: 74bc 183e a28c 2abe 24e6 9c3e 3914 b13b
00000390: 7c1e dd3e f452 27be 643e 063f 8c04 44bc
000003a0: 1959 543e 68c6 f93e d30c a6be 2f46 3fbe
000003b0: 6a68 713e 377c 9f3e 13c5 df3e 529d 83bd
000003c0: 5968 5a3e 97eb 8bbe b303 873e 0d38 ddbd
000003d0: ed5a 61be eff6 0fbf dd09 4fbe 5111 f6be
000003e0: 9d62 443e 1f46 87be 0ab2 7ebe 8957 1ebf
000003f0: 2f7f 9ebb 31cc b6be 7cec 5c3e 3ed8 ff3e
0.3315148 -0.31443647 -0.28682014 0.503829 -0.074499555 -0.38788995 -0.15355597 -0.32386836
-0.09861827 0.11819638 -0.43624887 -0.24011222 -0.63479906 0.57408214 -0.40727773 0.033540398
0.45676225 0.5036512 -0.5140148 -0.3383259 -0.35060945 0.30036235 -0.35919327 -0.054202367
-0.11051489 0.26716208 -0.06635727 -0.6043471 0.22742593 0.23688552 -0.12229816 -0.32605472
-0.14048386 0.12153742 0.56744826 -0.5295948 -0.1342104 -0.45304415 0.5619553 -0.11294397
0.15188153 -0.029238515 0.2028557 -0.39399174 0.08228164 0.29270777 0.15436472 0.38032886
0.4324668 0.05741306 0.020365153 0.22800173 0.42532262 0.47108606 -0.24799109 -0.1538678
-0.4498892 0.088907205 -0.39078215 -0.019239537 -0.4422904 -0.32851365 0.27022383 -0.08676809
-0.15171038 0.3518282 0.43825713 -0.4463661 0.17254615 0.14324488 0.24329422 0.48161525
0.40766945 0.28288355 0.48684412 0.41515732 -0.3422208 0.41168168 -0.47552267 -0.088790625
0.115367435 -0.07154444 0.13504414 -0.017951578 0.4134287 0.12463488 0.31685397 0.38446248
0.04322046 -0.42188913 0.1055555 0.5342649 0.23667547 0.0098120095 0.43895087 0.12563442
-0.5113183 0.48058888 0.3281132 -0.641314 0.1858407 -0.53801703 -0.3299428 -0.082026996
0.25461808 0.21252756 0.32541195 -0.11933462 0.011446222 -0.35604507 -0.4987702 -0.33653823
-0.32392886 0.37400612 -0.32205045 0.68601346 0.62748015 0.099704206 -0.51595944 0.11078142
-0.12675545 -0.0069076596 0.11080212 -0.044005066 -0.21167311 0.111525364 -0.068760514 -0.17844297
0.4887806 0.30761984 0.501858 -0.47017995 0.52077967 0.49006498 -0.4363783 0.513463
0.40249354 -0.0683395 0.33477846 0.2109422 -0.080793925 0.07123517 -0.56916225 0.5773048
0.09409198 -0.3753695 0.3236439 0.33856115 -0.4378122 0.41516557 -0.4046346 -0.32165915
-0.28830063 0.37960687 -0.32014945 0.14865723 -0.1387244 -0.17014033 -0.06300255 0.023048576
-0.47060654 -0.21546932 0.20577821 0.06801134 0.3986084 -0.42055252 0.3389099 0.4539415
0.13046281 -0.015728228 -0.39187673 0.37465617 -0.0030324443 -0.6269955 0.25770816 0.02128455
-0.52053976 -0.22658862 -0.38518617 0.20172511 0.4105442 -0.036519926 0.2521418 0.49895415
-0.23752163 -0.4361717 0.50043434 0.13666834 0.36721236 0.140165 -0.6297099 0.45979884
-0.48688883 -0.114255756 -0.08171899 -0.3963739 -0.44112536 -0.38332504 0.44696352 -0.13656905
-0.48497182 0.3425223 0.2037526 -0.34729627 -0.5366911 -0.47366068 -0.29954615 0.04747532
-0.28176534 0.2935101 -0.04406515 -0.40246263 -0.4520393 0.10916702 0.32537177 0.2910474
0.26289964 -0.049563527 0.0947624 0.48075634 -0.056717236 -0.007987222 0.17524335 0.255068
0.14915639 -0.1665521 0.30644333 0.005404022 0.4318732 -0.16340238 0.5243895 -0.011963975
0.20737113 0.48784184 -0.3243166 -0.18679117 0.23574987 0.31149456 0.43705043 -0.06426491
0.21328868 -0.27328178 0.2637001 -0.108017065 -0.22007342 -0.56236166 -0.20218606 -0.48060086
0.19178243 -0.26420686 -0.24872604 -0.6185232 -0.004836939 -0.3570266 0.21574587 0.49969667

model/conv2d_7/Conv2D_bias f4 [32]
00000000: f6ac 493f 68dd 67bd c56f c0be a942 95bf
00000010: 104e 6f3e 6cda 4abf fc66 493e 9414 7abd
00000020: c8e2 923f 058f 91bf 5844 2d3e d215 a23e
00000030: 8216 0dbf 1dce 553e b550 5b3f d6b9 a9be
00000040: 5984 fd3e 9d21 c3bd 465a 1cbe 7323 043f
00000050: 62e7 4e3f 52f8 83be d1e2 08bd bd0e 893e
00000060: a66d 393f be8c 2fbf 0e18 c33e 55b7 46be
00000070: 226e d9be 107d e4bd 16e3 71be 200b 13bf
0.7877954 -0.056607634 -0.37585273 -1.1660968 0.23369622 -0.79239535 0.19668192 -0.06105478
1.1475458 -1.1371771 0.16920602 0.31657273 -0.5511247 0.20879407 0.85670024 -0.33149594
0.49515036 -0.095278956 -0.15268812 0.5161659 0.8082181 -0.2577539 -0.033419434 0.26769057
0.72432935 -0.6857413 0.3810429 -0.19405873 -0.42466837 -0.11156666 -0.23621783 -0.5743885

model/conv2d_8/Conv2D/ReadVariableOp f4 [8, 1, 1, 20]
00000000: 17b5 15bd b670 ea3e 47c0 c43e f351 babd
00000010: 88bb d0be 18c0 86be 1a8d 013f 4585 95be
00000020: a327 eebe f912 ed3e 3f5f b9be 84dc 9d3e
00000030: 0387 9e3c 212e a73c e724 fd3e ee6a a4be
00000040: 68a2 90be a05c 9ebd a2ba c8be 2ce1 7bbe
00000050: f315 adbe ce8e 1f3f 388f e2be 6947 013e
00000060: 7979 a4be 597f e6be 6495 133e 9891 3abf
00000070: fa30 07bf 9d3b a73d 8558 15bf 43fe 4e3e
00000080: 271c adbd 1bbc f6bd 8d20 19bf e37f d93e
00000090: 769a 4d3d 106c e0be a6e9 193e 39bd 6c3e
000000a0: 8fb1 af3e d74e 003f ef2a f73e ee85 00bc
000000b0: 8393 ad3e bf02 f3be 77c3 0fbf 6f8a cd3e
000000c0: d7f2 b9be 7902 9f3e 5a11 8f3e a2af 6e3e
000000d0: 2df7 0dbe f132 ba3d b0fe 33be cc03 af3e
000000e0: 8381 13bf 049d e1be 1f5b adbe 6b3c e3be
000000f0: 186f 97be b5f3 273f 0d27 a9be 3a0c 2e3f
00000100: 09ff 123f 36dd 1fbe 3110 a1bd 9ea9 a7be
00000110: 6aa0 0a3f d065 d33e a6c7 22bf 1fcc 203f
00000120: f79d 103d 9c01 afbc 80fb c73e af5b 09be
00000130: e6a6 413f 9ea2 d3be 8535 013f 9ac2 27be
00000140: 7775 18bf c09c 393e 9750 7d3e c21b ec3e
00000150: 6d86 10bf d7c9 993e 0523 6e3e c2a2 5cbd
00000160: 9ec0 643e 6c86 97be 7ee6 ff3d af28 b6be
00000170: 75f6 1e3f 1b3a 073f 796d aabe 1b45 d73e
00000180: eb1b 04bf 0475 e33e 1247 163e 7d60 8fbe
00000190: a3a7 ab3e 14d4 353f 7666 4fbe e7a2 8f3b
000001a0: 6aa1 cebe 32b2 ac3e 81fc 2ebf 4c70 313f
000001b0: aca6 cc3e 3afd 313f 3dc7 263d 133c 2ebf
000001c0: 5f32 cabe a969 453e 7d6f d83e d9d2 9b3d
000001d0: d017 0f3f b5e8 073f a7b2 15bf 96f8 17bf
000001e0: 8c9a 5cbd 50a2 46be 1092 723d 7895 0bbd
000001f0: 5542 0cbf 0f18 c43e d27f 34bc c89c ba3e
00000200: bd57 bcbe 5324 0bbf 5dd6 d33e 73ed 0b3e
00000210: 9a33 debe 51d6 9e3e f467 a4be 0ca7 96bd
00000220: 5891 0a3f aff0 173f 1170 d13e 5cf9 b1be
00000230: e9d6 0abf a2c3 813d b954 a0bd 86a2 22be
00000240: 099a 173f 632e e03e e77c 6dbe 19ef d7be
00000250: 2a1f 2fbf 7657 44bd d693 eabe 23f6 05bd
00000260: 9f3b 90be c31b b9be b1fd 213f 8e12 7cbd
00000270: 3a91 263f 4256 f03e beb5 1bbf 361a c73e
-0.036549654 0.45789117 0.38427946 -0.09097662 -0.40768075 -0.2631843 0.5060593 -0.2920324
-0.46514615 0.46303537 -0.3620548 0.30832303 0.019351488 0.020407738 0.49442217 -0.3211283
-0.28248906 -0.077325106 -0.3920489 -0.24597615 -0.33805808 0.6232728 -0.44249892 0.12624897
-0.32123926 -0.45019034 0.14412457 -0.7287841 -0.5280911 0.08165667 -0.58338195 0.2021418
-0.08452635 -0.12047597 -0.59815294 0.42480382 0.050196134 -0.43832445 0.15030536 0.23119058
0.34315154 0.501203 0.48274943 -0.007844431 0.33901605 -0.47463033 -0.5615763 0.4014468
-0.36318085 0.31056574 0.27942926 0.23309186 -0.13863821 0.090917476 -0.17577624 0.34182584
-0.57619494 -0.44065106 -0.33858582 -0.44382033 -0.29576945 0.6560624 -0.33037606 0.67987406
0.574204 -0.15611729 -0.078644164 -0.32746595 0.5415102 0.41288614 -0.6358589 0.62811464
0.035306897 -0.021363072 0.39059067 -0.13413881 0.7564529 -0.41335005 0.5047229 -0.16382828
-0.5955424 0.18126202 0.24737774 0.46114928 -0.5645512 0.30036804 0.23255546 -0.053866155
0.22339103 -0.29594743 0.12495135 -0.35577914 0.62094814 0.52823037 -0.33286646 0.4204491
-0.516051 0.44425213 0.14675549 -0.28003302 0.33526334 0.7102673 -0.2025393 0.004383433
-0.40357524 0.33729702 -0.6835404 0.69311976 0.3997091 0.6952702 0.040717352 -0.68060416
-0.39491555 0.19278587 0.4227256 0.076085754 0.5589571 0.5308946 -0.58475727 -0.5936369
-0.053858325 -0.19397855 0.059221327 -0.03407809 -0.54788715 0.38299605 -0.011016803 0.3644774
-0.3678569 -0.543523 0.41374484 0.13664798 -0.43398744 0.31022885 -0.3211056 -0.073560804
0.54128027 0.5935163 0.40905812 -0.3476056 -0.54234177 0.06336142 -0.078286596 -0.1588231
0.59219414 0.4378539 -0.23192178 -0.42174605 -0.6840693 -0.04793497 -0.45815915 -0.032705437
-0.28170487 -0.36153993 0.6327773 -0.061541133 0.6506535 0.4694081 -0.6082419 0.38887185

model/conv2d_8/Conv2D_bias f4 [8]
00000000: df74 123e cfa7 663f 3fb0 a2bc 9066 55bf
00000010: 9278 babe 9761 08bf 3ace 13be 68da ae3e
0.14302395 0.90099806 -0.019859431 -0.8335962 -0.36420113 -0.5327391 -0.14434138 0.34151006

model/conv2d_9/Conv2D/ReadVariableOp f4 [2, 1, 1, 72]
00000000: c703 6cbe 87d5 3d3e 6ab8 31be 8c71 9dbe
00000010: 0444 9e3e 821c 743e 11e7 87be 9751 c43d
00000020: eea8 a5be 0040 683e 0d9e 5ebe 5a1d 183e
00000030: 8ae3 abbd e7a2 8c3e ecea 773e d30f 9cbd
00000040: 56a0 75be db61 d9bd a5b4 673e be29 91be
00000050: 5fc8 9abe f7bd 663d 6c67 67be afef 18be
00000060: e0a4 e4b9 94b6 fcbd 2f13 f73d a3b5 983e
00000070: 5d83 42be 909d 943e 48ee 5d3e c77d 20be
00000080: 288e 89be 756d b53d 7a32 78bd 957d 0e3e
00000090: f43d 5e3e b4a0 2ebd df0d 9dbe f074 9d3e
000000a0: 0596 9ebe 3e5f 9c3d 0e60 013e e90f 7abe
000000b0: 8af9 21bb 74ee 01bd 3594 02be 6a8e 38bd
000000c0: 8196 923e 7002 acbd c877 c5bd d45b 4fbe
000000d0: 5043 773e a68e cbbc 5b73 a03e 91be 833e
000000e0: f3e1 143e c901 cebc e41f 99be 5996 573e
000000f0: e6a4 8b3e fe9c 3a3e 89f0 8cbc 5bc7 883e
00000100: 82e0 7a3e d1fd 80be e97b 11be 03b2 96be
00000110: 014a d7bd 471d 81be 2cae 94be df7f 03bd
00000120: 4ff5 953d 7988 8abe 8a5e 5bbe 3ef3 123e
00000130: f87c a1be a9b8 503e 80f4 e13c ab31 993e
00000140: cfe2 213d adeb 90bd 4834 8f3e da1b fd3d
00000150: 5f5e 2c3e a5fd 163d 32e5 5f3e 07ca 97be
00000160: 2b27 52bd f294 a4bd 7cd3 283e 6b93 56be
00000170: 1dc0 d3bd 4f8b d93d 578a 983e 8f7b 38be
00000180: 54de 70be 0b5c 8cbd a74d efbd aee7 85be
00000190: 29f8 42be 8b97 0d3e b049 30bd 8e12 a03e
000001a0: 0cab 703e c7dd afbc c660 003e ac1b 253e
000001b0: 7fc9 893d 2852 0b3e bb74 143e 59b0 843d
000001c0: f610 6abe 3b88 78be 5e74 8a3e ba5c 50be
000001d0: 4bd7 29be 1164 883e f9fc 843e 6d39 ef3a
000001e0: 1f51 1b3c 374e b4bb db0e 403e b770 a93e
000001f0: f5f3 04be 858b dc3d f0e2 313e 2eb7 6f3e
00000200: 14bc 8dbe a53b 3abe 19c3 c43c 0eb5 883e
00000210: 7c32 ff3c 23f2 5f3d 74f3 7dbe b351 cdbc
00000220: be87 643e 67b0 10bd b443 3d3e 3d77 60be
00000230: 5644 80be 3844 d93d 9bd5 6abd 6158 a13e
-0.23048316 0.18538485 -0.17355505 -0.30750692 0.30911267 0.23839 -0.26543477 0.095858745
-0.32355446 0.22680664 -0.21739979 0.14854947 -0.08393009 0.27468035 0.2421071 -0.07620206
-0.23986945 -0.106143676 0.22627504 -0.2835216 -0.30230996 0.05633351 -0.22598046 -0.14935182
-0.0004361039 -0.123395115 0.12064206 0.29826078 -0.18995424 0.2902646 0.21672928 -0.1567298
-0.2686627 0.08858768 -0.060595013 0.13915093 0.2170332 -0.042633727 -0.30674645 0.3075328
-0.3097383 0.076353535 0.12634298 -0.24420132 -0.0024715387 -0.031721547 -0.12751849 -0.04505769
0.2863045 -0.083989024 -0.09641987 -0.20249873 0.24146771 -0.024848294 0.3133801 0.25731328
0.14539318 -0.025147336 -0.29907143 0.21053447 0.27274245 0.1822395 -0.01720454 0.26714596
0.24499705 -0.25193647 -0.14207424 -0.29432687 -0.10512162 -0.2521765 -0.29039133 -0.03210437
0.073221795 -0.27057245 -0.21422783 0.14350602 -0.31540656 0.20382942 0.027582407 0.29920706
0.039522942 -0.070762016 0.27969575 0.12358828 0.16832875 0.036862988 0.21864775 -0.29646322
-0.051306885 -0.080362216 0.16486925 -0.20954673 -0.10339377 0.10622274 0.29793045 -0.18015884
-0.23522311 -0.06853493 -0.11684733 -0.2615332 -0.19039978 0.1382734 -0.043039024 0.31264156
0.23502749 -0.021468056 0.12536916 0.16123837 0.067278855 0.13605559 0.14497654 0.06478948
-0.22858033 -0.24270718 0.27041906 -0.20347872 -0.16586034 0.26638845 0.25974253 0.0018251367
0.00947979 -0.005502488 0.18755667 0.33093807 -0.12983687 0.10768799 0.17371726 0.23409721
-0.27682555 -0.18186815 0.024018811 0.26700634 0.031152003 0.05467428 -0.24799901 -0.025063371
0.22317407 -0.03532448 0.18482858 -0.21920486 -0.25052136 0.10608715 -0.057332616 0.3151274

model/conv2d_9/Conv2D_bias f4 [2]
00000000: a3cb 303e 6751 f9be
0.17265181 -0.48694918

model/depthwise_conv2d/depthwise/ReadVariableOp f4 [1, 3, 3, 4]
00000000: 5cae 8b3f 88e6 533f 09d1 413e e06d cd3e
00000010: 5419 a23f eb9b d1be 5b91 f63e d6fa 713e
00000020: f151 c2bf 9b4a fa3e d6a3 46bf e582 8b3e
00000030: 2563 fb3e 6795 773e abe4 093f 0d47 f53d
00000040: c267 b8bf a20b 53bf bd7e 17be 139e 833e
00000050: f0e9 613f 8a5a 86bc 8e64 acbf c898 a03e
00000060: 095d 87bf 5531 f93d c5ce 503f 7c6c a3be
00000070: ac90 23bf ed7b 153f f3f8 94bf e5d5 153e
00000080: e42d ac3f 658f 303f fd88 21bf aaa0 a43e
1.0912585 0.8277364 0.18927397 0.4012289 1.266398 -0.40939268 0.48157772 0.23630843
-1.5181257 0.48885044 -0.77593744 0.27248302 0.4909908 0.24178086 0.53864545 0.119764425
-1.4406664 -0.82439625 -0.1479444 0.2570654 0.88247585 -0.016400594 -1.3468187 0.31366563
-1.0575267 0.121676125 0.81565505 -0.31918705 -0.63892627 0.5839222 -1.1638473 0.14632376
1.3451505 0.689688 -0.6309965 0.32153827

model/depthwise_conv2d/depthwise_bias f4 [4]
00000000: 625a 22be 49e2 0dbf 6ebc 4b3f 13c7 2dbf
-0.15854791 -0.5542341 0.79584396 -0.6788189

model/depthwise_conv2d_1/depthwise/ReadVariableOp f4 [1, 3, 3, 12]
00000000: de78 373f 3600 00bf 98eb 47bf a4e5 c93e
00000010: df02 143e c970 12bc df0c 083f 9911 473e
00000020: 29fd 1fbf 5daf b2bd 58cd a33e 26b1 8fbe
00000030: 1afe e63e 47c8 b03e 2d58 693f d2b4 19bf
00000040: bb0c 4c3f f428 ab3d 654d 0bbf acd3 d63e
00000050: 1b99 29bf 0375 cfbf 485d 47be fbde 5bbf
00000060: 69b9 383f 1686 51bf 90c3 093f a577 293f
00000070: 49f2 6e3f c810 3ebf a903 a83e 6380 c13e
00000080: 1e84 acbe 98d3 d6bf fd1d 69bf c4a0 24bf
00000090: 09d0 bcbe 8487 c03e 040e 5a3e b8c5 2a3f
000000a0: 2a59 fdbe 6be7 be3e 44e8 a83e 4ee6 053f
000000b0: 7f65 9e3e 7a96 333f e0c4 433f 0c6d 583f
000000c0: 2137 903e 63ea 943e 94c0 3cbf 9136 1c3c
000000d0: 153b 843e 0c6c f53d b0e8 c1be d96c 913e
000000e0: c678 003f 65d3 073f a912 043f 90ac 4a3f
000000f0: 54de 453f 7ff6 513f e39f 263f 43b3 02be
00000100: 7ad3 46bf 3cdc 32bf 4d51 31bf ded1 663d
00000110: 00a4 e13e 57a4 af3f f0e2 19bf 9915 67be
00000120: a6ee 4cbf 5337 5b3f 07fb ed3e 4ae6 413f
00000130: 7c86 5d3f 06f9 a93e 2c21 83be 9fc8 6ebe
00000140: 06f3 d63e 71c8 8e3f fe18 b63e c7b7 97bd
00000150: 591e 8bbe c8b1 4d3f c5d9 453f 07e8 37bf
00000160: 168e 043f 1be4 f4bd 248c 0bbf be9b 93be
00000170: c794 efbe 2ca5 73bf f655 07be a7bd a93d
00000180: ceb8 32bf cd77 0bbf 4fee 43be 0a59 0a3f
00000190: fa83 0c3f b9f4 20bf cc5f ddbd 1292 293e
000001a0: eb65 31bf e8ff 883f 270e ccbe 0489 85bd
0.71668804 -0.5000032 -0.7809386 0.39433014 0.1445422 -0.008938023 0.5314464 0.19440307
-0.62495667 -0.08724854 0.31992602 -0.2806484 0.4511574 0.345278 0.9115017 -0.60041535
0.79706925 0.083574206 -0.5441497 0.41958368 -0.66249245 -1.6207584 -0.19469178 -0.85887116
0.72157913 -0.81845224 0.5381403 0.6619819 0.9333845 -0.74244356 0.32815292 0.37793264
-0.33694547 -1.6783323 -0.91061383 -0.6430781 -0.36877468 0.3760339 0.21294409 0.66707945
-0.4948209 0.37285933 0.32989705 0.5230454 0.3093681 0.70151484 0.7647228 0.8454139
0.2816706 0.29085073 -0.7373135 0.009534494 0.25826326 0.11983499 -0.3787284 0.28403357
0.50184286 0.5305694 0.51590973 0.7916956 0.7729237 0.8201675 0.6508772 -0.12763695
-0.7766644 -0.698673 -0.6926468 0.05635249 0.44070435 1.3722028 -0.60111904 -0.22566833
-0.8005165 0.85631293 0.4648058 0.7574202 0.8653333 0.33197802 -0.25611246 -0.23318718
0.41982287 1.115492 0.35565943 -0.074080996 -0.2717159 0.803494 0.77285415 -0.7183842
0.51779306 -0.1195757 -0.5451071 -0.2882976 -0.46793196 -0.9517391 -0.13216385 0.082881264
-0.6981324 -0.54479676 -0.19133876 0.5404211 0.5488888 -0.6287342 -0.108092874 0.16559628
-0.6929614 1.0703096 -0.39854547 -0.06520274

model/depthwise_conv2d_1/depthwise_bias f4 [12]
00000000: f013 b5be 58c9 34bf 69b7 cabe 0651 1ebf
00000010: da92 3ebf c08e e63e 657d ba3e 5587 fcbe
00000020: 7f68 e33e 3cdc 88be 0c8e f43d 321e 0b3e
-0.35366774 -0.70619726 -0.39593056 -0.6184238 -0.7444283 0.45030785 0.36423793 -0.49322
0.44415662 -0.26730525 0.11941156 0.13585737

model/depthwise_conv2d_2/depthwise/ReadVariableOp f4 [1, 3, 3, 12]
00000000: efda 91bb fee2 983e 7904 ac3e a067 adbe
00000010: bd1b febd 90e8 ec3e fff1 e63e 409b f93e
00000020: 82d9 4dbf fc42 583f 4849 6a3f c5f8 86bf
00000030: 66d4 723e 1640 30bf 826c 903f 0ddd 263f
00000040: efb7 d63e e650 e2bd ee6b e9bd fc69 fbbe
00000050: d764 893e b5d1 4fbc 2511 8f3e 2cbb a3be
00000060: b8d7 883e c999 debe 15e8 f7be 98fb 5abd
00000070: 37fb 63bf 4a81 e13e d8fc c03e 6d0b 6b3f
00000080: 316f 9bbf 012a d4be c0dc cd3e e183 4a3e
00000090: fce8 0b3e 92ef b73e 924a c43e 2726 1b3f
000000a0: 2d5c 4f3f a123 033f 7e5a 73bc a722 0ebf
000000b0: 9028 983d 7fc4 e33e 24ec 6a3f a444 3cbf
000000c0: 5d52 323e 4147 4abe 4c26 ce3e a08f 47bf
000000d0: 9ecf 26bf 000b 953e e4a1 6bbc 4467 7d3f
000000e0: 49a7 afbd 7ed5 83be e6df 8fbe d5ec ebbd
000000f0: 4d15 b2bd c790 08bd 239a 39bf 3015 cf3e
00000100: fa20 7cbf f238 9d3c a9fe 293f fa28 0cbd
00000110: 812b 493f 7268 4dbf c8ff 4f3f 3084 003f
00000120: 9e04 c13e 32bb a73e 7fae f0be 00eb ebbd
00000130: a6b3 30bd 40c8 033f 675e 74bf bf72 1dbf
00000140: 6898 2bbf 5f18 0e3f 2365 a6bf 38ad 363f
00000150: b52b bd3e e258 bf3e a33f bbbf 1005 bb3e
00000160: 28d1 a63e dd0e 6cbe 6598 8b3f 56e5 93be
00000170: ce51 99be dbf4 2ebe bd74 01bf 469d 89bf
00000180: a8a4 aa3e febe 413f 0159 13bf b43c 5e3f
00000190: 2ada da3e f4f9 fb3e dfad c03e 7cc6 423f
000001a0: 3cc7 9d3f c87a 28be 4ed1 f7be 0fbc 86be
-0.0044511477 0.2986068 0.33597162 -0.33868122 -0.124076344 0.4627118 0.45106503 0.4875126
-0.80410016 0.8447721 0.9151807 -1.0544668 0.23713836 -0.6884779 1.1283114 0.65181047
0.41937205 -0.110505864 -0.11397539 -0.49104297 0.26834747 -0.012684275 0.27942768 -0.31978738
0.2672708 -0.43476704 -0.48419252 -0.053462595 -0.890552 0.44043952 0.37692904 0.9181431
-1.2143308 -0.41438296 0.4020748 0.1977687 0.13663095 0.35924965 0.38338143 0.6060509
0.81000024 0.5122624 -0.014853118 -0.55521625 0.07429612 0.44485852 0.9176657 -0.7354224
0.17414232 -0.19753744 0.40263593 -0.7795353 -0.6516055 0.29109955 -0.014381859 0.98985696
-0.08576829 -0.2574882 -0.28100508 -0.115197815 -0.08695469 -0.033341195 -0.7250082 0.40445852
-0.9848782 0.019192193 0.66404206 -0.034218766 0.78582007 -0.80237496 0.81249666 0.502017
0.37698835 0.32760006 -0.4700813 -0.11519432 -0.043140076 0.5147743 -0.95456547 -0.61503214
-0.6702943 0.5550594 -1.2999614 0.7135806 0.36947408 0.373725 -1.4628795 0.365273
0.3258145 -0.23052545 1.0905882 -0.28885907 -0.29945225 -0.17085592 -0.50568753 -1.0751121
0.33328748 0.75682056 -0.57557684 0.86811376 0.4274457 0.49214137 0.37632653 0.76084113
1.2326427 -0.16453087 -0.48401874 -0.26315352

model/depthwise_conv2d_2/depthwise_bias f4 [12]
00000000: 4fe6 1fbf 607e 69be 6933 483e 00d2 05bf
00000010: 93ff 6e3e b4fd 3fbf d123 1bbf 8161 d1be
00000020: b917 5b3e 7b93 833c 8757 b6be 3aa9 213f
-0.624608 -0.22802114 0.19550861 -0.5227356 0.23339681 -0.74996495 -0.60601526 -0.40894702
0.21395768 0.016061535 -0.35613653 0.63148844
