VOC2012/Model_V0_1.tflite (tflite, 2788 bytes, 6 tensors)

model/conv2d/Conv2D/ReadVariableOp f4 [1, 1, 1, 3]
00000000: 1ba5 e6be ba12 78be 6311 703f
-0.4504784 -0.24225894 0.9377653

model/conv2d_1/Conv2D/ReadVariableOp f4 [1, 1, 1, 5]
00000000: 032b 2240 2ba7 673f 85b6 02c0 b3c2 11c0
00000010: 0c9c 2240
2.5338752 0.90489453 -2.04239 -2.2775085 2.5407743

model/conv2d_1/Conv2D_bias f4 [5]
00000000: 4f61 fcbe 74ca 00be a04b 323e 7085 b03e
00000010: bd6e bbbe
-0.4929299 -0.1257723 0.17411661 0.34476805 -0.36607924

model/conv2d_2/Conv2D/ReadVariableOp f4 [5, 1, 1, 8]
00000000: 158a 3b3e a846 573e e8d8 f9be f3e0 0fbd
00000010: c5a4 fb3e 7757 71bf 77ba 25bf 2a76 98be
00000020: fa79 1ebf 4825 103f 9756 8f3e bd24 dcbc
00000030: 4caa eabe d2c8 053f 33fc 5cbd 9e3b 03bf
00000040: 9c53 9340 818e 5240 eef3 823d 7068 6c3f
00000050: f837 9ac0 9400 5140 b0b4 10c0 e682 12c0
00000060: 845e 8c3f a379 9bbf 9c61 02be a4fa cbbf
00000070: 780c cfbf e3b9 063e e6d9 8cbe 6489 0c3e
00000080: 73ca ffbe ecfa e83e a8b4 51bf 0dba cebe
00000090: 1aab 19bf 9497 1fbf a5be 723f d458 22bf
0.18314393 0.21023047 -0.487983 -0.035126638 0.49149147 -0.94274086 -0.6473765 -0.29777652
-0.6190487 0.56306887 0.2799575 -0.026872987 -0.4583305 0.5225955 -0.053951453 -0.51262844
4.603956 3.2899477 0.06394182 0.9234686 -4.819332 3.2656603 -2.2610283 -2.2892394
1.0966344 -1.2146496 -0.12732548 -1.5935864 -1.617568 0.13156848 -0.27509993 0.13724285
-0.49959144 0.45503938 -0.81916285 -0.4037632 -0.60026705 -0.62340665 0.9482215 -0.6341679

model/conv2d_2/Conv2D_bias f4 [5]
00000000: d3ae 673e cb2b ff3c 7e8e 82be 2c82 153f
00000010: ebf0 b43e
0.22625284 0.031148812 -0.25499338 0.5840175 0.35340056

model/depthwise_conv2d/depthwise/ReadVariableOp f4 [1, 3, 3, 1]
00000000: 3d10 e23f 1c0e dd3e eecf 8ec0 196a a740
00000010: 9474 1f40 3ad2 cec0 9b1f cebf 02d4 8f40
00000020: 9220 73bf
1.7661206 0.43174827 -4.462882 5.2317014 2.4914904 -6.4631624 -1.6103395 4.49463
-0.94971573
