VOC2012/Model_V0_1.tflite (tflite, 3932 bytes, 8 tensors)

model/conv2d/Conv2D/ReadVariableOp f4 [2, 1, 1, 3]
000000 ee 22 47 3f 95 8e 74 3f b3 44 84 3f fd 17 e5 3e
       0.77787673 0.9553006 1.0333465 0.44744864
000010 16 43 fd be 4b 33 41 3f
       -0.49465245 0.7546889

model/conv2d/Conv2D_bias f4 [2]
000000 10 a7 1e be d9 b2 21 3a
       -0.15493417 0.0006168313

model/conv2d_1/Conv2D/ReadVariableOp f4 [21, 1, 1, 4]
000000 c0 34 75 bc 17 f1 9c bf 54 fd 43 bf f6 15 9c 3f
       -0.01496619 -1.2261075 -0.76558423 1.2194202
000010 f0 4a 33 bf 26 f8 3c 3e f0 f0 e8 be 63 e2 93 be
       -0.7003622 0.18454036 -0.4549632 -0.28883657
000020 a8 b3 f3 be 5b 20 03 bf cb c9 7e 3f 6a ac 68 be
       -0.47598004 -0.51221246 0.9952666 -0.22722021
000030 6b 26 f3 be f4 4d f0 be 0f f5 9b be 2c a0 03 bf
       -0.47490248 -0.46934474 -0.30460402 -0.5141628
000040 bc e5 2b 3e 2d 67 a9 3e 40 e7 31 3f 30 7d c5 3d
       0.16786855 0.3308653 0.69493484 0.09643018
000050 0b 30 cc ba 0c 1d 21 be d6 e6 41 3f b0 1e d2 3e
       -0.0015578283 -0.15733737 0.7574285 0.41039038
000060 14 44 f0 be 2f 2e b6 bd eb 22 80 3f 44 84 a2 be
       -0.4692694 -0.088955276 1.0010656 -0.31741536
000070 5d 58 f2 be b5 19 05 3f 81 32 6e 3f 8f 4f a8 bf
       -0.4733304 0.5199235 0.9304581 -1.3149279
000080 52 67 f7 3e 1b 48 1e bf 8a e7 2c 3f d4 dd e3 be
       0.48321015 -0.61828774 0.675408 -0.4450518
000090 13 c4 ef 3c fc 5c 31 3f 64 65 5a 3f f1 54 87 bf
       0.0292683 0.6928251 0.8531096 -1.0572797
0000a0 69 2d b2 3e fc ea 05 bf 9c 0f 26 3f 51 29 d0 3e
       0.3480027 -0.5231168 0.6486757 0.40656522
0000b0 17 75 0d bf 78 ae 69 bf fd d1 6f 3f 34 13 ee 3e
       -0.5525679 -0.91281843 0.9367979 0.46499026
0000c0 f7 3a df be 2c 0f 9b bf 43 43 5f 3f 32 ce 1d 3f
       -0.43599674 -1.2114005 0.8721201 0.61642754
0000d0 7b 1e 4f bf 85 c2 31 bf 07 2c 81 3f 7e 8d c7 3e
       -0.80905885 -0.6943744 1.0091561 0.38975137
0000e0 b0 73 81 bd 90 a6 0a 3f f8 be 50 3f 14 57 24 be
       -0.06320894 0.54160404 0.81541395 -0.16048843
0000f0 b0 23 62 bd cc 66 36 bf 50 cd 41 3f b3 0c 2b 3f
       -0.055209816 -0.71250606 0.75703907 0.6681625
000100 d2 df 78 bf de 1f 4a bf 56 30 80 3f 4d 85 27 3f
       -0.9721652 -0.78954875 1.0014751 0.65437776
000110 9b b3 5c bf 34 b5 63 bf 51 26 81 3f 5d 46 fa 3e
       -0.86211556 -0.8894837 1.0089818 0.48881808
000120 c2 f6 b5 be a2 02 b1 be e5 32 64 3f 45 c5 b9 3e
       -0.35539824 -0.3457232 0.8914016 0.36283317
000130 82 02 dc 3e 4a 41 66 bf 54 37 27 3f 13 ad d8 3d
       0.42970663 -0.89943373 0.653188 0.10579886
000140 f1 32 8e 3f da 43 bc bf ba c4 f7 3d 7f f8 23 3f
       1.1109296 -1.4708207 0.120980695 0.6405105

model/conv2d_1/Conv2D_bias f4 [21]
000000 87 fd 07 3f 7f c7 13 3e 29 3a a3 be 73 eb 9f 3e
       0.5312123 0.1443157 -0.3188031 0.3123432
000010 bc 79 26 bf e3 ba 13 bf b8 66 d8 be 28 74 88 be
       -0.650295 -0.5770704 -0.42265868 -0.2665112
000020 46 5e 83 be 34 b1 e7 be 01 1d 01 bf 85 e2 b5 be
       -0.25657862 -0.45252383 -0.5043488 -0.35524383
000030 ab 1c 96 be 0a cc c3 be c1 03 27 bf 5b e3 a3 be
       -0.29318747 -0.38241607 -0.65240103 -0.32009396
000040 a8 5e c9 be b6 bd ad be 3e ea 03 bf 06 46 a0 be
       -0.3933003 -0.339338 -0.515293 -0.31303424
000050 cc 96 4b be
       -0.19881743

model/depthwise_conv2d/depthwise/ReadVariableOp f4 [1, 3, 3, 2]
000000 83 42 fd 3d fd ae ae 3f c4 1f 94 3f dc 11 e7 bf
       0.12366202 1.3647152 1.1572194 -1.8052325
000010 f5 4f 60 be 22 49 d2 bf 83 98 fb be 40 af 96 3f
       -0.21905501 -1.6428568 -0.49139795 1.1772232
000020 23 2e 71 3e 05 e3 50 bf ee 69 37 bf 28 a8 c1 bf
       0.23552756 -0.81596404 -0.7164601 -1.5129442
000030 ab 8c 0f 3f ff 40 95 3f aa 60 97 3d a8 c8 da be
       0.5607402 1.166046 0.07391484 -0.42731214
000040 bc 85 d0 be 85 38 71 be
       -0.4072703 -0.23556717

model/depthwise_conv2d/depthwise_bias f4 [2]
000000 f8 06 11 bf fc 66 4c 3f
       -0.5665126 0.7984464

model/depthwise_conv2d_1/depthwise/ReadVariableOp f4 [1, 3, 3, 2]
000000 6b f4 09 3f 96 82 66 be 2f 9d dc 3e 63 f8 93 be
       0.5388858 -0.22510752 0.43088672 -0.28900442
000010 1b 71 a0 be 55 aa fb 3e 48 38 b4 3f 44 cc 7a be
       -0.31336293 0.4915339 1.4079676 -0.24491984
000020 87 4f 86 3f d7 eb 9d 3f a7 84 62 3f 1c 40 46 3f
       1.049302 1.2337598 0.8848366 0.77441573
000030 05 90 fc 3e 2e 36 d6 be e6 54 b3 3d c5 59 c2 3e
       0.49328628 -0.4183821 0.087564275 0.37959114
000040 aa c0 c7 be 7b 48 6a 3e
       -0.3901418 0.22879212

model/depthwise_conv2d_1/depthwise_bias f4 [2]
000000 91 74 1b bf 0a 4b 49 bf
       -0.6072474 -0.78630126
